TD3_kivy-car_41_148_actor.pth (torch_old, 115453 bytes, 40 tensors)

conv1.0.weight f4 [16, 1, 3, 3]
000000 fc b6 ca bd 3a 8b d7 bd b5 7a f1 3d bf 35 0f be
       -0.09898183 -0.10524602 0.11790983 -0.13985346
000010 9a b0 a8 bd f0 5f cd 3d a2 a7 29 be 86 5a ac 3d
       -0.08236809 0.10028064 -0.16567853 0.084157035
000020 f9 f5 f6 3d f4 03 d9 3c f3 40 03 3c 2e d1 65 3d
       0.12058634 0.026491143 0.008011091 0.056107692
000030 00 ce 2c 3e 3c 5a af b8 3b 11 21 be 5d 96 63 3e
       0.16875458 -8.361458e-05 -0.15729229 0.22225328
000040 b0 6b 25 3e 86 34 4f ba f4 bd e8 bd 33 b8 64 bd
       0.16154361 -0.000790425 -0.11364356 -0.05583973
000050 9c 62 56 be 6b 42 0f 3e 82 fd 9b 39 b7 bd 16 3e
       -0.20936054 0.1399018 0.00029752782 0.14720808
000060 f4 81 5e 3d a1 61 48 bc 4e 6e 07 be 74 f1 43 3d
       0.05432315 -0.012230308 -0.13225672 0.04783769
000070 e9 35 0a be 91 66 d4 bc 38 c5 f1 3d e6 1a da bd
       -0.13497128 -0.025927814 0.118051946 -0.10649662
000080 4c 04 14 bc 0f bc 4d bc 2e 11 88 bb d5 31 71 3e
       -0.009034228 -0.012557044 -0.0041524386 0.23554166
000090 f4 29 eb 3d dc c9 58 bd 8e 1a 57 3e 7c 48 23 bd
       0.11482611 -0.052926883 0.21006224 -0.03986405
0000a0 6d d6 81 3d 0e c8 82 3d 2a 95 04 ba 10 1f 66 be
       0.063397266 0.06385814 -0.00050576276 -0.22472787
0000b0 68 71 69 3e 89 28 9d bc 25 43 13 3e d6 61 f6 bd
       0.22797167 -0.019184368 0.14381082 -0.120303795
0000c0 c5 2f 28 bb d6 38 4d 3e 3a d4 51 be 9c 67 98 ba
       -0.0025663238 0.20041212 -0.20491114 -0.0011627558
0000d0 08 7b 5e bb 64 a2 4d be 0b b2 43 bc 82 80 61 be
       -0.0033947844 -0.20081478 -0.011944304 -0.22021678
0000e0 ad 8f 6e 3c be df bc 3b 22 6c e3 3d 81 63 91 3a
       0.014560622 0.005763977 0.11104609 0.0011092277
0000f0 90 4f 7a bd 31 35 48 bd 43 fe 55 bd a6 6c 33 3e
       -0.061111033 -0.048878852 -0.052244436 0.17521915
000100 f5 c0 1c 3d 54 3e 7c be 7e 1f ee 3b ea ee 48 bb
       0.038269956 -0.24633151 0.0072669378 -0.0030659982
000110 e6 e0 23 3e a3 86 07 bd f8 f8 52 3e 64 a4 12 3d
       0.1600376 -0.033087384 0.20602787 0.035801306
000120 9d c2 5b be b5 3c e8 3c 5a 09 6c bc 39 5e c4 3d
       -0.21460958 0.02834926 -0.014406526 0.09588284
000130 bf e3 4d be 08 ef 1d 3c 6e eb 12 3e 9c 34 69 3d
       -0.2010641 0.009639509 0.14347622 0.056934938
000140 8c 4e b0 3d 6c 47 4a 3e b6 20 7e 3d 5b 61 21 3d
       0.086087316 0.19753808 0.062042914 0.039399486
000150 2c 68 4f 3c 0e a5 70 39 b6 7d 52 3e 6d ff 8c bc
       0.012659114 0.00022949671 0.20555767 -0.01721164
000160 c8 0e a3 3b 25 36 24 3b af ac d5 bc f6 29 25 3e
       0.0049761273 0.0025056687 -0.026083319 0.16129288
000170 b9 02 68 3b 95 75 4b be bd dc 13 3e 28 48 22 bd
       0.0035402013 -0.19869073 0.14439674 -0.039619595
000180 22 59 ca 39 a6 43 5e be cf 2a 75 3d 22 43 16 be
       0.00038594852 -0.21705493 0.05985528 -0.14674047
000190 6f e9 54 bb 51 ef 4d 3e 38 28 95 3c d4 d3 45 3e
       -0.003248777 0.20110823 0.018207654 0.19319087
0001a0 7a 56 d1 bd 74 46 66 be 04 91 3b be b5 ca 35 bd
       -0.10221572 -0.22487813 -0.18317038 -0.04438277
0001b0 8f 69 01 bd 04 9e 37 3c dc d8 ec 3d ea 2b 55 3e
       -0.03159481 0.011207107 0.115648 0.20817533
0001c0 0a 44 74 be 6f 27 e3 bd 96 d8 50 3e 35 3b 72 bb
       -0.2385408 -0.11091506 0.20395121 -0.003696156
0001d0 8e 45 e7 bc 71 62 78 be c3 f9 1b bc c7 0a 59 be
       -0.028231408 -0.24256302 -0.009519997 -0.21195517
0001e0 86 11 4a 3e f8 e2 9f bd 9f d3 18 bd 2a dc 28 3c
       0.19733247 -0.07806963 -0.037311193 0.010306397
0001f0 ec f2 97 3d 40 4b 52 3e 54 d6 ee bb a7 a0 29 be
       0.074193805 0.20536518 -0.0072887335 -0.1656519
000200 88 4b 53 3e f4 a7 63 bc 00 0a 4e 3d ad fb 2c be
       0.20634282 -0.013895024 0.050302505 -0.16892882
000210 42 69 07 be f5 09 34 ba 69 2d 2a bd 79 4b 17 ba
       -0.13223746 -0.0006867939 -0.041547213 -0.0005771439
000220 a8 00 5c 3d 14 ca 1d 3a c7 84 8d bd 56 21 cb 3a
       0.053711563 0.00060191867 -0.06910091 0.0015497606
000230 ab 44 32 3e 06 26 54 3e d3 48 46 3e 25 24 0e 3e
       0.17409007 0.2071763 0.19363718 0.13880976

conv1.0.bias f4 [16]
000000 09 d0 d4 3d af 5c 7a 3e 8c d1 65 be fa 37 54 be
       0.10391242 0.24449418 -0.22443217 -0.20724478
000010 81 1a f3 3d c0 65 70 3e 0f e3 1c be 46 35 96 3d
       0.118702896 0.23476315 -0.15320991 0.0733438
000020 41 fb c1 bd 8d 58 0c bc e4 dd 6b 3e 6a 5f ee bd
       -0.09471751 -0.008566034 0.23033863 -0.116392925
000030 b6 ae aa 3d 14 68 25 3e df d1 ac 3d fd ce 14 be
       0.08334105 0.16152984 0.08438467 -0.14532085

conv1.1.weight f4 [16]
000000 5b b0 68 3f 46 b3 68 3f f7 b1 68 3f 2f b3 68 3f
       0.908941 0.9089855 0.9089655 0.9089841
000010 a6 b0 68 3f 29 b0 68 3f cb b4 68 3f d0 b7 68 3f
       0.90894544 0.908938 0.9090087 0.90905476
000020 6d b4 68 3f 1c b1 68 3f ee b2 68 3f 8d b3 68 3f
       0.9090031 0.9089525 0.90898025 0.9089897
000030 11 b4 68 3f e7 b6 68 3f 12 b5 68 3f bc b2 68 3f
       0.9089976 0.90904087 0.9090129 0.90897727

conv1.1.bias f4 [16]
000000 ae 44 1f bb 91 43 4e ba 03 2c b6 b8 46 e7 00 ba
       -0.002430241 -0.00078683445 -8.686634e-05 -0.0004917275
000010 da 5b 53 ba f4 43 8f 39 72 ee d1 b8 67 ca 1e ba
       -0.0008062698 0.00027325714 -0.000100103105 -0.0006057382
000020 64 35 74 3a 34 cf 77 ba 0f 1c eb 3a 1d 61 4f 3a
       0.0009315817 -0.0009453178 0.0017937439 0.00079108943
000030 5d 39 12 3b 3a c1 5b bb b3 2b ab 39 02 df 11 ba
       0.0022312023 -0.003353192 0.0003264822 -0.0005564542

conv1.1.running_mean f4 [16]
000000 d9 77 a3 bc 62 4a 1e 3f 41 d3 ba be 48 35 f9 bd
       -0.019954609 0.6183225 -0.364893 -0.12168366
000010 5f 3b cb 3e a1 8f 90 3d ff 16 b6 be 11 c7 ac 3e
       0.39693734 0.07058645 -0.3556442 0.33745626
000020 04 a6 c7 bd 55 99 c2 3e 67 45 13 3e 36 ec af be
       -0.09748462 0.38007608 0.14381944 -0.34359902
000030 1a 53 35 3e 70 9a c7 3d 62 da 02 be d7 9e cd 3e
       0.17707482 0.097462535 -0.12778619 0.40160248

conv1.1.running_var f4 [16]
000000 12 52 08 3c 56 23 0c 3d ae ee ce 3b 22 18 28 3b
       0.008320348 0.034213386 0.006315074 0.002564915
000010 f7 d8 9e 3c 84 0a d1 3b 59 e8 1a 3c ec 65 89 3c
       0.019390566 0.0063794274 0.00945481 0.016772233
000020 b2 ba df 3a 0a e5 17 3d cd 84 68 3b 2a d3 6d 3c
       0.0017069189 0.037083663 0.0035479546 0.0145156775
000030 08 af bf 3b 4f f3 b3 3b f1 ed 2e 3c c9 b0 88 3d
       0.005849723 0.005491651 0.010676847 0.06674344

conv2.0.weight f4 [16, 16, 3, 3]
000000 b4 d6 a1 bb d6 43 96 bc fa 19 f5 bb 0c 30 69 bc
       -0.0049389247 -0.018342894 -0.0074799033 -0.014232647
000010 9d c1 ea 3b 77 07 80 bb ee 51 19 3c c4 9d b7 3b
       0.007164194 -0.00390714 0.0093579125 0.005603524
000020 05 31 22 bb a3 14 d3 3c af e8 49 bc b0 f7 34 3a
       -0.0024748456 0.025766676 -0.0123235425 0.00069033634
000030 67 30 3f ba 3d 0e db ba 34 9c 97 bb d3 03 72 bc
       -0.0007293284 -0.0016712617 -0.004626775 -0.01477142
000040 0c 6b cb 3b a7 b6 94 3c a4 ee 42 3b 86 28 0e 3b
       0.0062078293 0.018153502 0.0029744292 0.0021691634
000050 ca 19 d2 bb c5 33 ef ba c0 c3 8f bc fb b8 9d ba
       -0.0064117657 -0.0018249681 -0.017549396 -0.0012033278
000060 44 5c a8 3b 40 dc 03 3b c0 8c 45 3c 39 60 97 bc
       0.005137952 0.0020120293 0.012057483 -0.0184785
000070 41 92 d0 bc 10 31 41 3b 44 65 9d 3c 72 34 d7 bb
       -0.025460364 0.0029478706 0.019213326 -0.0065675313
000080 9b 35 80 ba 14 37 c2 ba ae 75 3b ba 68 81 ed ba
       -0.0009781601 -0.001481744 -0.00071510195 -0.0018120231
000090 3b d0 97 bc ea 24 a1 3b 7a 42 e5 3b 92 4b 5b bb
       -0.01853191 0.0049177306 0.00699645 -0.0033461791
0000a0 01 45 4b bc 2e bf 07 bc b0 a3 f6 bb d6 37 6a 3c
       -0.0124065885 -0.008285327 -0.0075268373 0.014295539
0000b0 2c a5 06 bb 20 53 0c 3c fa d9 c5 bb be 61 c6 ba
       -0.0020545227 0.00856474 -0.0060379477 -0.0015135331
0000c0 8d a9 65 bb 75 bc c4 3b 7c 79 1e 3c 21 29 74 bc
       -0.0035043687 0.006003911 0.009672519 -0.014902384
0000d0 f1 76 6d bc e7 b5 de bb 12 f2 04 bb 66 ce 04 bb
       -0.01449369 -0.006796587 -0.0020285887 -0.0020264625
0000e0 0a e2 9a bc ca 00 3c ba ce cd 04 3c 46 4a 76 bc
       -0.018906612 -0.00071717484 0.008105708 -0.015032357
0000f0 6c 02 43 3a 57 97 03 bc 5a b2 45 3b 94 0b a1 ba
       0.00074390206 -0.008031688 0.003016612 -0.0012286776
000100 83 67 63 3c 7d 91 0a 3c 57 fc 6b bc 7b 2e 97 3c
       0.01387966 0.008457539 -0.014403424 0.01845478
000110 05 50 af bc 7c 42 c2 ba d8 eb 3a 3b 43 1c bd b7
       -0.021400461 -0.0014820839 0.0028521921 -2.2543716e-05
000120 dc c5 9a bc a9 f6 bf bb fb c2 cc bb 16 ee 99 bb
       -0.018893175 -0.0058582616 -0.0062488294 -0.0046975715
000130 16 fb af bc 57 86 59 bc 94 35 9a 3c c3 ad 4a 3b
       -0.021482032 -0.013276658 0.018824376 0.0030926324
000140 40 dd b9 bb 64 ce e6 bb 3f 41 82 bb 8e a8 2d 3b
       -0.005672127 -0.0070436466 -0.003975063 0.0026498172
000150 ed c1 e1 3a be f8 0c bc a3 a9 b7 bc c2 63 3a bb
       0.0017223932 -0.008604227 -0.022419756 -0.0028440808
000160 e9 5a 6d bb 75 b4 86 3a 7d 00 88 bb 68 73 0b bc
       -0.0036217517 0.0010277169 -0.004150449 -0.008511402
000170 c9 86 32 bb 2e d3 30 bc ac f1 ad bc 52 2d 3c 3b
       -0.0027240983 -0.010792537 -0.021233402 0.0028713536
000180 fe 55 92 3b 0c 1e 50 bc d1 1a 2e 3b a6 51 e0 bb
       0.0044658175 -0.012702476 0.0026566277 -0.0068456708
000190 9c 41 b9 ba 14 fe 47 bc 19 e4 4d bc 22 e3 89 bc
       -0.0014133933 -0.012206573 -0.01256659 -0.016831938
0001a0 b5 4d 2f 39 5e b0 25 bc 1f ff c0 3a 14 3e 75 3b
       0.00016718249 -0.01011285 0.001472447 0.0037421035
0001b0 e3 39 d9 ba 7e cb 35 3c 31 98 e7 3b 7a 67 35 39
       -0.0016573038 0.01109588 0.007067703 0.00017300053
0001c0 96 de 16 bc 08 d4 72 bb e8 be 15 3b ab 7b d9 bb
       -0.009208342 -0.003705265 0.0022849385 -0.006637057
0001d0 14 3f f0 bb 05 21 2f 3c 19 76 0d bc ee 36 8a bb
       -0.0073317382 0.010689025 -0.008634114 -0.004217974
0001e0 f2 a3 56 bb a1 f6 6c bb bd 22 8c 3c f8 92 83 3c
       -0.0032751528 -0.0036157744 0.017106408 0.016061291
0001f0 bf d5 39 bc 52 e8 b1 bb b9 7b ee ba 75 7f cb ba
       -0.011342465 -0.005429306 -0.0018194831 -0.0015525656
000200 99 8a 9f bb 70 c6 15 bb 85 1b d2 3a 66 74 60 38
       -0.004868817 -0.0022853874 0.001602993 5.3514166e-05
000210 8d 62 82 3a a1 68 51 bc 5f 51 77 3a bd 82 17 3c
       0.0009947583 -0.012781293 0.00094344275 0.009247479
000220 63 7c da b9 cf 47 06 3c d1 f0 e1 bb c4 f5 00 bb
       -0.00041672876 0.008195831 -0.0068951626 -0.0019677738
000230 72 24 40 3c 99 9a 97 bb b7 58 85 bb 2d 0b 1c bb
       0.011727439 -0.004626584 -0.0040694135 -0.0023810372
000240 4d 56 ae bc f8 7b 24 ba 21 05 21 bc a2 82 f3 ba
       -0.021281386 -0.00062745763 -0.009827883 -0.001857836
000250 26 ab 5f bc c6 ce 13 bb d0 14 db bb 4c 28 ac 3c
       -0.013651645 -0.0022553666 -0.0066858307 0.021015309
000260 c3 e9 1c bb 8a 48 1e bc 60 0d c0 3c 44 89 ff bb
       -0.0023943044 -0.009660849 0.023443878 -0.0077983458
000270 2b 0d 3e bb d2 a2 9d 3b 9e db a6 bc fc 52 6f bb
       -0.0028999548 0.0048106695 -0.020368394 -0.0036517968
000280 d4 9c bc 3b 0f 60 aa 3c 37 96 f7 bb 97 b4 66 3c
       0.005756 0.020797757 -0.007555749 0.014081142
000290 38 b0 3a bc d6 8d ae ba 61 b2 fb 3b b7 c2 98 3a
       -0.011394553 -0.0013317417 0.0076811765 0.0011654709
0002a0 27 b1 34 3c bb b8 ac 3c 9d 13 84 bb 0a 8e 88 bb
       0.011028565 0.02108418 -0.0040306584 -0.004167323
0002b0 c9 b9 14 3c c0 b9 ba ba 7d 92 d8 bb c5 31 37 bb
       0.009077498 -0.0014246032 -0.0066092596 -0.002795325
0002c0 40 dc dd ba bf 28 27 3b ce c9 8a bb 6f de 78 3b
       -0.0016926602 0.0025506464 -0.004235483 0.0037974378
0002d0 a4 95 d8 3b 19 f0 33 bc 6e d7 17 bb 66 87 a8 bc
       0.0066096354 -0.010982537 -0.0023169178 -0.020572376
0002e0 80 cb 76 ba 11 fa 78 ba fc fc 9e 3c 94 df 48 bb
       -0.0009414479 -0.0009497712 0.019407742 -0.003065084
0002f0 ad cf 9e ba 88 ff cc bb 95 80 a3 bc 2c 5f a1 bc
       -0.0012116336 -0.0062560476 -0.019958774 -0.019698702
000300 ab 2d 38 bb 8c 5f 08 3b 60 fb 91 bb 84 cc aa 3b
       -0.0028103392 0.0020808904 -0.004455015 0.0052123684
000310 d7 08 6d ba 78 8c e8 bb 87 8b c4 3b 8a e9 d9 bb
       -0.000904215 -0.0070968233 0.0059980783 -0.0066501545
000320 46 66 ba 3a ce 71 9d 3c 5a 25 0a 3b 5f e9 16 3b
       0.0014221154 0.019219305 0.0021079392 0.0023027284
000330 54 18 9f bb 67 cf ce b9 0d 51 7c bc 5b 79 74 3c
       -0.004855195 -0.0003944591 -0.015400183 0.0149215115
000340 e1 4f 8a 3b 25 e5 eb b9 c3 18 68 bc de db 9c 3b
       0.004220948 -0.0004499342 -0.01416606 0.0047869524
000350 a6 61 10 3b 9e 38 f3 3b 1c cc 21 3a 3c 76 46 bc
       0.002203086 0.007422521 0.0006172077 -0.01211315
000360 38 df ae bc 31 01 a6 3c 34 e1 f2 3a 9e 49 ca ba
       -0.021346673 0.02026424 0.001853025 -0.0015433317
000370 ad b0 56 bc 10 cb 15 bc f1 d6 9a bc f5 39 e2 3a
       -0.013103646 -0.009142652 -0.01890132 0.0017259704
000380 66 a0 95 bc 42 57 3a bb 6c 1b 0d 3c 68 bb 87 bc
       -0.01826496 -0.0028433357 0.008612495 -0.016568854
000390 e5 f1 60 3c 99 4d cc bb 36 b9 32 3b 38 25 ec 39
       0.013729547 -0.0062348363 0.002727104 0.00045041158
0003a0 5d 02 30 3a 89 e6 a1 ba 3a 00 17 bb 03 f8 77 bb
       0.00067142193 -0.001235203 -0.0023040907 -0.0037837035
0003b0 4f 4d 9e 3c 73 cd 6e 3b d8 f8 ab 3c b3 8e 32 3c
       0.019323973 0.0036438375 0.020992681 0.01089828
0003c0 7f 28 97 3a eb 9e 8a 3c 87 5b 01 bb be 10 02 bb
       0.0011532455 0.016921481 -0.0019738392 -0.0019846405
0003d0 b7 42 c2 39 a9 f3 ab 3a 83 78 7f bb db 50 a5 3c
       0.0003705227 0.0013118881 -0.0038981743 0.020180156
0003e0 15 5d 16 bb dd 0c c9 3a 65 6f 88 bb b8 e9 f3 bb
       -0.0022943665 0.0015338917 -0.00416367 -0.007443633
0003f0 a4 83 77 3c fb 5a b7 3b 6e fd a6 3c 61 3a 59 ba
       0.015107069 0.0055955625 0.020384517 -0.0008286592

conv2.0.bias f4 [16]
000000 f3 57 14 37 ff 24 76 b9 51 28 ed 36 c5 a6 46 3c
       8.841965e-06 -0.0002347417 7.067844e-06 0.012124722
000010 54 dc df bb 9a 61 15 bc b8 c0 c9 b8 ba 89 ee 3a
       -0.006831685 -0.009117508 -9.6203235e-05 0.0018199005
000020 f8 3f 3e ba 53 a2 66 3b d2 64 6d 3c 22 9a a9 3c
       -0.0007257457 0.0035191968 0.0144893695 0.020703379
000030 fd 21 9e 3c f6 a1 fb b3 24 ee 23 bc 87 d5 f3 3b
       0.019303316 -1.1717559e-07 -0.010005508 0.007441226

conv2.1.weight f4 [16]
000000 4e b3 68 3f e6 b3 68 3f ec b8 68 3f 3f b1 68 3f
       0.908986 0.90899503 0.9090717 0.90895456
000010 b2 b2 68 3f b3 b0 68 3f 2d bd 68 3f 7b af 68 3f
       0.9089767 0.9089462 0.9091366 0.9089276
000020 dd b0 68 3f b4 b1 68 3f 3d b2 68 3f 6c b3 68 3f
       0.9089487 0.90896153 0.9089697 0.90898776
000030 cf ac 68 3f fa b2 68 3f 26 b4 68 3f e4 b4 68 3f
       0.90888685 0.90898097 0.90899885 0.9090102

conv2.1.bias f4 [16]
000000 b3 a5 c0 ba 62 ef a5 39 b4 04 18 3a 72 a7 da ba
       -0.001469782 0.00031649607 0.00057990407 -0.0016681983
000010 b3 d3 f5 b9 7d a7 81 38 35 e2 44 ba 6f d8 86 ba
       -0.0004688777 6.1823965e-05 -0.0007510514 -0.0010287891
000020 64 ff 50 ba 52 96 df 35 b7 7a df ba 53 b3 6d 38
       -0.00079726265 1.6658544e-06 -0.0017050122 5.6672212e-05
000030 cc 88 7a ba ae 16 18 ba 7b 9c 5d 3a 73 ad 22 3a
       -0.00095571275 -0.00058017194 0.00084537984 0.00062056555

conv2.1.running_mean f4 [16]
000000 46 ff d7 bd 2b 39 4e bc a7 b5 34 bd 92 70 b3 3a
       -0.105467364 -0.012586872 -0.04411855 0.0013690165
000010 b6 91 91 3d 13 f9 f5 3c a9 60 42 bd 20 47 6f bd
       0.0710787 0.030025994 -0.047455464 -0.05841744
000020 37 9e da 3b 26 67 5e bd 71 a5 a1 bd 67 65 05 3d
       0.0066716927 -0.05429759 -0.078928836 0.032567408
000030 54 48 d7 3c 4b eb 2b 3d e9 c0 25 3c 7b 98 96 bd
       0.026279606 0.04197244 0.010116794 -0.07353302

conv2.1.running_var f4 [16]
000000 61 f0 51 3c 2e 4d d7 3b 4a 94 86 3b dd 4c a8 3a
       0.012813658 0.00657048 0.004107033 0.001284029
000010 12 1e 09 3b b8 a0 22 3b c0 75 12 3b fd 48 ae 3b
       0.0020922464 0.0024815034 0.0022348017 0.0053187595
000020 d6 49 a0 3b f9 e9 3f 3b 20 fe 64 3c e1 47 55 3b
       0.0048916144 0.0029283746 0.013976604 0.0032544064
000030 4f ba bf 3b 71 1c 21 3b b9 f4 f6 3a af a1 a9 3b
       0.005851067 0.0024583603 0.0018841244 0.005176745

conv3.0.weight f4 [16, 16, 3, 3]
000000 31 f8 e3 3b 2e 5a 8e 3c 26 bf 60 3b e4 66 35 3c
       0.006957077 0.017376985 0.003429362 0.011071894
000010 21 18 a5 3b f8 e3 05 bc 4b 25 01 ba 34 dc 0a bc
       0.005038277 -0.008172028 -0.00049265166 -0.008475352
000020 98 96 34 3c 05 27 c2 3c 77 fd 7c bc 0d 8d 9f 3c
       0.0110222325 0.023700247 -0.01544129 0.019476438
000030 44 77 b7 bc 1b b8 a3 bb 90 3a 85 3c d9 c4 6c bc
       -0.022395737 -0.0049963123 0.016263276 -0.014451229
000040 4f 9a 82 ba 06 e2 1b bb b2 9b 06 3c d8 f8 49 bc
       -0.00099642 -0.0023785844 0.008215832 -0.012327395
000050 7f b0 7b bc a5 b2 48 bb 55 c2 cd 3b eb 6c 86 bc
       -0.015361904 -0.0030624059 0.0062792697 -0.016409358
000060 81 f2 66 3b 78 9c 11 3b 6e 4f 7e 3c 34 56 e4 3b
       0.0035239758 0.0022218507 0.015521867 0.006968284
000070 b6 34 a4 bc 97 9e 8a bb b6 df 38 bc 93 52 0c bb
       -0.020044666 -0.004230331 -0.011283806 -0.0021411523
000080 94 ea 7c bb 1e 19 ee bb 97 6d a5 b8 34 13 e5 3b
       -0.0038591968 -0.007266178 -7.888226e-05 0.0069908146
000090 4b 3f f3 bb 68 8c de b9 44 1b b2 3b 82 f1 49 bb
       -0.0074233166 -0.0004244775 0.005435379 -0.0030814116
0000a0 7a 0f 01 3c 7b f5 37 3a 2d e7 b9 b9 d9 8f 06 bc
       0.007877225 0.00070174754 -0.0003545819 -0.008213007
0000b0 1a c0 67 3c 73 38 e8 bb 49 ab 71 bb 17 91 0a 3b
       0.014144922 -0.0070868074 -0.0036875776 0.002114361
0000c0 24 24 43 3b 6c ee 27 3c 45 dd 62 3b 9b 4b 62 3b
       0.002977618 0.010249715 0.003461675 0.0034529928
0000d0 ec 23 a4 3c ed 90 82 bc ca e4 9b 3c 88 23 a0 3b
       0.02003666 -0.015938247 0.019029994 0.004887048
0000e0 0a ab b9 bc ac 0c 9a 3c d2 fb 55 3c f6 03 a0 bc
       -0.022664566 0.01880487 0.013060527 -0.019533139
0000f0 69 5f b3 bc d9 3d c7 3b d8 6b 40 3b 58 fb 65 bb
       -0.021896081 0.006080371 0.0029361155 -0.003509244
000100 27 cc c9 ba e9 99 ff bb 3c a4 62 bb e8 9b 8c 3c
       -0.0015395925 -0.00780033 -0.0034582755 0.017164186
000110 56 0c 8e 3c fd 47 42 3c 22 87 3e bc 41 e4 8f 3c
       0.017339867 0.011857984 -0.011628898 0.017564895
000120 de 42 e2 3b b0 a5 82 3c 89 ee 20 3b 5b 1e 14 ba
       0.006904944 0.015948147 0.002455624 -0.0005650275
000130 45 f3 8d bc 4b d6 9a 3a e5 5b 45 bb 23 c1 a1 3c
       -0.017327914 0.0011813132 -0.0030114588 0.019745415
000140 53 0c f2 3b 73 a8 7b bc 90 1a 04 bb 2f c0 cd ba
       0.007386723 -0.015359986 -0.0020157434 -0.0015697534
000150 a7 51 7f ba 7d a3 43 bc 83 c6 8b 3a a7 82 14 bb
       -0.0009739645 -0.011940834 0.001066402 -0.0022660883
000160 6c 7b 84 bc cf 32 51 bb 88 96 8e 3c db 4a f3 3a
       -0.016172133 -0.0031921153 0.017405763 0.0018561737
000170 1a 7c 9f ba 08 93 41 3c 1a 84 85 3b 57 ed 53 3b
       -0.0012167722 0.01181484 0.0040745856 0.003233751
000180 72 26 8b 3b 4e c0 2c bb cb 6f 64 ba 0a d3 0b 39
       0.0042465264 -0.002635974 -0.0008714168 0.00013334691
000190 c5 a1 3c 3c 68 9b 8e bb de b3 71 3c ba ef 85 3b
       0.011513178 -0.004352022 0.014752356 0.0040874155
0001a0 a1 87 30 bc 1e a6 de ba 30 f8 05 ba a1 25 4d bb
       -0.010774524 -0.0016986763 -0.000511053 -0.0031302946
0001b0 0d 33 2a bb c5 ee b8 bb 40 2c 45 bc a0 59 85 39
       -0.002597037 -0.005643698 -0.012034476 0.00025434513
0001c0 44 39 10 3b 74 56 74 bc 17 75 a1 bb 9b c1 10 b9
       0.002200679 -0.01491319 -0.0049272883 -0.00013805034
0001d0 9f b8 0a 3b f5 da f0 ba 2e 5d ba bb 9b a8 02 3b
       0.0021167172 -0.0018375801 -0.0056873774 0.0019936922
0001e0 16 02 34 3b b0 c5 ba 3a c8 1d 7a 3a 18 18 f1 bb
       0.0027467064 0.0014249589 0.0009541181 -0.0073576085
0001f0 c6 4a 9b 3c 9d dd 88 bb 46 c0 9f bc 9c 35 2a 3c
       0.018956553 -0.004176809 -0.019500863 0.010388758
000200 10 da 94 bb ba 86 42 bc 16 44 5f 3b fb 68 02 3c
       -0.0045425966 -0.011872942 0.0034067682 0.0079596
000210 d1 e7 9f bb 9c 69 35 bc eb 73 6e 3c 27 bf 31 3b
       -0.0048799296 -0.0110725425 0.014554004 0.0027121992
000220 3a a3 9d 39 9d e0 78 3c c1 6c 23 3c f8 8d 12 3c
       0.00030066987 0.015190271 0.009974659 0.008944981
000230 c3 7a 6e bb 7e 43 2f 3c 8c 47 87 b9 4b ce 86 bb
       -0.003638909 0.010697244 -0.00025802513 -0.0041139475
000240 fc 7f 3e 3c e2 8f 90 bc 30 cf 82 3c 42 6c 01 3c
       0.011627194 -0.017646734 0.015967935 0.007899346
000250 57 bb 01 3c 15 0b ec 3a b5 ce 9e 3a e8 15 db 3c
       0.0079182 0.0018008674 0.0012116047 0.026743844
000260 94 c7 00 3c 40 9f c1 3b 02 01 4e bc 9f 57 b9 b9
       0.007860083 0.0059088767 -0.0125734825 -0.00035351233
000270 a5 a3 72 bb 29 74 46 bb c3 e5 c1 bb 88 9f 7c bb
       -0.003702381 -0.003028164 -0.0059172823 -0.0038547236
000280 61 43 d9 bb 04 d6 4d bb 2d 3a 67 bc c5 31 b8 3c
       -0.0066303466 -0.003140808 -0.014112991 0.02248467
000290 f1 60 1b ba 72 c1 48 3b 6b 13 16 3b 83 6c 76 3c
       -0.0005927226 0.003063288 0.0022899758 0.01504052
0002a0 9f 30 7c 3a 0b a1 02 bb f7 d8 88 3b 31 22 39 3c
       0.0009620282 -0.0019932415 0.004176255 0.011299656
0002b0 0f 8e 10 bc 9d 53 22 bc ef 5d 3b bb 6b 26 8c bc
       -0.008822932 -0.00990763 -0.0028589924 -0.017108163
0002c0 a2 7a 99 bb 61 f6 0e bc 90 a3 bd ba f6 8b f6 3b
       -0.0046838084 -0.0087257335 -0.0014468301 0.007524009
0002d0 87 c5 e3 3a f3 b8 7c 3b 97 99 3e 3c 9f 6e 43 3c
       0.0017377593 0.0038562387 0.011633298 0.01192823
0002e0 59 b4 c7 bc 9d 0b 5f bb f1 d4 a2 bc 9c 2f b4 ba
       -0.024377989 -0.0034034022 -0.019876929 -0.0013747099
0002f0 ee 45 d3 3c d9 b0 b7 3b fd 35 3b bc dd 51 ac b9
       0.025790181 0.0056057987 -0.011426446 -0.0003286739
000300 ef 68 b4 3c 8e 70 a1 bc 40 8f 02 bb 12 90 f8 bb
       0.022022692 -0.01970699 -0.001992181 -0.007585534
000310 81 04 78 3b 67 b4 1a bc 89 26 22 3c fc a5 0f 3c
       0.0037844481 -0.009442425 0.009896883 0.008767601
000320 9a 28 f1 bb 36 40 f4 bb c4 2c b5 bb 10 18 97 3c
       -0.0073595764 -0.0074539436 -0.005529018 0.018444091
000330 ef 1d 3b 3c e2 d6 69 3c ca 39 d6 3b 51 e2 58 b7
       0.011420711 0.014272423 0.0065376507 -1.2927297e-05
000340 8b e2 86 3c ff 6e 2b bc 4f 32 9c 3c da 94 25 3b
       0.016465446 -0.010463475 0.019066958 0.0025265724
000350 83 bc 6a bc d4 c6 d6 bb ef 14 bb bc b3 74 cb 3c
       -0.014327171 -0.006554464 -0.02283713 0.02483592
000360 9c 23 e3 ba 10 2e 25 3c 0f 68 51 3b 3f 13 04 bb
       -0.0017329338 0.010081783 0.0031952893 -0.0020153073
000370 15 81 20 3b 9f c9 47 ba 97 8b bc bb 72 8e 21 3c
       0.0024491001 -0.00076212914 -0.005753945 0.009860622
000380 9a 62 66 bc af 15 9a 3c 35 9f 2f bb ab 78 16 3c
       -0.014061594 0.018809168 -0.0026797776 0.009184043
000390 8a e8 e2 bb aa a9 20 3c 21 db c7 bb 0c 25 42 39
       -0.0069246935 0.009806076 -0.0060991202 0.00018515083
0003a0 b9 d7 d9 3b 92 b7 a2 bc 35 ad 4d bb f0 65 82 bc
       0.0066480306 -0.019862924 -0.0031383757 -0.015917748
0003b0 e8 3f b2 ba 1f cf 6b bc f1 75 69 3c a1 3f 47 3b
       -0.0013599368 -0.014392643 0.014249311 0.0030402916
0003c0 2b 6a 98 bb a0 a5 53 ba 2e f0 0c 3c 6d 0a 12 bc
       -0.004651328 -0.0008073691 0.008602185 -0.0089136185
0003d0 b1 4f 4d 3c b5 49 e8 ba ea 5f ce bb da fa de 3c
       0.012531207 -0.0017722162 -0.006298055 0.027219225
0003e0 81 69 6f bb f0 00 e6 3b e1 ab 69 3b 3c cd c0 ba
       -0.003653139 0.0070191547 0.0035655426 -0.0014709602
0003f0 85 22 79 bb 5a 38 0a bc 7d a5 1e bc 40 c1 69 bc
       -0.003801496 -0.008436287 -0.00968301 -0.014267266

conv3.0.bias f4 [16]
000000 57 3e 8f bc fd 69 a8 ba ab 95 48 37 fc 17 c1 33
       -0.01748578 -0.001284897 1.1955776e-05 8.9916256e-08
000010 7a e2 63 bc fd a4 4c bc 8c cd b0 b8 99 8f 17 b3
       -0.013908977 -0.012490508 -8.43062e-05 -3.528803e-08
000020 36 28 fc bb 30 de da 37 68 fe 4a 3b 7b 1f 21 b2
       -0.007695223 2.609109e-05 0.0030974392 -9.378591e-09
000030 e6 3a e2 3a c8 c6 1d 38 45 b1 34 3b b3 bd 8f 3a
       0.0017259985 3.7616846e-05 0.0027571481 0.0010966569

conv3.1.weight f4 [16]
000000 40 b5 68 3f 2b c8 68 3f aa ac 68 3f 0f b1 68 3f
       0.90901566 0.9093043 0.90888464 0.9089517
000010 85 af 68 3f 6d af 68 3f d8 b0 68 3f a2 b0 68 3f
       0.9089282 0.9089268 0.9089484 0.9089452
000020 57 af 68 3f e6 af 68 3f b1 b1 68 3f 03 b5 68 3f
       0.9089255 0.908934 0.90896136 0.909012
000030 36 bb 68 3f da ae 68 3f c2 b6 68 3f de b0 68 3f
       0.9091066 0.908918 0.90903866 0.9089488

conv3.1.bias f4 [16]
000000 90 7a 5b ba ee 8c 16 3a 7d 03 8b ba 3a ff 91 ba
       -0.000837245 0.0005743046 -0.0010605898 -0.0011138686
000010 58 ac 74 ba 3e df 77 ba d4 1c 86 b9 1c 5d 3e b9
       -0.00093335425 -0.0009455568 -0.0002557995 -0.00018154498
000020 af 68 b7 b9 b2 d0 d3 38 2e de 6d b9 e3 dc 5c bb
       -0.00034982475 0.000101001366 -0.0002268485 -0.0033700995
000030 61 76 e8 ba 5f bd 81 ba 3d 60 0d bb f2 99 9a b9
       -0.0017735475 -0.0009898356 -0.0021572255 -0.00029487867

conv3.1.running_mean f4 [16]
000000 09 c0 b4 3c 1d c0 88 bb 56 61 df 3c 9a f8 c5 bd
       0.022064226 -0.0041732923 0.027268093 -0.096665576
000010 85 4b a8 bc f8 9f 84 bd cf bd a2 bc 8d aa 76 bc
       -0.020543823 -0.06475824 -0.019865898 -0.015055311
000020 67 be a7 bc a3 a7 9d 3b 95 ae 8a bc ba af 7a bc
       -0.020476533 0.0048112436 -0.01692895 -0.015300686
000030 52 a4 42 3b 50 59 26 bc 51 3b 19 3c b3 fa 2a 3d
       0.0029699993 -0.01015313 0.009352521 0.04174299

conv3.1.running_var f4 [16]
000000 8b d5 13 3b 62 d4 27 3b 47 05 52 3b 6f de b8 3b
       0.0022557701 0.0025608768 0.0032046603 0.0056417505
000010 51 35 bd 3b d2 80 de 3b b6 3a 48 3b 47 e9 48 3b
       0.005774178 0.006790259 0.0030552573 0.0030656622
000020 f0 f0 76 3b 80 3b 3b 3b 31 00 20 3b df b2 19 3b
       0.003768023 0.00285694 0.0024414177 0.0023452563
000030 96 50 ae 3a f2 38 91 3b d9 0a d7 3a 66 e8 ed 3a
       0.0013299163 0.0044318372 0.0016406431 0.0018150925

conv4.0.weight f4 [16, 16, 3, 3]
000000 65 30 ee ba c1 31 17 bb 7a f6 33 bb 3e 2e f9 3a
       -0.0018172382 -0.0023070427 -0.0027460144 0.0019010974
000010 d2 9f 34 bb d4 45 79 3c b8 ee ed ba 87 7c 25 3b
       -0.002756108 0.015214402 -0.0018152809 0.0025251226
000020 1f 44 84 bb d6 a0 ae bb 99 8d 5b 3c fe 71 4e b9
       -0.004036441 -0.0053292317 0.013400459 -0.00019688156
000030 02 01 c2 ba 0b e2 9a bb 81 5c 91 bc bb 68 11 3c
       -0.0014801326 -0.0047266535 -0.017744305 0.008875067
000040 0d 9a 7e bb ee 12 cf ba c4 7f 23 bb 2a a5 e3 bb
       -0.0038849146 -0.0015798488 -0.002494798 -0.0069471793
000050 3c 3f 7b bb 68 3a 06 bb 0c 0f 59 3c ae 42 cb 3b
       -0.0038337251 -0.002048159 0.013248216 0.006203017
000060 9c 74 c7 b9 f5 5b 94 ba 72 b7 3d bb 55 15 db bb
       -0.0003804312 -0.0011318909 -0.0028948453 -0.0066858926
000070 a0 26 09 bb 3f 4f a7 bc 63 95 34 3c 67 82 94 3a
       -0.0020927563 -0.02042353 0.011021945 0.0011330367
000080 db 8a 0b 3c e5 2a 80 bb 53 c8 81 3b bc 14 72 3c
       0.008516992 -0.0039113634 0.003960648 0.014775451
000090 53 c5 05 bc 52 b3 61 ba 73 53 90 bc ec ee dc 3a
       -0.008164722 -0.00086097897 -0.017617917 0.0016855872
0000a0 c7 40 03 3b ae a5 92 bc 9c 1b 8e bb 94 50 79 ba
       0.0020027624 -0.017901268 -0.0043367874 -0.0009510603
0000b0 62 f3 6d 3b 44 50 a5 3c e5 5e 2b bc 48 26 c4 3a
       0.0036308398 0.020179875 -0.010459636 0.0014965022
0000c0 70 11 87 3c e2 b8 b8 3c 4d 28 62 3c 03 bb 19 3c
       0.016487807 0.022549096 0.013803554 0.009382966
0000d0 20 e2 4c 3c bd b8 2e 3b f6 48 ba ba cd 15 ae 3b
       0.012505084 0.0026660406 -0.0014212418 0.0053126574
0000e0 8c d2 3b 3b f4 5f 85 3c ed b6 92 3c 93 b6 21 3b
       0.0028659431 0.016281106 0.017909491 0.0024675473
0000f0 be 05 db 3b 3a 4a 8f 3b 10 cd fb 3b 65 23 4c bb
       0.006684034 0.004372862 0.0076843575 -0.0031149026
000100 58 2c 34 ba 71 87 b0 bc db 1c d5 ba 2d 5d 5c ba
       -0.0006873063 -0.021548958 -0.001625921 -0.0008406218
000110 a4 6b 82 bb c7 47 98 bb 06 02 66 ba 79 04 ba ba
       -0.003980117 -0.0046472284 -0.0008774105 -0.0014192007
000120 0f e3 55 3c ed 95 a3 bc a1 dc f9 b9 4c b3 95 3c
       0.013054623 -0.019968951 -0.00047657362 0.018273972
000130 ff dc 10 3c ed ac 87 3a 1f 8e 97 bc 2a 0a 35 3b
       0.008841752 0.0010351219 -0.018500386 0.0027624466
000140 03 32 20 ba 8a fa 65 3c 34 0d 93 bb 5f 92 e3 bb
       -0.0006110968 0.014036784 -0.004487658 -0.006944939
000150 e7 13 82 3c 30 6d aa 3a 2e ba 07 3c 71 ef bb bb
       0.01587863 0.0013002511 0.008284135 -0.0057353307
000160 e7 de b0 3c 59 d4 9d bc 67 cd 5d 3c e5 db ac ba
       0.021590663 -0.019266294 0.013537741 -0.0013188092
000170 28 7b 5a ba d1 00 19 bb 5b 2e ab 3b 2b 1e 5a bc
       -0.0008334392 -0.0023346434 0.005224032 -0.013312857
000180 69 6b 84 3c 2d 6f 51 3a 78 e4 04 bb 6f 13 9c 3c
       0.016164498 0.0007989284 -0.002027778 0.019052235
000190 95 61 fc ba 0e 20 39 3c 3b 0d 9a bc b4 cf 05 bb
       -0.0019255156 0.011299146 -0.018805137 -0.002041799
0001a0 1f e6 10 ba 82 b4 df ba 40 54 09 3b 94 d0 21 3c
       -0.0005527455 -0.0017067345 0.0020954758 0.009876389
0001b0 70 f9 5f bc 6c 95 24 bc cc 94 7d bb ec f6 1d b9
       -0.01367031 -0.010045391 -0.0038693426 -0.00015064672
0001c0 6f ef a4 3a f2 e7 34 bb a6 e4 b4 3b 0e 12 76 3b
       0.0012583564 -0.002760407 0.005520421 0.0037547383
0001d0 aa c9 93 3b 63 ec 5b ba ab 13 36 bb 1d bb 08 3c
       0.004510124 -0.00083894114 -0.002778272 0.0083453925
0001e0 3c 5f b6 bc 0b 23 86 bb 23 6b 88 bb e5 fa 61 3c
       -0.022262208 -0.004093533 -0.0041631623 0.013792728
0001f0 ca b8 b4 3b ed eb 45 bb 3a c7 0c bb 3b 5d e4 bb
       0.0055151926 -0.0030200437 -0.0021481053 -0.0069691218
000200 7b 5f 2a 3b da ee 9f ba 9b 03 9b bb e9 e3 54 bb
       0.0025996852 -0.0012201921 -0.0047306544 -0.0032484478
000210 45 c3 65 bb 21 9a 36 bb fc 4e bc bb 2a 81 51 3c
       -0.0035059017 -0.0027862864 -0.0057467204 0.012787143
000220 eb 53 47 ba 90 ea 4a 3a a9 31 16 bc dc 28 3a bb
       -0.00076037523 0.0007740641 -0.009167113 -0.0028405702
000230 b4 8e 0c bb be 20 40 ba f8 9d a9 b9 95 e8 fe ba
       -0.0021447362 -0.0007329098 -0.00032351888 -0.0019447977
000240 a3 05 c8 3b eb 9b 76 3a 43 ee 54 bc c8 62 04 3a
       0.0061041876 0.0009407389 -0.012996259 0.000505012
000250 03 24 ee 3a 35 7e 8d bb 56 6d fb bb be 49 88 3c
       0.0018168691 -0.0043180236 -0.007672946 0.016636726
000260 cc 28 85 bc f9 41 13 bb 87 c4 80 3c c7 87 24 bb
       -0.016254805 -0.0022469743 0.015718712 -0.0025105344
000270 aa de a3 3b 8b 9b c6 bb 70 e6 ac bb 89 27 0f bd
       0.005000909 -0.0060610226 -0.0052764937 -0.034949813
000280 3a 68 41 3c a1 4d 5f bc 31 11 1a 3b 00 14 7d 3c
       0.011804635 -0.013629348 0.0023508782 0.015446663
000290 32 73 f7 ba 9b 84 16 3c a0 cc ad 3b b9 a4 89 3c
       -0.0018878935 0.009186889 0.005303934 0.016802179
0002a0 86 3d 91 bc 87 ab 61 3c f9 b8 b7 3a 04 0f 0f bc
       -0.017729532 0.013773805 0.0014016918 -0.008731607
0002b0 7e b3 d3 3b e8 91 8c bc 62 72 ea 3b 6d 18 ab 3a
       0.006460606 -0.017159417 0.007154749 0.0013053544
0002c0 c6 d1 94 3c cd 12 d2 3b ee c6 21 b9 53 7d cf 3b
       0.018166434 0.0064109326 -0.00015428264 0.0063320785
0002d0 fc c7 58 bb ef 95 a4 3c cd c1 68 3c a9 bf da bb
       -0.0033078184 0.020091025 0.014206362 -0.0066756797
0002e0 0d 3f 8e bb bb c7 fd bb 1b f0 93 3b f8 07 47 3c
       -0.0043410123 -0.007744757 0.004514707 0.012147896
0002f0 aa 65 8c bb 89 27 07 bb 17 7b 5c bc 0c 00 12 bb
       -0.0042845802 -0.002062293 -0.013457081 -0.002227786
000300 a3 3f 00 3a a3 37 d8 3a 5c 0f 28 3c 1d d6 d9 ba
       0.0004892295 0.0016496073 0.010257568 -0.0016619597
000310 28 c4 2d bb 4d 4e 0b 3c d9 c2 6d 3c e3 28 9b 3b
       -0.0026514623 0.008502555 0.014511787 0.0047350987
000320 ca 4f 80 ba e6 91 ab bb f3 9c 2a 3c 8a af 5a ba
       -0.0009789404 -0.0052358983 0.010413396 -0.00083421974
000330 7b 8b db ba e3 11 38 bc 33 d2 e8 3b 66 b9 a7 bc
       -0.0016749942 -0.011234733 0.007105136 -0.020474147
000340 cb d7 74 3c 06 4a 89 3a 1c 4c 7d b8 f1 8e a3 bc
       0.014944027 0.0010474331 -6.0390783e-05 -0.01996562
000350 52 6c f5 ba 10 c1 bc bb c6 5a 13 3c 4a 70 d9 3b
       -0.0018724299 -0.0057603195 0.00899381 0.0066357004
000360 75 e5 a8 3a 93 97 71 bb e5 9d 1d 3c c3 25 81 bb
       0.0012885766 -0.0036864027 0.0096201645 -0.003941269
000370 60 3d cc 3a a3 3a aa 3b f7 01 83 3c 00 42 0b bb
       0.0015582256 0.0051949783 0.015992148 -0.0021249056
000380 a5 6d 2f bb 3f 88 d1 ba 33 40 94 bb 83 2c 49 bb
       -0.0026768234 -0.0015986039 -0.0045242547 -0.0030696697
000390 14 0f 25 bb 5c 61 ab 3b 06 f3 85 bb ef f2 e2 bb
       -0.002518599 0.005230112 -0.0040878085 -0.0069259326
0003a0 0d 7a 11 bc df 5d 27 bb 05 e0 a3 3a 97 72 2b 3c
       -0.008879197 -0.002553813 0.0012502676 0.010464332
0003b0 0a ec 5c 3b 8b bc 42 bb 2c 0a ec b9 44 70 93 3a
       0.0033710026 -0.002971443 -0.00045021006 0.0011248668
0003c0 88 6f ef 3b 59 11 8a 3a 9d 27 56 3b 1a e0 ea bb
       0.0073069967 0.0010533734 0.003267742 -0.0071678283
0003d0 b5 16 91 3c d4 f3 e4 3b 43 ec 68 bc b5 b0 8f ba
       0.017711023 0.0069870744 -0.014216485 -0.0010962697
0003e0 f0 61 bc 3a a4 fa e3 3c 79 f3 98 b9 7f 01 a2 3c
       0.0014372449 0.027829476 -0.000291731 0.019776104
0003f0 7c 73 ce 3b 3a fd 95 3b 45 68 6d b8 df 30 68 bb
       0.006300388 0.004577306 -5.660231e-05 -0.003542952

conv4.0.bias f4 [16]
000000 46 89 b0 bb 72 06 99 3c 6c 7e a0 3c 99 d7 4a bc
       -0.005387458 0.018679831 0.019591533 -0.012380504
000010 66 2b b2 af 1e 63 8c 3b 74 81 da bb 88 19 a4 bc
       -3.2408848e-10 0.0042842766 -0.006668264 -0.020031705
000020 a4 7b 27 3a b0 3d 7c 3b 72 35 89 b0 56 4c e4 bb
       0.00063889683 0.0038488917 -9.983252e-10 -0.0069671078
000030 00 e6 72 32 27 31 3b bc a8 90 5d 3b d5 14 53 bc
       1.413855e-08 -0.011425293 0.0033808146 -0.012883385

conv4.1.weight f4 [16]
000000 68 b0 68 3f 0c c2 68 3f 94 ad 68 3f 15 c5 68 3f
       0.90894175 0.9092109 0.9088986 0.90925723
000010 04 af 68 3f e9 b4 68 3f e5 ae 68 3f 04 ac 68 3f
       0.9089205 0.90901047 0.9089187 0.90887475
000020 13 ae 68 3f b4 ac 68 3f e9 aa 68 3f 65 af 68 3f
       0.90890616 0.90888524 0.9088579 0.9089263
000030 53 b7 68 3f 00 d0 68 3f 79 ad 68 3f 0a a9 68 3f
       0.9090473 0.9094238 0.908897 0.90882933

conv4.1.bias f4 [16]
000000 58 55 4f 38 08 3d a8 bb bb 84 40 bb 83 9b 84 3a
       4.943213e-05 -0.0051342286 -0.0029375989 0.0010117147
000010 34 3d ea ba 31 bd 63 bb 4b e9 77 ba 7f 9c 27 bb
       -0.0017871023 -0.0034750218 -0.00094570656 -0.0025575457
000020 98 b4 a9 b9 10 69 40 bb c1 ef 8c ba 73 ce 6b ba
       -0.00032368745 -0.0029359497 -0.0010752605 -0.0008995302
000030 59 3e 37 bb d1 59 00 bc a4 98 24 bb 2a e5 94 ba
       -0.0027960746 -0.007833914 -0.0025115395 -0.00113598

conv4.1.running_mean f4 [16]
000000 6a e2 0f 3d c8 a9 b0 3d 3c 79 21 3d 37 29 a4 3b
       0.035128035 0.08626133 0.03942226 0.005009796
000010 f8 49 6e bc bd cd 9b 3c cd de cd bb 59 11 34 3a
       -0.014544003 0.019019002 -0.0062826634 0.000686904
000020 7e 12 5c 3d 11 45 4a bd 59 82 2c 3b f1 91 b3 bc
       0.053728573 -0.049382273 0.002632281 -0.021920176
000030 e4 21 59 3c 46 d7 bd bb 48 54 55 bc d2 51 42 bd
       0.013252709 -0.005793485 -0.0130205825 -0.04744131

conv4.1.running_var f4 [16]
000000 5b 25 0a 3c 2b 4e e5 3a 70 d6 e5 3a 78 b7 a1 3a
       0.008431758 0.0017494609 0.0017535221 0.0012338003
000010 ac e1 36 3b 1d d6 09 3b f3 8f 24 3b 54 51 90 3b
       0.0027905507 0.0021032162 0.0025110214 0.0044042263
000020 de a6 a4 3b 44 71 6a 3b 79 e1 86 3b 98 a8 b3 3a
       0.005024775 0.0035773078 0.004116234 0.0013706861
000030 a9 91 39 3a 3d f1 e7 3a 93 5d 63 3b 9f 75 8e 3b
       0.0007078895 0.0017695796 0.0034693226 0.0043475176

conv5.0.weight f4 [16, 16, 3, 3]
000000 5e d1 18 3a e0 84 07 bc 2b 77 b3 bb ce 18 31 3b
       0.0005829538 -0.008271426 -0.0054768524 0.0027022841
000010 56 f1 5e bb fd 2d a4 ba a3 a5 23 3b 75 1a b6 3b
       -0.003401836 -0.0012525913 0.0024970553 0.005557353
000020 f1 7c 8b 3c c5 78 7d b9 c8 3a a0 39 fd 7f 93 ba
       0.01702735 -0.0002417295 0.00030561374 -0.0011253353
000030 56 f5 45 bb c8 56 82 ba 4b 11 48 3c 60 a5 3b 3c
       -0.0030206046 -0.0009944076 0.012211154 0.011453003
000040 15 3d e3 3b 5d d7 cb 3b b3 a0 d9 3a b7 fb 5d bb
       0.006934772 0.0062207417 0.0016603678 -0.0033871958
000050 ac a9 95 bb 3f a9 29 ba 45 d0 ca 3a 3e 44 1e 3b
       -0.0045673456 -0.0006472058 0.0015473446 0.0024149562
000060 54 04 35 bb 16 20 fc bb 3c 60 17 bc 10 32 13 3c
       -0.0027620988 -0.0076942546 -0.009239253 0.008984104
000070 42 d4 75 3c 00 3a 4b 3c 1e 26 98 3c 22 c5 63 ba
       0.0150042195 0.012403965 0.018572863 -0.0008688738
000080 0f 84 8d 3c 8a 26 72 3c 5e b6 6b 3c 71 8f 9f 3c
       0.017274885 0.014779696 0.014386741 0.019477578
000090 77 6f ad bb 0a 36 8b 3c 42 fb 06 3c be a8 08 bc
       -0.0052928287 0.016993541 0.0082386155 -0.0083410125
0000a0 43 8b 96 bb 54 74 eb b9 41 fd 0c bc 60 c2 4b 3c
       -0.004594238 -0.00044909364 -0.008605302 0.012436479
0000b0 aa 7e 83 ba 21 61 25 bb 57 a8 be 3b fc 03 06 bb
       -0.0010032256 -0.0025234895 0.0058184075 -0.0020449152
0000c0 45 33 fd 37 8f 6e 2a bc 72 81 4a ba 06 8d b0 39
       3.0183824e-05 -0.010402336 -0.00077249773 0.00033674407
0000d0 7b 76 17 3b 33 f7 98 bb e0 6f 2b 3c 07 cd 8a 3c
       0.0023111391 -0.0046681403 0.010463685 0.016943468
0000e0 38 74 88 3a f9 d3 0e bb 48 ab e0 3b 93 82 17 3c
       0.0010410612 -0.0021793826 0.006856356 0.00924744
0000f0 1c b9 b7 bb 67 5f e7 b9 a2 2e ff bb 60 fb fd ba
       -0.0056067836 -0.00044130834 -0.0077875415 -0.0019377284
000100 11 7a 84 bc f8 0e b2 3c dd 00 5d 3c 91 84 2b ba
       -0.016171487 0.021735653 0.013488975 -0.0006542886
000110 8d b3 86 3a 7c 8e a0 39 00 7a 4d bb 9e a5 f9 b9
       0.0010276899 0.00030623737 -0.0031353235 -0.00047616375
000120 36 60 cc 3a 8a 1a ce 3a e7 cc 91 3b e6 ed e9 39
       0.0015592638 0.0015724462 0.004449475 0.0004461847
000130 79 85 1b bb db 0f 35 3b e4 27 55 3c 6b ea 1d bc
       -0.002373068 0.0027627859 0.013009999 -0.009638409
000140 7a e4 3e 3c ec b9 12 3c c0 58 dd bb 54 39 dc 38
       0.011651153 0.00895546 -0.0067549646 0.00010501096
000150 44 9e 42 3c 1a 72 70 3c ad ac 58 ba a7 9e 87 bc
       0.011878554 0.014675641 -0.0008265477 -0.016555144
000160 c1 b9 00 3c 91 f8 93 ba 64 25 e7 39 a3 5e 54 3c
       0.007856787 -0.0011289289 0.00044087612 0.012962016
000170 8f ef a3 bb a8 81 8d ba 20 94 5a 3c de 13 e3 39
       -0.005002923 -0.0010796087 0.01334098 0.00043311616
000180 c0 e6 dd 3a 70 62 1d bc ea a0 b9 b9 18 20 02 3c
       0.0016929731 -0.009605989 -0.0003540584 0.007942222
000190 a6 bb 1c bc 53 c8 e5 39 4d 6d ee 3b ac 14 c3 bb
       -0.009566223 0.00043827537 0.0072762133 -0.005953392
0001a0 e1 45 4f bc d1 49 28 3c 01 1f 0e 3c b8 80 5d 3c
       -0.012650938 0.010271505 0.008674384 0.0135194585
0001b0 12 73 63 3c b2 d4 e2 3a ea 1c c4 bb 89 65 ab 3b
       0.013882415 0.001730582 -0.005984892 0.00523061
0001c0 26 a7 55 bb 79 44 cc 3c e9 ea 8b 3c ec 96 b3 bb
       -0.003260085 0.024934994 0.017079787 -0.005480638
0001d0 56 15 b0 3a 79 08 b5 bb 21 82 c1 3a bb 00 72 3c
       0.0013434093 -0.0055246917 0.0014763513 0.014770682
0001e0 d5 b2 89 bb 38 b7 27 3b 03 08 b3 bc 1d 96 22 bc
       -0.0042022266 0.0025591385 -0.021854406 -0.009923485
0001f0 91 d2 b8 bb fa e7 91 3b d5 48 99 bc b0 c4 1e bc
       -0.005640336 0.0044527026 -0.018711487 -0.009690449
000200 ca b7 20 3c dd 57 42 3c e1 72 79 bc a7 fe bc 3a
       0.009809444 0.011861769 -0.015225143 0.0014419154
000210 e4 2b de 3b 79 42 dc 3b c1 da ce ba 61 85 f1 3a
       0.0067801345 0.0067217913 -0.0015781746 0.0018426591
000220 b4 fe bf 3b 78 1a 30 39 30 11 ac 3b df 82 3d 3b
       0.0058592204 0.00016794528 0.0052510723 0.0028917117
000230 82 1a 0c bc 9d c8 9c bb 1d b8 0f bb f1 81 6e bb
       -0.008551242 -0.004784657 -0.0021929808 -0.003639337
000240 b0 eb 21 bb b7 ec 42 bb ef 19 cd bb 42 5c de ba
       -0.002470713 -0.0029743144 -0.006259195 -0.0016964751
000250 93 f6 2e 3b f3 d0 fb ba e7 fd b7 bb 23 22 5a bb
       0.0026697263 -0.0019212052 -0.0056149843 -0.0033284507
000260 33 f8 89 bb 69 7a e4 3b 40 2a 9f bb df d7 bb 3c
       -0.004210496 0.0069726002 -0.0048573315 0.022930084
000270 58 a3 fa 3b 03 3e c9 ba bf db 12 3b b1 eb a5 3c
       0.0076488666 -0.0015353564 0.002240881 0.020253988
000280 ae 28 c7 bb f4 81 66 3c b9 8b 7a 3b 7e f8 7b 3b
       -0.0060778474 0.014069069 0.0038230254 0.0038447673
000290 32 72 23 bb 9b 61 4f ba 09 dc 38 3b ad 1f 57 3c
       -0.0024939892 -0.00079109677 0.0028207323 0.013130111
0002a0 58 ca a6 3b 22 b8 f4 ba 73 8b 05 3c 49 26 3b 3a
       0.005090039 -0.0018670599 0.008150923 0.0007139189
0002b0 46 9f a4 3a aa 13 3c 3b 53 f8 4f bb a3 78 29 3b
       0.0012559674 0.0028698244 -0.0031733706 0.0025859259
0002c0 3f 53 f3 3a 87 e7 58 bc c4 64 cb bb ad 18 38 bb
       0.0018564238 -0.013238794 -0.0062070806 -0.002809088
0002d0 53 c6 60 bc 85 39 07 3c c0 0f 0c bc 71 35 78 ba
       -0.013719159 0.00825346 -0.008548677 -0.00094684126
0002e0 99 6d 16 bc c7 29 b3 3b 80 bb c1 3b f2 8f 16 bb
       -0.009181404 0.0054676267 0.0059122443 -0.0022973982
0002f0 f5 c8 ef 3a 28 d6 17 3c 00 21 d1 b9 79 75 12 bb
       0.0018294143 0.009267367 -0.00039888173 -0.0022347851
000300 b4 91 84 3c 7d 4a 5e bb 92 5f 43 3c 7e 1a 15 3b
       0.016182758 -0.003391891 0.011924641 0.0022751386
000310 ff 51 bb bb 32 b6 d1 3b b4 95 e8 3b 46 12 f8 3a
       -0.005716562 0.006399893 0.007097924 0.0018926344
000320 fe 43 07 39 d8 8c a4 3b bc c1 cf 3b 20 2a 41 bb
       0.00012899932 0.0050216727 0.0063402336 -0.0029474571
000330 fe bd b6 bb 8d 55 cd bb a2 37 d7 3b a4 49 18 3b
       -0.005576848 -0.006266302 0.0065679112 0.0023237253
000340 2d c0 12 b9 b4 fb 06 ba 3b 1e 5c 3a eb 02 a0 ba
       -0.00013995236 -0.0005149201 0.00083968387 -0.0012207901
000350 d6 e7 13 bc 50 be c9 ba 40 01 09 3b b0 cf 90 bb
       -0.009027442 -0.00153918 0.0020905286 -0.0044192895
000360 73 16 50 3b 8a 72 80 3c e9 6b b4 3b fd f2 e1 ba
       0.0031751662 0.015679616 0.005506028 -0.0017238554
000370 14 56 8c bc 2c 29 77 bb 2b f5 6c bb a3 ba ca bb
       -0.017130889 -0.003771375 -0.0036156874 -0.0061867996
000380 fa 14 15 bc 4b 0d 34 38 94 60 4c b9 e5 a8 58 3c
       -0.0090992395 4.2927724e-05 -0.00019490934 0.013223861
000390 50 1c 48 bb 1f 32 d2 3b 1d a5 8d 3b 99 8f 13 bb
       -0.0030534454 0.0064146663 0.0043226616 -0.002251601
0003a0 a1 aa 95 ba a4 7e 0a 3c f5 c4 e7 3a c3 95 19 bb
       -0.0011418649 0.008453045 0.0017682599 -0.0023435212
0003b0 27 f4 a6 3b 92 7d 43 3b 53 ac df bb 50 41 81 39
       0.005095023 0.0029829484 -0.0068259626 0.0002465346
0003c0 6e 23 2c 3b 04 0b 1c 3b 6f 79 37 3c e6 81 92 bc
       0.0026266235 0.0023810277 0.011198386 -0.017884206
0003d0 a6 29 77 bc cc 05 13 bc db f2 41 bb 91 eb 15 3c
       -0.015085613 -0.00897355 -0.0029594216 0.009150402
0003e0 4e 09 8f b9 a4 d4 b2 3a d2 3c 2a 3c fe 77 2f 3b
       -0.00027282018 0.0013643694 0.010390477 0.0026774402
0003f0 84 f9 b5 bb 8a f4 28 3a b8 0c b3 3b 80 e0 9d 3b
       -0.005553426 0.00064451306 0.0054641627 0.0048180223

conv5.0.bias f4 [16]
000000 bb 4c 8d 36 f8 23 18 b6 1e 16 bf bb e3 ce 7c ba
       4.21106e-06 -2.2670702e-06 -0.005831494 -0.00096438656
000010 ff 34 fd bb e3 5b 3a b8 6e c3 06 b9 74 bf 8f 39
       -0.007727265 -4.4431432e-05 -0.00012852039 0.0002741773
000020 02 db 43 b9 61 eb 57 bc cc 26 a7 b9 07 aa f7 bb
       -0.00018678236 -0.013178677 -0.00031881628 -0.0075581106
000030 2d cf bf b6 1e 9d a7 ba 61 ba d6 31 47 cf 04 b2
       -5.716362e-06 -0.0012787913 6.2494085e-09 -7.730541e-09

conv5.1.weight f4 [16]
000000 d6 1b 69 3f 48 9e 69 3f 29 e4 69 3f 89 b1 69 3f
       0.910581 0.91257143 0.9136377 0.9128652
000010 48 01 69 3f c8 dc 68 3f 08 f8 68 3f 1c d0 69 3f
       0.9101758 0.90961885 0.91003466 0.91333175
000020 1d b4 69 3f 73 ec 69 3f f5 af 69 3f 10 00 69 3f
       0.91290456 0.9137642 0.91284114 0.9101572
000030 56 0a 69 3f fa 6c 69 3f b5 5c 69 3f 75 59 69 3f
       0.91031396 0.9118191 0.91157085 0.91152126

conv5.1.bias f4 [16]
000000 15 4f 2f 3d 41 b1 04 3d 46 9b 12 3d 57 c8 fd 3c
       0.042800028 0.032395605 0.03579261 0.030979319
000010 5e 5c 0c 3d 5d 97 e0 3c f3 c5 0c 3d 62 e8 08 3d
       0.034267776 0.027415926 0.034368467 0.033424743
000020 84 55 fd 3c e6 6d 17 3d 64 ee 09 3d ab 0e 15 3d
       0.030924566 0.03697004 0.033674613 0.03639094
000030 f9 c5 1c 3d 57 68 d7 3c 0b c8 51 3d ba da 49 3d
       0.03827474 0.02629487 0.051216166 0.04928086

conv5.1.running_mean f4 [16]
000000 7e 86 67 3d ed 68 6b 3d c7 66 6d 3d 38 e0 84 3d
       0.056524746 0.057473112 0.057959344 0.06488079
000010 25 54 18 3d 9f a2 be 3c d4 ad 13 3d 89 02 8a 3d
       0.03718962 0.023270903 0.036054447 0.06738765
000020 74 31 4c 3d 05 39 2f 3d 39 71 97 3d 86 e4 10 3d
       0.04985185 0.042778987 0.073946424 0.035374187
000030 b4 34 ca 3c 2a 56 89 3d cf 22 16 3d df c2 5c 3d
       0.024683334 0.067058876 0.03665429 0.05389678

conv5.1.running_var f4 [16]
000000 ff bb a3 3a 77 ec 8b 3b f6 75 08 3c 49 06 09 3b
       0.001249194 0.004270132 0.008328905 0.0020908287
000010 b9 7e 85 3a be bc c1 3a a4 4a 94 3a ab 3e 54 3b
       0.0010184861 0.0014780981 0.0011313749 0.0032385986
000020 bc 63 71 3b b8 8b 7d 3b 6b 02 90 3b 22 5e 94 3a
       0.0036833128 0.0038688015 0.0043948195 0.0011319558
000030 f6 0f 91 3a 68 9f 69 3b c7 35 ab 3a d4 40 70 3a
       0.0011067379 0.0035647992 0.0013062292 0.00091649336
