pytorch_models/TD3_kivy-car_41_147_critic.pth (torch_old, 230503 bytes, 74 tensors)

conv1_1.0.weight f4 [16, 1, 3, 3]
0.28256345 -0.05170872 -0.31988567 -0.15305172 0.1225132 -0.067735 -0.16214088 -0.008604236
0.12572059 -0.042233627 -0.31418628 0.21014017 0.29593924 -0.30591398 -0.062165264 0.08590596
-0.25364104 0.32047367 0.07861183 -0.16834012 -0.27710202 -0.34187475 -0.2314122 0.20520975
0.26050222 0.26216516 -0.18156813 -0.0654554 -0.04899301 -0.28531867 -0.05736688 0.1125922
0.05801468 -0.1290475 0.061134886 0.09003857 0.14362775 0.23872685 0.25239682 0.23910083
-0.28292862 0.20359947 -0.2948043 -0.13396114 -0.053045306 -0.14478098 0.09401002 -0.06404643
0.019570231 0.103698485 0.1371052 0.025996884 -0.10239291 -0.06450316 0.07928135 -0.032030296
-0.09894439 -0.19669224 0.27052706 -0.07186964 0.27434358 0.28203103 0.25286484 0.018374609
-0.15327561 -0.1858461 -0.24031459 -0.28438243 0.021975731 0.29720855 0.32912564 0.3205214
-0.2954266 -0.03178526 -0.19816613 0.11005075 0.0314628 -0.26902196 0.0056632305 0.011912129
0.14726694 0.04915567 0.3080257 -0.041450195 0.2692694 -0.030430261 -0.07514742 -0.058891762
0.14483617 -0.017215187 -0.004841242 0.36412808 0.09276507 0.10158036 0.2897561 -0.22741517
-0.21310917 0.25337765 0.045419358 -0.043085705 -0.16118118 -0.2859825 -0.08574587 -0.33050865
0.17799206 0.26000208 0.1259045 -0.29015434 -0.16692251 -0.0015383114 -0.016350154 -0.096630834
-0.10914325 0.30972522 0.16438866 0.11696946 -0.040839992 0.008945618 -0.16314074 -0.05696567
0.14164051 -0.30829108 0.07255462 0.20123169 -0.0168846 0.18751255 0.28304082 -0.24419682
0.20343338 0.2705903 -0.145903 0.22928514 0.16219488 -0.031037504 -0.22389746 0.27448583
-0.23387218 0.024876673 -0.119980454 0.24417329 0.2845688 0.16874886 0.16941682 0.15706274
00000000: 28ac 903e 86cc 53bd 0ec8 a3be 97b9 1cbe
00000010: 33e8 fa3d a6b8 8abd 4208 26be c8f8 0cbc
00000020: e6bc 003e 2bfd 2cbd 06dd a0be fc2e 573e
00000030: 5985 973e c2a0 9cbe 01a1 7ebd 77ef af3d
00000040: 3ddd 81be 2015 a43e 3dff a03d 5a61 2cbe
00000050: 51e0 8dbe 350a afbe 52f7 6cbe 8122 523e
00000060: 8c60 853e 833a 863e ffec 39be 7b0d 86bd
00000070: e5ac 48bd 4a15 92be 89f9 6abd bd96 e63d
00000080: cda0 6d3d 0725 04be 9368 7a3d 2466 b83d
00000090: 2713 133e d074 743e 283a 813e d9d6 743e
000000a0: 05dc 90be 617c 503e 97f0 96be 1c2d 09be
000000b0: 0946 59bd 7741 14be 5388 c03d c62a 83bd
000000c0: c051 a03c df5f d43d 4e65 0c3e 6bf7 d43c
000000d0: 60b3 d1bd 3c1a 84bd 435e a23d 3332 03bd
000000e0: 5ba3 cabd b169 49be 8682 8a3e 6430 93bd
000000f0: c376 8c3e 5f66 903e 8077 813e 5986 963c
00000100: 48f4 1cbe 714e 3ebe 0715 76be 939a 91be
00000110: 7306 b43c b82b 983e 2883 a83e 621b a43e
00000120: 2842 97be 4331 02bd 10ec 4abe 4a62 e13d
00000130: 23df 003d 3fbd 89be 9f92 b93b 172b 433c
00000140: 25cd 163e 7557 493d 8bb5 9d3e aec7 29bd
00000150: aedd 893e e248 f9bc e4e6 99bd 7d38 71bd
00000160: ef4f 143e dd06 8dbc 48a3 9ebb ff6e ba3e
00000170: 9dfb bd3d 5d09 d03d e95a 943e 86df 68be
00000180: 4a39 5abe b7ba 813e a609 3a3d a37a 30bd
00000190: ae0c 25be 4c6c 92be 889b afbd 6e38 a9be
000001a0: 8d43 363e fe1e 853e 1ced 003e 1c8f 94be
000001b0: bced 2abe 2aa1 c9ba c2f0 85bc 63e6 c5bd
000001c0: 7f86 dfbd 4e94 9e3e 8055 283e af8d ef3d
000001d0: d647 27bd a490 123c 5e0e 27be d654 69bd
000001e0: 360a 113e 54d8 9dbe 8497 943d ae0f 4e3e
000001f0: 9351 8abc 4a03 403e baea 903e bb0e 7abe
00000200: d750 503e d08a 8a3e 9967 15be b9c9 6a3e
00000210: 6a16 263e 5d42 febc 6045 65be 6889 8c3e
00000220: 307c 6fbe 2aca cb3c 50b8 f5bd 9008 7a3e
00000230: 00b3 913e 80cc 2c3e 9a7b 2d3e 0ed5 203e

conv1_1.0.bias f4 [16]
-0.09065501 -0.06252577 -0.03702566 -0.06314583 0.2966158 -0.1071952 0.08001097 -0.044811238
0.050885223 -0.25517693 -0.066095956 0.2925804 -0.26380146 -0.123922355 0.24948709 0.13122168
00000000: 55a9 b9bd 830d 80bd 38a8 17bd 9a52 81bd
00000010: 07de 973e 2889 dbbd cbdc a33d fd8b 37bd
00000020: 066d 503d 8da6 82be 515d 87bd 19cd 953e
00000030: fc10 87be 01cb fdbd 8b79 7f3e fa5e 063e

conv1_1.1.weight f4 [16]
0.99896246 0.95048594 1.0029589 0.9966248 1.0129265 0.9796854 1.0028964 1.0077285
1.0042259 1.0147398 0.99306095 0.99975926 1.0183207 0.99479437 1.0089327 1.0106694
00000000: 01bc 7f3f 0c53 733f f560 803f ce22 7f3f
00000010: 93a7 813f aacc 7a3f e95e 803f 3ffd 803f
00000020: 798a 803f fee2 813f 3e39 7e3f 39f0 7f3f
00000030: 5558 823f d8aa 7e3f b524 813f 9d5d 813f

conv1_1.1.bias f4 [16]
0.003897439 0.0073495214 0.00834103 -0.0006690692 -0.01457347 0.009165057 0.0030300217 0.011406885
0.010339605 -0.005972219 -0.00044410038 -0.0015699451 -0.0007004549 -0.004377888 -0.012957703 -0.0051333276
00000000: 2d6c 7f3b 41d4 f03b d1a8 083c 7964 2fba
00000010: 90c5 6ebc 0929 163c 5493 463b f2e3 3a3c
00000020: 7267 293c 9bb2 c3bb 25d6 e8b9 9ec6 cdba
00000030: bc9e 37ba 6374 8fbb 8c4c 54bc 7935 a8bb

conv1_1.1.running_mean f4 [16]
-0.20524079 -0.09619549 -0.22819829 -0.18648258 0.4417586 -0.101807825 0.45952272 0.021166064
-0.18291749 0.011749955 0.27857035 -0.017015459 -0.17995894 -0.090258725 0.49139902 0.6126436
00000000: a42a 52be 2402 c5bd d0ac 69be 4af5 3ebe
00000010: 2f2e e23e 9f80 d0bd 9046 eb3e 7464 ad3c
00000020: b94e 3bbe e282 403c c6a0 8e3e 0164 8bbc
00000030: 2847 38be 91d9 b8bd a798 fb3e 36d6 1c3f

conv1_1.1.running_var f4 [16]
0.012393701 0.006741638 0.036006976 0.017097633 0.028010016 0.00068777346 0.12832445 0.009552426
0.052731443 0.064917035 0.11200432 0.09204634 0.008485409 0.005730802 0.06042334 0.20275807
00000000: f30e 4b3c f5e8 dc3b 0d7c 133d 5610 8c3c
00000010: 4375 e53c b24b 343a 7c67 033e c781 1c3c
00000020: edfc 573d 39f3 843d 8562 e53d cb82 bc3d
00000030: 6306 0b3c 74c9 bb3b 777e 773d d09f 4f3e

conv2_1.0.weight f4 [16, 16, 3, 3]
-0.040632386 -0.039767336 0.02990713 0.0052686613 0.032522213 0.009629094 0.065383464 -0.065292336
0.090795375 -0.03794529 -0.03377333 -0.044673875 -0.08542858 -0.079791725 -0.0730687 -0.028366338
-0.06758762 -0.031670135 -0.055612765 -0.019059613 0.07097468 0.026999433 0.0648872 0.013340824
-0.027975053 0.058892086 -0.06629815 0.080023065 -0.041971244 0.018294856 -0.050398093 0.021604022
0.011467826 0.00890603 -0.041682977 -0.04337489 0.038084827 -0.0897796 -0.030915065 0.028485185
-0.049976267 0.00062152906 0.017901152 -0.043296877 0.07322391 -0.100864656 -0.054518506 -0.0057846117
-0.053839896 -0.0627145 -0.025540698 -0.027719334 -0.04246367 -0.040620055 -0.036399852 0.03194926
-0.037450895 0.026240747 -0.0044057067 0.044529095 -0.07095333 -0.07447004 0.05247149 0.06399395
0.0392842 -0.014554767 0.016332943 -0.0695244 -0.026007472 -0.06382848 -0.05240433 -0.0656948
0.014339362 0.013976718 0.093358085 -0.023876278 -0.008825652 -0.030303666 0.02733427 0.07205915
0.0009881818 0.061670158 0.05330942 -0.015960673 0.023634516 0.03555558 0.013430919 0.012081225
0.023819588 0.034753706 0.06783368 -0.053400077 -0.06903981 -0.061922144 -0.016752431 -0.011477475
0.0380717 -0.035111364 -0.071563065 0.064496286 0.02154668 -0.039416686 0.052584685 0.026082477
0.009733236 0.03739586 -0.039540205 -0.056355074 -0.020589108 0.064460084 0.014581112 -0.02616423
0.03938008 0.06683983 -0.028947994 0.01549067 -0.0954997 -0.060968313 -0.057338577 -0.08161043
0.032043222 0.013081802 0.0219963 0.03463589 -0.07803261 0.0734519 -0.004835055 0.004979723
-0.04987258 -0.03991828 0.035275538 -0.029795188 0.074176855 0.008777153 0.034006838 -0.0755256
-0.036890008 -0.013636008 -0.052347515 -0.03823189 0.028736047 0.048395615 0.043343168 0.028349278
0.05967324 -0.04126255 0.06947014 0.07075964 -0.07711667 -0.03688042 -0.018983763 -0.02263747
-0.06571389 -0.010235001 -0.057936013 0.012065193 0.008721999 -0.048562355 -0.03235372 -0.05050553
0.028328964 -0.052254975 0.04698731 0.04769392 -0.042080533 0.06071105 -0.021091966 0.022944527
-4.2779877e-05 0.025447326 0.06890159 0.055846572 0.005297085 0.028205872 0.019893348 0.06758771
0.038637396 0.038258445 0.010940243 -0.071255445 0.042226713 -0.05581284 -0.0016153479 -0.07397071
-0.054763116 0.029379047 -0.024982337 0.04945407 0.016780844 0.03345391 -0.00273391 0.026575001
-0.08910896 -0.06456863 0.0012382871 -0.042315386 -0.019886844 -0.08468549 -0.029472198 0.07183556
-0.07642092 0.08440073 -0.036898192 -0.07574508 -0.019300422 -0.033601336 -0.034015633 0.023631826
0.020607965 -0.06197623 -0.020259421 -0.037923623 0.07391541 -0.019099373 -0.08180251 0.02920774
-0.07572413 -0.009603647 -0.058075253 -0.043699834 0.08148135 -0.014036442 -0.07395069 -0.01855013
-0.024648916 0.07513329 0.09130304 0.013540974 0.045179356 0.092664644 0.024049116 -0.040931117
0.04269726 -0.0498561 -0.025749225 -0.050865624 0.0284641 0.03227293 0.07072177 0.07422951
0.01961283 -0.020606298 0.016057467 -0.07968902 0.03191891 -0.014215235 -0.039546005 -0.0754775
0.050677914 0.07830512 -0.041054018 -0.024624817 0.04519037 -0.012329121 -0.062358815 0.03879213
00000000: 256e 26bd 13e3 22bd ccff f43c bca4 ac3b
00000010: 0336 053d 59c3 1d3c c4e7 853d fdb7 85bd
00000020: edf2 b93d 856c 1bbd e755 0abd f4fb 36bd
00000030: 2ef5 aebd d869 a3bd 0ba5 95bd 8660 e8bc
00000040: 616b 8abd 8bb8 01bd 36ca 63bd e822 9cbc
00000050: 2c5b 913d ea2d dd3c 95e3 843d 7993 5a3c
00000060: f02b e5bc d438 713d 53c7 87bd 22e3 a33d
00000070: 0aea 2bbd 18df 953c 3b6e 4ebd ebfa b03c
00000080: 8ce3 3b3c 99ea 113c c5bb 2abd dea9 31bd
00000090: d6fe 1b3d 5ede b7bd 9741 fdbc c359 e93c
000000a0: eab3 4cbd 1cee 223a 70a5 923c 1158 31bd
000000b0: 6bf6 953d 2192 cebd cc4e 5fbd d78c bdbb
000000c0: 3987 5cbd 7670 80bd ba3a d1bc a813 e3bc
000000d0: 63ee 2dbd 3761 26bd 0318 15bd 3add 023d
000000e0: 1c66 19bd d6f6 d63c bf5d 90bb 2464 363d
000000f0: fb4f 91bd c083 98bd 58ec 563d 430f 833d
00000100: 78e8 203d 1e77 6ebc aacc 853c cf62 8ebd
00000110: 9f0d d5bc 82b8 82bd eca5 56bd ff8a 86bd
00000120: a5ef 6a3c 9bfe 643c 8632 bf3d 2f98 c3bc
00000130: 7899 10bc 653f f8bc 1eec df3c bf93 933d
00000140: e185 813a d999 7c3d fa5a 5a3d f5bf 82bc
00000150: 2c9d c13c baa2 113d 5b0d 5c3c 55f0 453c
00000160: 4c21 c33c e759 0e3d 62ec 8a3d 0aba 5abd
00000170: be64 8dbd 13a2 7dbd 653c 89bc 050c 3cbc
00000180: 12f1 1b3d efd0 0fbd a88f 92bd a116 843d
00000190: aa82 b03c 6473 21bd 0a63 573d ebaa d53c
000001a0: 2778 1f3c 672c 193d e9f4 21bd 94d4 66bd
000001b0: 7daa a8bc a603 843d 9ee5 6e3c 5e56 d6bc
000001c0: 024d 213d 52e3 883d 5824 edbc 94cc 7d3c
000001d0: 5995 c3bd e9b9 79bd dbdb 6abd 5e23 a7bd
000001e0: c13f 033d 0e55 563c 9631 b43c 5dde 0d3d
000001f0: 90cf 9fbd f36d 963d 626f 9ebb f22c a33b
00000200: 3147 4cbd 5a81 23bd 157d 103d 0a15 f4bc
00000210: 09ea 973d 0cce 0f3c c14a 0b3d 2aad 9abd
00000220: fa19 17bd 9069 5fbc 596a 56bd 0b99 1cbd
00000230: dc67 eb3c 7b3a 463d 9b88 313d bf3c e83c
00000240: ed6b 743d eb02 29bd 5c46 8e3d 6eea 903d
00000250: 58ef 9dbd ec0f 17bd d683 9bbc 3772 b9bc
00000260: 0195 86bd b5b0 27bc 504e 6dbd 16ad 453c
00000270: b7e6 0e3c 52e9 46bd 5685 04bd e3de 4ebd
00000280: 2512 e83c 5009 56bd c475 403d b35a 433d
00000290: a35c 2cbd 26ac 783d 0fc9 acbc 29f6 bb3c
000002a0: 8b6e 33b8 e976 d03c 471c 8d3d 60bf 643d
000002b0: 2b93 ad3b 0010 e73c 60f7 a23c 6d6b 8a3d
000002c0: 3f42 1e3d e3b4 1c3d b43e 333c 60ee 91bd
000002d0: ebf5 2c3d 019c 64bd 15ba d3ba f57d 97bd
000002e0: 4a4f 60bd 54ac f03c c2a7 ccbc 5a90 4a3d
000002f0: fb77 893c f806 093d 662b 33bb d1b3 d93c
00000300: c27e b6bd 8f3c 84bd 054e a23a e652 2dbd
00000310: bce9 a2bc 966f adbd ae6f f1bc 861e 933d
00000320: 9282 9cbd 4ada ac3d 8f22 17bd 3d20 9bbd
00000330: eb1b 9ebc 8ea1 09bd fa53 0bbd 8897 c13c
00000340: 09d2 a83c cada 7dbd 16f7 a5bc cd55 1bbd
00000350: f660 973d 4a76 9cbc 1388 a7bd 1245 ef3c
00000360: 4115 9bbd 9d58 1dbc 51e0 6dbd 99fe 32bd
00000370: b2df a63d 1bf9 65bc 7673 97bd 71f6 97bc
00000380: 86ec c9bc 7bdf 993d 17fd ba3d f6da 5d3c
00000390: fd0d 393d f6c6 bd3d a702 c53c 63a7 27bd
000003a0: 52e3 2e3d e935 4cbd 0af0 d2bc 7958 50bd
000003b0: 8b2d e93c 9f30 043d 93d6 903d a405 983d
000003c0: 16ab a03c 8ace a8bc f38a 833c ff33 a3bd
000003d0: 67bd 023d 04e7 68bc fefa 21bd f393 9abd
000003e0: a593 4f3d 6f5e a03d 4228 28bd fcb9 c9bc
000003f0: 8a19 393d 1500 4abc f56b 7fbd 7fe4 1e3d

conv2_1.0.bias f4 [16]
-0.021837996 -0.063975304 -0.06418618 0.015713591 0.015222434 -0.046183195 0.047024652 -0.021710405
0.048412986 0.025966085 0.048588745 0.050041597 -0.03304875 0.022847492 0.06889817 0.06492504
00000000: 99e5 b2bc 7c05 83bd 0b74 83bd cab9 803c
00000010: 8467 793c 972a 3dbd ec9c 403d 05da b1bc
00000020: b24c 463d d4b6 d43c fe04 473d 6bf8 4c3d
00000030: 205e 07bd aa2a bb3c 7c1a 8d3d 6bf7 843d

conv2_1.1.weight f4 [16]
1.0028777 1.0224782 1.0057744 1.0049113 1.0179687 1.0003345 0.9577751 0.9721214
0.9978299 0.986593 0.9855491 1.0065131 0.99174976 1.0323105 0.9871297 1.0057182
00000000: 4c5e 803f 91e0 823f 37bd 803f efa0 803f
00000010: cc4c 823f f60a 803f c030 753f f3dc 783f
00000020: c871 7f3f 5c91 7c3f f24c 7c3f 6cd5 803f
00000030: 50e3 7d3f c022 843f 88b4 7c3f 60bb 803f

conv2_1.1.bias f4 [16]
-0.0009182123 -0.0015794376 -0.0038277586 -0.0091464035 0.026294002 -0.0028489637 -0.016806927 -0.010687267
-0.033592317 0.010831663 0.0042811367 -0.024334766 0.0008065954 0.01254872 -0.00079660444 -0.0068912474
00000000: 2fb4 70ba 2205 cfba 22db 7abb ccda 15bc
00000010: 8566 d73c aeb5 3abb aeae 89bc a619 2fbc
00000020: 1998 09bd 4a77 313c c748 8c3b b459 c7bc
00000030: b371 533a 2699 4d3c 38d3 50ba f9cf e1bb

conv2_1.1.running_mean f4 [16]
-0.16605043 -0.088702425 -0.3656095 0.10893398 0.16233313 -0.1510942 -0.43476152 -0.30336097
-0.10927675 0.25022453 0.39703128 -0.24521019 -0.78166115 -0.15513319 0.06246497 -0.032162704
00000000: 2009 2abe 9ea9 b5bd 2b31 bbbe c718 df3d
00000010: a83a 263e 70b8 1abe 1099 debe 2152 9bbe
00000020: 7dcc dfbd 6e1d 803e af47 cb3e 6118 7bbe
00000030: f21a 48bf 3cdb 1ebe 45db 7f3d 0abd 03bd

conv2_1.1.running_var f4 [16]
0.10589892 0.06589152 0.07291626 0.058566205 0.04984632 0.22977975 0.07580406 0.2817197
0.13045973 0.18160409 0.2478408 0.051393095 0.5174141 0.047360126 0.061459314 0.3314671
00000000: 88e1 d83d 22f2 863d 1f55 953d 1ee3 6f3d
00000010: a82b 4c3d 624b 6b3e 293f 9b3d 913d 903e
00000020: 3c97 053e 6cf6 393e fbc9 7d3e 9181 523d
00000030: 4075 043f b1fc 413d c3bc 7b3d 0eb6 a93e

conv3_1.0.weight f4 [16, 16, 3, 3]
0.072512485 0.03001444 0.02714225 0.0028564176 -0.0009051219 0.055269007 0.028301146 -0.008146082
-0.00726953 -0.08908421 0.012038948 0.057941876 -0.015042724 -0.08094682 -0.04881265 -0.07420011
-0.026824633 -0.07597929 -0.07351717 0.039786786 0.04331989 -0.019531565 0.07061719 0.019584548
-0.0526607 -0.008630345 0.046811644 -0.050595682 0.033091392 0.049355745 -0.04996147 -0.012318652
-0.054168615 0.0027963244 0.026590986 0.028835291 -0.08444632 -0.023995014 0.0460554 0.0117694875
-0.079420745 -0.07215712 0.0551159 -0.05678947 0.06922741 0.008965362 0.075713724 -0.06876501
-0.01294458 -0.036957953 -0.00253484 0.010540488 0.051752154 -0.03846174 0.019662367 -0.017761538
0.015190873 -0.060440693 0.0050515784 -0.03823735 0.015934061 0.05739284 -0.0058875396 -0.06257879
0.0025368214 0.037530787 0.03866649 -0.005119581 0.055392202 -0.06036591 0.02791289 0.009172787
-0.06054493 0.033539765 -0.08603525 0.055835262 0.09126414 0.054425802 -0.01035184 -0.0012536561
0.06903696 0.06587711 -0.0525737 0.039493185 0.02701435 0.029430814 0.050470058 -0.017948836
-0.06267715 0.033311404 -0.013585972 0.054176252 -0.06351225 -0.062081534 -0.06912911 -0.026047777
0.05529228 0.06168678 0.04650512 -0.06445291 0.040552374 -0.0389929 0.037515014 0.054813568
0.049861204 -0.06274112 -0.059700456 -0.0053868424 0.0065275226 0.020607742 0.079437576 0.00733699
-0.048180368 -0.0029875047 -0.013311926 -0.0071758977 0.08249461 -0.033910017 -0.013322084 -0.07287216
-0.054015767 -0.06568777 -0.03614476 -0.06452777 -0.003682667 0.045464 -0.00922118 -0.10518375
-0.0570098 0.040740084 -0.055729304 0.030564114 0.040995702 0.003713645 0.031091936 0.025685132
0.0024914918 0.06088347 -0.051699117 0.003793887 -0.07254149 -0.04481573 0.028590068 -0.077261455
0.012641692 0.021482991 0.022289153 -0.06213193 -0.0053738267 -0.04442371 0.060642615 -0.0022096736
0.10586052 0.015313909 -0.01685872 -0.08015023 -0.087661296 0.03023196 0.0077079413 0.06820765
0.0724517 0.046301514 -0.05693735 -0.0316492 0.0028822406 0.0092275515 0.0373922 -0.02157751
0.017655374 -0.013469876 0.0035511197 0.049338993 0.0043519177 0.03509314 -0.09045932 0.06855779
-0.09007905 -0.039590057 0.052074406 -0.017460713 -0.040269535 -0.06601166 0.025286948 0.0064486368
0.034084782 0.026028939 0.059899043 -0.049175866 0.020392403 0.018772056 -0.0070542116 0.006422196
0.04936241 0.007313686 -0.029553501 -0.03289665 0.008857026 0.0057955044 0.098851636 0.07230333
-0.013836745 0.001192539 0.08281657 -0.07030597 0.044861883 0.0129068475 -0.050069947 -0.0027937987
-0.019594105 -0.03228482 0.05269021 -0.03532316 0.04918987 0.058694657 -0.04418975 0.024367912
-0.0598186 0.06822904 -0.10812778 -0.06887045 -0.081118144 0.03443516 -0.066275634 -0.059221264
-0.10752996 -0.09733893 0.0063190064 0.050669678 -0.027336853 -0.0609826 0.012337235 -0.054949045
-0.0105858 -0.0061467523 0.035917684 -0.03694347 -0.03827213 -0.011046255 0.018901823 0.019147508
-0.021822521 0.01829973 0.0787962 0.017476756 -0.030188408 -0.052165817 0.0478826 0.012919859
-0.011446453 -0.035893966 0.06291651 -0.03219691 -0.10104327 0.040759314 0.066577025 -0.03899915
00000000: 6d81 943d d8e0 f53c 6d59 de3c bc32 3b3b
00000010: b445 6dba c161 623d ced7 e73c 2577 05bc
00000020: 3d35 eebb c871 b6bd 023f 453c 7654 6d3d
00000030: c275 76bc 72c7 a5bd c6ef 47bd 3af6 97bd
00000040: 55bf dbbc 089b 9bbd 2c90 96bd 78f7 223d
00000050: 3270 313d a900 a0bc bf9f 903d c66f a03c
00000060: bfb2 57bd 4a66 0dbc 91bd 3f3d 6b3d 4fbd
00000070: d78a 073d 4029 4a3d 66a4 4cbd 2cd4 49bc
00000080: e9df 5dbd 8a42 373b 57d5 d93c fd37 ec3c
00000090: 31f2 acbd 3191 c4bc 96a4 3c3d cfd4 403c
000000a0: 58a7 a2bd 1dc7 93bd 36c1 613d 139c 68bd
000000b0: 1ac7 8d3d 74e3 123c cc0f 9b3d abd4 8cbd
000000c0: 8115 54bc 3961 17bd 8f1f 26bb 03b2 2c3c
000000d0: 11fa 533d 0f8a 1dbd f912 a13c a580 91bc
000000e0: 24e3 783c a990 77bd b687 a53b c49e 1cbd
000000f0: 2688 823c c114 6b3d 43ec c0bb 4f29 80bd
00000100: cd40 263b e2b9 193d c160 1e3d 28c2 a7bb
00000110: efe2 623d 3f42 77bd 93a9 e43c 7549 163c
00000120: f6fd 77bd fe60 093d 4033 b0bd 84b3 643d
00000130: b2e8 ba3d 97ed 5e3d c49a 29bc b851 a4ba
00000140: 4063 8d3d 94ea 863d 8557 57bd 9bc3 213d
00000150: 334d dd3c e418 f13c b1b9 4e3d 7009 93bc
00000160: e15c 80bd 8a71 083d b297 5ebc ebe7 5d3d
00000170: b612 82bd 3549 7ebd 9093 8dbd 2662 d5bc
00000180: 287a 623d 47ab 7c3d 277c 3e3d e3ff 83bd
00000190: 3f1a 263d 05b7 1fbd 58a9 193d 3184 603d
000001a0: 433b 4c3d 6b7e 80bd 7788 74bd 1c84 b0bb
000001b0: d4e4 d53b 91d1 a83c 2bb0 a23d 226b f03b
000001c0: c758 45bd 03ca 43bb 441a 5abc cb23 ebbb
000001d0: eff2 a83d 3be5 0abd df44 5abc 003e 95bd
000001e0: a33f 5dbd 4f87 86bd 870c 14bd 2327 84bd
000001f0: e658 71bb 7638 3a3d 6f14 17bc 946a d7bd
00000200: 1c83 69bd 13df 263d 6944 64bd 9861 fa3c
00000210: 1ceb 273d a060 733b 84b4 fe3c a069 d23c
00000220: 4c48 233b f260 793d 74c2 53bd dda2 783b
00000230: a290 94bd b390 37bd b835 ea3c 413b 9ebd
00000240: 191f 4f3c 19fd af3c be97 b63c 0d7e 7ebd
00000250: ed16 b0bb a3f5 35bd 6464 783d 2cd0 10bb
00000260: 66cd d83d 31e7 7a3c 4c1b 8abc ce25 a4bd
00000270: c487 b3bd 04a9 f73c e692 fc3b 74b0 8b3d
00000280: 8f61 943d a8a6 3d3d 2437 69bd 97a2 01bd
00000290: f9e3 3c3b 282f 173c 9028 193d 51c3 b0bc
000002a0: 01a2 903c c1b0 5cbc e7b9 683b af17 4a3d
000002b0: 889a 8e3b d3bd 0f3d bc42 b9bd 0768 8c3d
000002c0: 5d7b b8bd 2f29 22bd f94b 553d c509 8fbc
000002d0: abf1 24bd 1f31 87bd 9326 cf3c 164f d33b
000002e0: 7c9c 0b3d a43a d53c b358 753d a26c 49bd
000002f0: f80d a73c dbc7 993c 0427 e7bb 4971 d23b
00000300: 3d30 4a3d a5a7 ef3b 2f1a f2bc a3be 06bd
00000310: 0f1d 113c 37e8 bd3b ba72 ca3d c513 943d
00000320: 84b3 62bc f84e 9c3a bc9b a93d 94fc 8fbd
00000330: 18c1 373d 3e77 533c 2516 4dbd 2a18 37bb
00000340: d183 a0bc 163d 04bd b1d1 573d 05af 10bd
00000350: 517b 493d cf69 703d 5000 35bd 379f c73c
00000360: 5904 75bd abbb 8b3d 1972 ddbd f30b 8dbd
00000370: 4521 a6bd e20b 0d3d 85bb 87bd ff91 72bd
00000380: ab38 dcbd a259 c7bd ab0f cf3b 028b 4f3d
00000390: 89f1 dfbc e4c8 79bd 1d22 4a3c 4012 61bd
000003a0: 1070 2dbc b26a c9bb 6c1e 133d 0952 17bd
000003b0: 3dc3 1cbd 5afb 34bc ffd7 9a3c 3cdb 9c3c
000003c0: 25c5 b2bc 51e9 953c e75f a13d 6a2b 8f3c
000003d0: ae4d f7bc d3ab 55bd 8c20 443d d1ad 533c
000003e0: e789 3bbc 8d05 13bd 5fda 803d e8e0 03bd
000003f0: c6ef cebd 3df3 263d 8959 883d 93bd 1fbd

conv3_1.0.bias f4 [16]
0.08551884 -0.04180393 -0.014287379 -0.075292975 -0.045070384 0.044297323 -0.030427983 0.0024199563
-0.080437504 -0.02963527 0.0035534978 -0.023678152 0.08231495 -0.02531791 0.021501295 0.02647584
00000000: 8024 af3d 993a 2bbd 9c15 6abc 3433 9abd
00000010: b99b 38bd 1c71 353d 1b44 f9bc 2198 1e3b
00000020: 6bbc a4bd aac5 f2bc cde1 683b aff8 c1bc
00000030: be94 a83d 8167 cfbc 7c23 b03c dce3 d83c

conv3_1.1.weight f4 [16]
0.9703295 0.9515342 0.9664251 0.98218447 0.94081795 0.93240696 0.95960444 0.9794599
0.9887751 0.9900908 1.0670775 0.95975614 1.055587 0.9576751 0.96334505 0.99120396
00000000: 8467 783f bf97 733f a367 773f 7170 7b3f
00000010: 72d9 703f 39b2 6e3f a3a8 753f e2bd 7a3f
00000020: 5d20 7d3f 9776 7d3f ff95 883f 94b2 753f
00000030: 7a1d 873f 322a 753f c89d 763f 8bbf 7d3f

conv3_1.1.bias f4 [16]
-0.020288914 -0.053141933 -0.030822806 -0.040123098 -0.028064387 -0.05876242 -0.023190653 -0.023293104
-0.023149632 -0.012959293 -0.02583403 -0.014265343 -0.023956701 -0.031911183 -0.036515146 -0.0036439335
00000000: f034 a6bc 5bab 59bd 1c80 fcbc 1e58 24bd
00000010: 49e7 e5bc ddb0 70bd 53fa bdbc 2ed1 bebc
00000020: 4ca4 bdbc 3753 54bc e3a1 d3bc 2fb9 69bc
00000030: d840 c4bc 4db5 02bd e890 15bd 0fcf 6ebb

conv3_1.1.running_mean f4 [16]
-0.005794929 -0.21605706 -0.08971633 0.15400364 -0.44706112 0.035223972 -0.2155274 -0.34598815
-0.06559127 0.004318624 -0.07447382 0.11643688 0.24856772 -0.13278058 0.022199523 -0.2901522
00000000: 63e3 bdbb 103e 5dbe 32bd b7bd 21b3 1d3e
00000010: 32e5 e4be 0347 103d 37b3 5cbe 5c25 b1be
00000020: b754 86bd 3e83 8d3b bb85 98bd 7576 ee3d
00000030: 8988 7e3e a2f7 07be c6db b53c d48e 94be

conv3_1.1.running_var f4 [16]
0.2564985 0.14242308 0.46507525 0.0411086 0.08054266 0.071725 0.039478194 0.20466831
0.024552342 0.2722863 0.034532033 0.4100244 0.053186633 0.039009117 0.15342066 0.16040884
00000000: c553 833e 5bd7 113e 581e ee3e 7e61 283d
00000010: 8df3 a43d 8fe4 923d e3b3 213d 9294 513e
00000020: fe21 c93c 1c69 8b3e 7671 0d3d b8ee d13e
00000030: 3ada 593d 06c8 1f3d 4e1a 1d3e 3742 243e

conv4_1.0.weight f4 [16, 16, 3, 3]
-0.034968708 -0.0076457486 -0.0323638 -0.012567747 0.044719093 -0.0065531624 -0.011876434 -0.009363622
0.061970603 0.04214612 -0.021653853 -0.04009476 0.043405157 -0.0032090622 -0.04010942 -0.051241703
-0.053356867 0.07057575 0.073710345 0.033476926 -0.016177014 0.043420002 0.017752584 0.042032823
-0.019487003 -0.054830603 0.010551784 0.00163747 0.06382939 -0.030633837 -0.04152514 0.06803893
-0.031519536 0.008373516 0.014568674 -0.045153715 -0.015646975 -0.027387738 -0.0010706363 0.003508945
0.054223925 0.012602834 -0.009444758 -0.04513489 0.0017791631 0.036656145 0.022252569 -0.015674982
0.002316871 -0.0010048882 -0.020216467 0.021801488 -0.06407145 0.016996631 -0.037064657 0.027785022
-0.039942343 0.014160844 -0.038324114 -0.004249533 0.057398103 0.06655313 0.0026721654 -0.05609991
-0.0649223 0.07431065 0.06229209 -0.050185595 0.034582086 0.005218734 -0.015438471 0.059258714
-0.0120582795 0.059399698 -0.0012074723 0.07795846 -0.013418545 -0.005297367 0.016790146 -0.012168178
-0.061644856 -0.020602481 0.06029012 0.015951129 0.07456182 -0.041620217 0.0439987 -0.057304915
-0.04169866 -0.045529112 -0.0081190355 -0.017304014 0.02043507 -0.019135062 0.02387305 0.033078536
0.17065191 -0.045087807 0.04292135 -0.0030373973 4.9402675e-05 -0.04695042 0.084053405 0.012007969
0.032823224 -0.110774405 0.04467688 -0.02480183 0.018939007 -0.028933838 0.046802834 -0.005431333
0.012186156 0.03293693 0.052328255 -0.047125626 0.041317187 -0.06935897 0.0036433162 -0.03207062
-0.050650984 -0.05683845 -0.025425166 -0.025311906 -0.020335255 -0.027269842 -0.054973055 0.043248273
0.015211398 -0.05859823 0.053020764 -0.039846893 -0.07430508 0.0003522625 -0.050228693 -0.024329145
-0.026803723 0.011183824 0.03203964 -0.016585784 -0.03063385 0.049606513 -0.043197926 0.0117812045
0.023765786 0.013918132 -0.047120646 0.052199826 -0.010141509 -0.016238887 0.03319742 0.036277145
0.012925358 -0.044613764 -0.034776323 -0.062193274 0.08154202 -0.02984803 0.035537504 0.043903373
0.041360587 -0.026340444 -0.03260371 -0.010190328 -0.039496783 -0.03586926 -0.083640195 0.056694824
0.015617468 0.027614504 0.023201909 -0.022237848 0.021588288 0.020061942 0.040646892 0.056324262
0.018017178 0.007879911 0.073846385 0.04036658 0.051125772 -0.034918655 0.026856633 0.046515744
0.024114106 0.052704576 0.014760191 0.0021729132 -0.054247912 0.04920031 -0.003379157 -0.0040161717
-0.055948857 -0.07177133 -0.04948739 0.033135854 0.05682738 -0.05491281 -0.049739245 0.013694708
-0.037811957 -0.023294589 -0.035272833 -0.023855655 -0.039556213 0.02527668 -0.07887401 0.023961658
0.06258857 -0.052526005 -0.029834995 -0.040007066 0.05511514 -0.013337242 0.025873719 0.047819365
-0.005840275 0.056404974 -0.023647094 -0.050607298 0.025048265 -0.050082833 -0.036680005 -0.024184464
-0.032112066 0.03174049 0.032996632 0.015390954 0.09320548 0.04678633 0.040804192 0.027232276
0.023939766 0.014222063 -0.03956412 0.03178797 0.08676021 -0.02383678 0.0011384543 -0.013365142
0.1535234 0.015704947 0.1339819 -0.046813358 -0.0732668 0.036466014 0.0023143322 0.0042137187
-0.008853942 0.00803699 -0.013190602 -0.035803016 0.08726316 -0.015760217 0.016778793 0.0333481
00000000: 593b 0fbd 3089 fabb e78f 04bd f4e8 4dbc
00000010: 5e2b 373d e9bb d6bb 6095 42bc e169 19bc
00000020: e3d4 7d3d 69a1 2c3d 6c63 b1bc 673a 24bd
00000030: 9bc9 313d 214f 52bb c649 24bd d2e2 51bd
00000040: bb8c 5abd 058a 903d 73f5 963d 1a1f 093d
00000050: a885 84bc 2cd9 313d de6d 913c 9c2a 2c3d
00000060: 35a3 9fbc 0e96 60bd 64e1 2c3c 60a0 d63a
00000070: fcb8 823d d0f3 fabc 4416 2abd ff57 8b3d
00000080: a11a 01bd 1231 093c 73b1 6e3c 1af3 38bd
00000090: 162e 80bc 405c e0bc 9854 8cba 54f6 653b
000000a0: e819 5e3d 1e7c 4e3c 30be 1abc 5ddf 38bd
000000b0: cf32 e93a c124 163d 054b b63c d268 80bc
000000c0: a5d6 173b 74b6 83ba 019d a5bc 0999 b23c
000000d0: e437 83bd 853c 8b3c 1cd1 17bd 6a9d e33c
000000e0: 959a 23bd e202 683c bff9 1cbd ab3f 8bbb
000000f0: 461a 6b3d 024d 883d 7f1f 2f3b 05c9 65bd
00000100: fcf5 84bd 2f30 983d fe25 7f3d 698f 4dbd
00000110: f2a5 0d3d ea01 ab3b a4f1 7cbc 44b9 723d
00000120: 1790 45bc 194d 733d 0c44 9eba afa8 9f3d
00000130: 75d9 5bbc 8995 adbb 7d8b 893c 0a5d 47bc
00000140: 517f 7cbd 89c6 a8bc c6f2 763d f1ab 823c
00000150: deb3 983d f679 2abd fb37 343d 8fb8 6abd
00000160: 37cc 2abd bc7c 3abd b405 05bc 26c1 8dbc
00000170: 7367 a73c 22c1 9cbc 6a91 c33c 5c7d 073d
00000180: 60bf 2e3e fead 38bd 4cce 2f3d 120f 47bb
00000190: b835 4f38 154f 40bd 3124 ac3d 13bd 443c
000001a0: a571 063d b1dd e2bd 1bff 363d 352d cbbc
000001b0: fa25 9b3c a806 edbc 54b4 3f3d 53f9 b1bb
000001c0: 71a8 473c e0e8 063d 2756 563d cd06 41bd
000001d0: 363c 293d 130c 8ebd b4c4 6e3b 7c5c 03bd
000001e0: 6877 4fbd 6fcf 68bd 7048 d0bc ea5a cfbc
000001f0: 1f96 a6bc 0165 dfbc 6d2b 61bd 1a25 313d
00000200: 3a39 793c b304 70bd 4d2c 593d 7f36 23bd
00000210: 432d 98bd dfaf b839 9abc 4dbd ea4d c7bc
00000220: 7b93 dbbc 5c3c 373c ff3b 033d e9de 87bc
00000230: d7f3 fabc 3330 4b3d 4ff0 30bd f405 413c
00000240: 77b0 c23c e008 643c 9401 41bd 7ccf 553d
00000250: 9228 26bc 6a07 85bc 05fa 073d 5897 143d
00000260: e1c4 533c ecbc 36bd 9e71 0ebd 60be 7ebd
00000270: 81ff a63d db83 f4bc c68f 113d 06d4 333d
00000280: b869 293d eac7 d7bc 788b 05bd 55f5 26bc
00000290: 61c7 21bd a5eb 12bd 8d4b abbd d538 683d
000002a0: 69e0 7f3c d037 e23c ee11 be3c 262c b6bc
000002b0: ecd9 b03c f158 a43c 5b7d 263d 45b4 663d
000002c0: c398 933c be1a 013c c63c 973d 6d57 253d
000002d0: 4269 513d dd06 0fbd 7102 dc3c 4b87 3e3d
000002e0: f28a c53c c1e0 573d bad4 713c 6f67 0e3b
000002f0: 0f33 5ebd 4486 493d d974 5dbb 179a 83bb
00000300: a12a 65bd d9fc 92bd 4ab3 4abd 76b9 073d
00000310: d4c3 683d 41ec 60bd 61bb 4bbd c55f 603c
00000320: b6e0 1abd 4bd4 bebc 3f7a 10bd ef6c c3bc
00000330: b205 22bd 0a11 cf3c b288 a1bd 3d4b c43c
00000340: 702e 803d 8225 57bd 8568 f4bc 73de 23bd
00000350: 6ac0 613d 7384 5abc 1ff5 d33c 3dde 433d
00000360: c75f bfbb e708 673d 8db7 c1bc 9949 4fbd
00000370: 0532 cd3c a823 4dbd c63d 16bd 7f1e c6bc
00000380: f187 03bd 5102 023d 7a27 073d 572a 7c3c
00000390: 84e2 be3d 06a3 3f3d 4c22 273d 3916 df3c
000003a0: 541d c43c a803 693c fd0d 22bd 1a34 023d
000003b0: 56af b13d 5a45 c3bc 3038 953a 78f9 5abc
000003c0: 3d35 1d3e a9a7 803c 8d32 093e 5dbf 3fbd
000003d0: e70c 96bd 635d 153d 0dac 173b 3c13 8a3b
000003e0: 2010 11bc 94ad 033c 651d 58bc 2fa6 12bd
000003f0: 07b7 b23d 921b 81bc ae73 893c 0498 083d

conv4_1.0.bias f4 [16]
-0.055993296 0.031701688 0.02021654 -0.03626916 0.014186666 0.003423223 -0.02516512 0.020541402
-0.03709605 -0.047102373 0.0118903555 -0.058026664 0.044941485 0.058708616 -0.0030630806 0.050302286
00000000: 3a59 65bd a1d9 013d 289d a53c f98e 14bd
00000010: 316f 683c 2758 603b 1527 cebc 7146 a83c
00000020: 07f2 17bd 6bee 40bd c4cf 423c 5ead 6dbd
00000030: 9014 383d 7278 703d f7bd 48bb c509 4e3d

conv4_1.1.weight f4 [16]
1.0887418 1.0910488 1.0847942 1.0856655 1.0862207 1.0888854 1.0861902 1.0869285
1.0885781 1.092802 1.0849313 1.0848045 1.0864061 1.1576685 1.0873257 1.0883002
00000000: e45b 8b3f 7da7 8b3f 89da 8a3f 16f7 8a3f
00000010: 4809 8b3f 9960 8b3f 4808 8b3f 7920 8b3f
00000020: 8756 8b3f f0e0 8b3f 07df 8a3f e0da 8a3f
00000030: 5b0f 8b3f 7b2e 943f 7d2d 8b3f 6c4d 8b3f

conv4_1.1.bias f4 [16]
0.06274177 0.055104464 0.060597625 0.04901489 0.047006782 0.040432546 0.048713524 0.06485556
0.05656791 0.058416 0.059161227 0.06469391 0.056169305 0.103697084 0.04267701 0.070359126
00000000: c27e 803d 38b5 613d 3735 783d d6c3 483d
00000010: 2f8a 403d 999c 253d d587 473d fed2 843d
00000020: c1b3 673d 9e45 6f3d 0b53 723d 3e7e 843d
00000030: c911 663d 235f d43d 17ce 2e3d 7218 903d

conv4_1.1.running_mean f4 [16]
0.12265176 0.39333203 0.29944548 0.16474222 -0.24624126 0.22258961 0.33511218 0.09560935
0.21943426 0.20209749 0.43569067 0.26210728 0.32559428 0.023970922 0.2641893 0.34753647
00000000: d930 fb3d d162 c93e eb50 993e 2fb2 283e
00000010: ab26 7cbe 88ee 633e d393 ab3e d6ce c33d
00000020: 60b3 603e a5f2 4e3e d912 df3e ed32 863e
00000030: 4bb4 a63e ab5e c43c d243 873e 4df0 b13e

conv4_1.1.running_var f4 [16]
0.21941175 0.24554253 0.34569833 0.23375215 0.11927897 0.19676152 0.14864504 0.30259985
0.28197604 0.22282593 0.34388652 0.2510313 0.24811167 0.0297345 0.15924378 0.31686702
00000000: 79ad 603e 806f 7b3e 5fff b03e b95c 6f3e
00000010: 8848 f43d da7b 493e 6836 183e 5eee 9a3e
00000020: 2a5f 903e 7b2c 643e e511 b03e 2d87 803e
00000030: fc10 7e3e c495 f33c cd10 233e 653c a23e

conv5_1.0.weight f4 [16, 16, 3, 3]
0.089685574 0.13287783 0.0088493535 0.0024132626 0.048669025 0.018955138 0.073023595 0.14781794
0.0066266535 0.05197142 0.048467778 -0.009398101 0.07553676 0.054315966 0.061950028 0.035364646
0.030962115 0.032370914 0.07599059 0.022011956 0.041400276 0.10029016 0.14547929 0.071410514
0.062269606 0.102687135 0.0682506 0.12984166 0.12851743 0.012741855 0.00023753062 0.11095501
0.11815217 0.06738929 0.10851893 0.08843278 -0.00964283 -0.026955172 0.044304878 -0.002138729
-0.012079412 0.07424842 0.030672321 0.026090369 0.04288062 0.12640543 0.11430538 0.016088506
-0.010308298 0.09962723 0.052418057 0.025342977 0.10528387 0.017165447 0.04222896 0.004998394
0.02481319 0.10176504 0.010204689 0.1503336 0.09387382 0.020606093 0.039065115 0.06468713
0.07822368 0.08331232 0.120693676 0.042695347 0.12939377 0.0432156 0.0923602 0.07681053
0.13372342 0.0003601491 0.0042079254 0.13243274 0.013193463 0.010375387 0.09845265 0.02598502
-0.002550014 0.10974132 0.12586038 0.019712983 0.106946304 0.07654067 0.081922114 0.030581085
0.08605222 0.11020966 0.049845774 0.14025745 0.09330749 0.11894932 0.12539387 0.13774294
0.055225756 0.03828464 0.0071393163 -0.0067069414 0.052504074 0.10344368 0.04803572 -0.007580226
0.09242377 0.09996882 0.014961405 -0.010548211 0.11594657 -0.00502196 0.061912794 0.03766744
0.098802485 0.08418053 0.11552819 0.035528682 -0.010039312 0.09595712 -0.028819067 0.11388568
0.023774896 -0.05565815 0.025660189 -0.038834374 -0.02174949 -0.014573393 0.06071155 -0.023619248
0.13984792 0.026751457 0.01892487 0.09325907 0.10398461 0.0424035 0.083528824 0.09228193
0.042563498 -0.009511072 0.13104634 0.08541134 0.030238148 0.102705486 0.041115206 0.032512154
0.11146504 0.036441244 0.041130193 0.054198142 0.15291479 0.08330704 0.11192965 0.1457087
0.13523442 0.03544226 0.03460547 0.031209528 0.10993583 0.011983291 0.0076539023 0.13141628
0.13731489 0.014872305 0.026892822 0.06939371 0.07656284 0.015193486 0.011954358 0.15486768
0.109026544 0.0986528 0.080342166 0.081489146 0.08220411 0.10015522 0.12145807 -0.0015027199
0.092003345 0.1543951 0.12184062 0.1387383 0.07271694 0.046504363 0.09447869 0.055258874
0.041128594 0.011633236 0.12893915 0.00035949465 0.048419718 0.10633022 0.02864661 0.051560875
0.09981019 0.024229951 0.023382546 -0.0004394924 0.0058737835 0.021895692 0.010972672 0.018539803
0.12017319 0.009937122 0.16209786 0.15225162 0.11809025 0.025850957 0.09959446 0.005326473
0.045489665 0.1327089 0.105844796 0.05858567 0.12174763 0.015100429 0.05234987 0.15469551
0.09349564 0.14339592 0.08106682 0.10431584 0.15623166 0.10021817 0.11116326 0.13858122
0.02370528 0.007469624 0.01624458 0.12605023 0.003991558 0.04558087 0.12637575 0.12426477
0.0667168 0.026657507 0.017089145 0.04271822 0.05044218 0.07801212 0.12857719 0.071548276
0.029544255 0.0106227845 -0.0034845185 0.0046492517 0.14878751 0.121843934 0.059293002 0.035852194
0.15353142 0.12911253 0.00019928145 0.03969874 -0.0005704265 0.13820282 0.12871572 0.116581045
00000000: 12ad b73d 2011 083e e1fc 103c d427 1e3b
00000010: 2c59 473d ce47 9b3c 658d 953d 965d 173e
00000020: 6624 d93b fcdf 543d 2686 463d 7efa 19bc
00000030: 04b3 9a3d 6b7a 5e3d 50bf 7d3d 85da 103d
00000040: 43a4 fd3c 5d97 043d f4a0 9b3d 6b52 b43c
00000050: 5693 293d ed64 cd3d 86f8 143e ad3f 923d
00000060: 6a0e 7f3d a24d d23d f8c6 8b3d 36f5 043e
00000070: 139a 033e 37c3 503c a411 7939 613c e33d
00000080: c4f9 f13d 6503 8a3d 2c3f de3d 3f1c b53d
00000090: f6fc 1dbc 18d1 dcbc 0879 353d eb29 0cbb
000000a0: bae8 45bc 8e0f 983d 8544 fb3c 78bb d53c
000000b0: 97a3 2f3d 6d70 013e f018 ea3d 0bcc 833c
000000c0: 23e4 28bc 5c09 cc3d 51b4 563d 139c cf3c
000000d0: 129f d73d 8d9e 8c3c 46f8 2c3d 91c9 a33b
000000e0: 0845 cb3c 306a d03d 9131 273c 0df1 193e
000000f0: eb40 c03d 1cce a83c be02 203d b07a 843d
00000100: bd33 a03d a69f aa3d 3f2e f73d 51e1 2e3d
00000110: cd7f 043e d702 313d 5827 bd3d d74e 9d3d
00000120: cbee 083e 65d2 bc39 a3e2 893b 739c 073e
00000130: 6529 583c 87fd 293c 8ba1 c93d 89de d43c
00000140: 231e 27bb 0fc0 e03d 8be1 003e 1f7d a13c
00000150: aa06 db3d 5bc1 9c3d c8c6 a73d 2f85 fa3c
00000160: 253c b03d 9ab5 e13d 152b 4c3d a69f 0f3e
00000170: ff17 bf3d b39b f33d 4067 003e 7c0c 0d3e
00000180: 6734 623d 5bd0 1c3d edf0 e93b e7c5 dbbb
00000190: 830e 573d 48da d33d 1ac1 443d 8b63 f8bb
000001a0: ac48 bd3d 74bc cc3d ae20 753c 67d2 2cbc
000001b0: 6575 ed3d 418f a4bb 4598 7d3d 2c49 1a3d
000001c0: f558 ca3d d766 ac3d 0b9a ec3d 8686 113d
000001d0: ed7b 24bc 2b85 c43d f715 ecbc e53c e93d
000001e0: 92c3 c23c cdf9 63bd 5135 d23c cb10 1fbd
000001f0: fd2b b2bc 3ec5 6ebc adac 783d 277d c1bc
00000200: 4b34 0f3e df25 db3c 5408 9b3c 9cfe be3d
00000210: e2f5 d43d 4baf 2d3d 2911 ab3d 4ffe bc3d
00000220: 1057 2e3d 54d4 1bbc 0331 063e 24ec ae3d
00000230: feb5 f73c 4157 d23d 6b68 283d 772b 053d
00000240: c847 e43d 6a43 153d 2278 283d dffe 5d3d
00000250: b295 1c3e e29c aa3d 5f3b e53d a934 153e
00000260: e47a 0a3e e72b 113d 77be 0d3d 20ab ff3c
00000270: 0926 e13d 9155 443c 96cd fa3b fd91 063e
00000280: 469c 0c3e f8aa 733c 564e dc3c 4a1e 8e3d
00000290: facc 9c3d 19ee 783c 36dc 433c a295 1e3e
000002a0: 4f49 df3d 7b0a ca3d 6f8a a43d c8e3 a63d
000002b0: a15a a83d 2e1e cd3d 02bf f83d eaf6 c4ba
000002c0: 406c bc3d c019 1e3e 9387 f93d 6a11 0e3e
000002d0: 9eec 943d 5c7b 3e3d 0b7e c13d 2157 623d
000002e0: 7576 283d 5499 3e3c a008 043e 8e7a bc39
000002f0: c153 463d a9c3 d93d 4cac ea3c 7f31 533d
00000300: 4969 cc3d e47d c63c c18c bf3c ac6b e6b9
00000310: de78 c03b 985e b33c b9c6 333c c9e0 973c
00000320: 5d1d f63d 50cf 223c fbfc 253e d9e7 1b3e
00000330: 4dd9 f13d 63c5 d33c 2ef8 cb3d b289 ae3b
00000340: 5f53 3a3d d8e4 073e 28c5 d83d 87f7 6f3d
00000350: d256 f93d ca67 773c d16c 563d 8068 1e3e
00000360: a47a bf3d 61d6 123e 5c06 a63d 8ba3 d53d
00000370: 31fb 1f3e 2f3f cd3d 90a9 e33d 3ce8 0d3e
00000380: 9331 c23c bfc3 f43b 5a13 853c 5013 013e
00000390: 9ecb 823b 02b3 3a3d a568 013e 877e fe3d
000003a0: d1a2 883d d860 da3c 89fe 8b3c 4df9 2e3d
000003b0: 769c 4e3d d2c4 9f3d bda9 033e e787 923d
000003c0: cb06 f23c 300b 2e3c 855c 64bb c058 983b
000003d0: c15b 183e 5089 f93d 38dd 723d c0d9 123d
000003e0: 5737 1d3e 1336 043e 35f6 5039 259b 223d
000003f0: ad88 15ba 0a85 0d3e 0ece 033e 0bc2 ee3d

conv5_1.0.bias f4 [16]
-0.041836683 -0.054071438 0.22459827 -0.035939693 -0.03791672 0.19726346 -0.03916943 -0.026606483
-0.04225958 -0.039325304 -0.021584783 -0.040260285 -0.047058456 0.00074199925 0.19628693 -0.056661304
00000000: f15c 2bbd 037a 5dbd 17fd 653e 8035 13bd
00000010: 904e 1bbd 6fff 493e 2070 20bd d7f5 d9bc
00000020: 6218 2dbd 9213 21bd 92d2 b0bc f8e7 24bd
00000030: 5ec0 40bd ba82 423a 71ff 483e af15 68bd

lstm_1.weight_ih f4 [128, 16]
-0.0046032146 -0.0017642644 0.0065370207 0.23135224 -0.037276395 -0.063671485 0.068039976 0.110875234
0.09776702 0.031677235 0.12995453 0.08316811 0.050304163 0.24268791 0.027410546 -0.007195149
0.05105718 0.22090758 0.25122076 0.19460124 0.16304193 0.1618725 0.1624381 0.055299688
0.1506839 0.26833355 0.26401097 0.21013814 0.18173726 0.19466148 0.17904195 0.04090743
0.08034351 0.07779195 0.09242632 -0.08427933 0.11825402 0.25878397 -0.08906967 0.21087605
0.1322555 0.09839064 0.12632161 0.04482946 0.147755 0.19069216 0.15817824 -0.04086873
0.05417843 0.10613563 0.19054034 -0.013469681 0.16665033 -0.0048807883 0.021398675 -0.041327573
0.037777215 -0.044181846 0.22688593 0.16818021 0.102299616 0.058181345 0.17353581 0.12869199
0.032932695 0.26730725 0.0009920453 0.099657655 0.07624899 0.11818286 0.26333478 -0.041884363
0.14614363 0.25477654 0.0833744 0.039477747 -0.0016849111 0.11044027 0.03859187 -0.03366253
-0.08972163 0.030319158 0.16247924 0.09240073 0.2606781 0.0563642 -0.014856342 0.075898945
0.039245542 -0.028551517 0.22442323 0.13529481 0.21655968 0.07029838 0.3307361 0.25463283
-0.006041087 0.12613986 0.16060787 -0.052949693 0.104508854 0.134286 0.008579468 0.21732879
0.0032941771 0.031645406 -0.031819254 0.08702285 0.22482058 -0.044408347 0.3078597 0.061056077
0.021271296 0.15512653 0.2727124 0.1958696 0.17755744 0.048314024 -0.0062520946 0.21177012
0.09451683 0.2992585 0.3104997 0.18248098 0.14326303 0.028391965 0.34675264 -0.051543295
-0.04125161 0.18488225 0.2309436 -0.029633082 -0.06843662 0.098333955 -0.020320753 0.2373494
-0.06122521 0.013412757 0.24410285 0.14452974 0.21159443 0.14269677 0.28328297 -0.022628022
0.08279259 0.24049991 0.24960092 0.21414527 0.2505121 0.1439099 0.07217613 -0.043611802
-0.055155646 0.13258295 0.107262515 -0.04509003 -0.038576983 0.03506136 0.01629594 0.15988299
-0.03486615 0.050097264 0.25465018 0.04089073 0.1586135 -0.009299265 0.028029824 0.10363449
0.17817086 0.0070048147 -0.0001429175 0.20567964 0.19744329 0.07816425 0.17924942 0.12433104
0.1396577 0.25011888 -0.0012968996 -0.06830869 -0.019345049 -0.028386427 0.25687903 0.15185879
-0.08123168 0.2599245 0.13180155 0.029078402 0.02681692 0.05190535 0.15600133 0.13532907
0.23147348 0.16844635 -0.06741464 0.12937483 0.20655456 -0.052234 -0.031896167 0.0065432936
0.1679518 0.25366634 -0.027059488 0.12422346 0.052092463 0.12848598 0.1292434 0.08567798
0.026768044 0.10626324 0.027503561 0.20078094 0.24442695 0.073761396 0.1872335 0.1948391
-0.037262447 0.2571747 0.03372082 0.19926964 0.24692504 0.2118481 0.116132714 0.03218172
0.071785904 -0.023332104 0.06710798 -0.062943384 0.23140424 0.15384732 0.25894952 0.23507158
0.001663465 -0.039492093 -0.06019315 0.234232 -0.072581716 0.1668488 0.046550944 0.14727058
0.08145815 0.2807472 0.29748023 0.12561727 0.09290938 0.29710415 0.18123308 0.23754576
0.0043734396 -0.026257101 0.10451781 -0.010428609 0.27632794 0.12981816 0.14571425 0.06096555
00000000: 90d6 96bb e43e e7ba 8134 d63b 9ae7 6c3e
00000010: 22af 18bd 3266 82bd 8b58 8b3d 8e12 e33d
00000020: 133a c83d fdbf 013d cd12 053e 0b54 aa3d
00000030: bd0b 4e3d 2e83 783e 158c e03c 49c5 ebbb
00000040: 5521 513d 9935 623e 02a0 803e 8c45 473e
00000050: 77f4 263e e8c1 253e 2c56 263e ed81 623d
00000060: e14c 1a3e 0463 893e 722c 873e 742e 573e
00000070: 5519 3a3e 5755 473e c656 373e 8d8e 273d
00000080: 238b a43d 6351 9f3d 034a bd3d a49a acbd
00000090: 2a2f f23d 557f 843e 296a b6bd e4ef 573e
000000a0: fc6d 073e 0881 c93d 745a 013e 199f 373d
000000b0: 164d 173e ce44 433e 7af9 213e f865 27bd
000000c0: 34ea 5d3d a35d d93d 021d 433e f0af 5cbc
000000d0: 62a6 2a3e 05ef 9fbb 464c af3c 1a47 29bd
000000e0: 48bc 1a3d 06f8 34bd c954 683e 6f37 2c3e
000000f0: 7682 d13d 904f 6e3d 5fb3 313e d5c7 033e
00000100: 6fe4 063d 7fdc 883e 8407 823a 5019 cc3d
00000110: 6e28 9c3d db09 f23d d1d3 863e f08e 2bbd
00000120: ada6 153e 1272 823e 33c0 aa3d 6bb3 213d
00000130: 3cd8 dcba 822e e23d 8212 1e3d b9e1 09bd
00000140: f9bf b7bd e25f f83c f560 263e 983c bd3d
00000150: 9a77 853e 26de 663d 0468 73bc e870 9b3d
00000160: efbf 203d dfe4 e9bc 34cf 653e b98a 0a3e
00000170: d2c1 5d3e 99f8 8f3d 3e56 a93e 3c5f 823e
00000180: 50f4 c5bb cf2a 013e 6476 243e c7e1 58bd
00000190: bd08 d63d 4582 093e e690 0c3c 708b 5e3e
000001a0: 1fe3 573b 9d9e 013d e854 02bd 0939 b23d
000001b0: 5e37 663e 87e5 35bd c99f 9d3e f015 7a3d
000001c0: 2441 ae3c 7dd9 1e3e f6a0 8b3e 0a92 483e
000001d0: 9ed1 353e ede4 453d 5fde ccbb 44da 583e
000001e0: 0a92 c13d 6938 993e d1f9 9e3e 4bdc 3a3e
000001f0: 8bb3 123e 4496 e83c 9089 b13e 101f 53bd
00000200: 73f7 28bd c651 3d3e 7b7c 6c3e 14c1 f2bc
00000210: 8028 8cbd 5063 c93d b577 a6bc b90b 733e
00000220: 49c7 7abd 2ec1 5b3c 19f6 793e 9bff 133e
00000230: 36ac 583e 1a1f 123e 770a 913e 675e b9bc
00000240: 298f a93d 9c45 763e 6297 7f3e e648 5b3e
00000250: 1f43 803e 1e5d 133e 14d1 933d 4aa2 32bd
00000260: e3ea 61bd d3c3 073e 73ac db3d 53b0 38bd
00000270: e602 1ebd 809c 0f3d 107f 853c 5eb8 233e
00000280: cfcf 0ebd ca32 4d3d 8261 823e 0a7d 273d
00000290: 946b 223e f25b 18bc cd9e e53c 523e d43d
000002a0: 6c72 363e a588 e53b 20dc 15b9 af9d 523e
000002b0: 932e 4a3e 9414 a03d 298d 373e 46a1 fe3d
000002c0: 6e02 0f3e 950f 803e bbfc a9ba 6de5 8bbd
000002d0: 8279 9ebc a78a e8bc a685 833e df80 1b3e
000002e0: cc5c a6bd d314 853e fcf6 063e d435 ee3c
000002f0: 28af db3c b49a 543d d0be 1f3e b493 0a3e
00000300: 6207 6d3e 337d 2c3e b010 8abd d67a 043e
00000310: 0a83 533e 52f3 55bd 8ea5 02bd 2069 d63b
00000320: 8ffb 2b3e 8ee0 813e dcab ddbc df68 fe3d
00000330: e85e 553d d491 033e 6258 043e f077 af3d
00000340: a848 db3c 8ba0 d93d 264f e13c 8599 4d3e
00000350: 0f4b 7a3e 3710 973d 23ba 3f3e e783 473e
00000360: 82a0 18bd 67ac 833e d81e 0a3d 570d 4c3e
00000370: ebd9 7c3e b5ee 583e fdd6 ed3d fbd0 033d
00000380: 7d04 933d f822 bfbc e96f 893d 76e8 80bd
00000390: 3cf5 6c3e 278a 1d3e 0895 843e 9bb6 703e
000003a0: a008 da3a 76c2 21bd 188d 76bd 83da 6f3e
000003b0: b9a5 94bd 69da 2a3e 34ac 3e3d 19ce 163e
000003c0: 88d3 a63d 19be 8f3e 544f 983e d0a1 003e
000003d0: 4647 be3d 091e 983e 2a95 393e 323f 733e
000003e0: 124f 8f3b 2219 d7bc 6f0d d63d c2dc 2abc
000003f0: db7a 8d3e 0def 043e 1e36 153e 03b7 793d

lstm_1.weight_hh f4 [128, 32]
0.05236891 0.10498457 0.10471682 0.13888632 -0.1378024 -0.10535485 0.109940425 -0.06907472
0.089150354 -0.0655448 -0.119448945 0.062243074 -0.11896846 -0.13238786 0.111677125 0.007010892
0.10385151 -0.0072824955 0.047764942 -0.104787536 -0.061619706 0.12166493 -0.12905255 -0.10834642
0.06961852 0.079215094 -0.09396039 0.05180432 -0.07671055 -0.06402557 -0.08556059 -0.0643811
0.105765745 0.00444223 0.09799485 -0.016418636 0.011335075 -0.12929477 -0.025661692 -0.17311187
-0.0156973 -0.08814613 0.1392634 0.17052521 -0.1200601 -0.037462756 0.15287836 0.052901432
-0.046134546 -0.020589933 0.053233728 0.16064487 0.02029264 -0.14351295 0.036735177 -0.029069573
-0.0677523 0.10112052 -0.11093027 -0.037938148 0.16609655 0.014593914 0.038119376 0.12889592
0.092910245 0.15722583 -0.11345877 0.13765334 -0.056103207 0.028922096 -0.12993707 -0.15149981
-0.11986555 0.04297872 0.016445786 -0.004145339 0.06999023 -0.14072491 -0.110307276 -0.0078356415
-0.028610349 0.04746498 -0.084498234 -0.15648536 -0.060080945 -0.044804633 -0.098682605 0.007155165
-0.0046322197 -0.13832153 0.13095115 0.0372912 0.056099877 0.031880215 -0.012304187 0.12954973
-0.10569932 -0.12289024 0.16012259 -0.00048208237 -0.127765 -0.12336273 0.10327713 -0.109705105
-0.16628806 0.1442221 -0.02563475 -0.036256447 0.08938514 0.12753715 0.08952524 -0.15988488
0.044518486 0.023523271 0.08280836 0.04720746 -0.08201071 -0.061691903 -0.12557982 0.033375412
-0.16651179 -0.10145505 -0.1312491 -0.14422074 0.11620481 0.036118716 0.11696966 -0.093024224
-0.02926214 -0.04234509 0.15034802 -0.064674065 -0.11899553 0.035495535 -0.09727492 0.15256976
-0.11923464 -0.14234647 0.052250966 0.029882774 0.072518095 0.08141695 0.14781205 -0.027854979
-0.16537677 0.15139826 0.06391251 0.012971953 -0.0015023649 0.14229946 0.10573743 -0.056859493
-0.026380077 0.13446231 -0.0067785233 0.08961947 -0.07532316 0.03111519 0.08953063 -0.021657035
-0.0778329 -0.110341266 -0.16517977 -0.15189773 0.026970252 0.12863015 -0.07216219 -0.11179009
0.10426454 -0.025719568 0.036815077 0.03214772 0.12012543 0.07969992 -0.14388871 -0.0050854236
-0.045110196 -0.06055343 -0.16122124 -0.04847695 0.05568005 -0.11197201 -0.116622165 -0.07195383
-0.012958169 -0.1704601 0.063230604 -0.01766318 -0.10335235 -0.15455605 -0.117869414 0.09488203
-0.17657694 0.06566472 0.01350908 0.011660278 -0.15987496 0.055779934 -0.14303103 -0.10892267
-0.15337944 0.0634941 -0.13291101 0.012040347 0.056494534 0.06539284 -0.028005838 0.014144629
-0.07978356 0.15774186 0.07635705 0.039049894 -0.13097362 -0.04024893 -0.14299877 -0.032783017
0.0405038 0.10345988 0.081241086 -0.17417012 0.15551467 -0.100878604 -0.038679913 0.046037167
0.17442514 0.030633867 -0.052134827 -0.12196554 0.04270026 -0.089124694 -0.027742386 -0.04609984
0.017602026 0.07126014 0.11460455 -0.08064871 0.07454087 0.04129988 -0.16386935 -0.14935191
-0.12961277 0.07403131 0.08966471 0.04647936 -0.018922836 0.0029263198 -0.05151649 0.13813625
-0.14291404 -0.10409842 -0.13510598 -0.022148594 -0.17182791 0.031855643 0.17602633 0.061215594
00000000: c880 563d 2602 d73d c675 d63d 3738 0e3e
00000010: 131c 0dbe 49c4 d7bd 7228 e13d 0c77 8dbd
00000020: 7694 b63d 5a3c 86bd a6a1 f4bd 98f2 7e3d
00000030: bca5 f3bd af90 07be fab6 e43d a0bb e53b
00000040: 1ab0 d43d 00a2 eebb 2ca5 433d d99a d6bd
00000050: f264 7cbd 762b f93d 5a26 04be bae4 ddbd
00000060: 2894 8e3d 863b a23d 4e6e c0bd c430 543d
00000070: 6c1a 9dbd d71f 83bd 643a afbd 3dda 83bd
00000080: b69b d83d 2090 913b 86b1 c83d 6080 86bc
00000090: c0b6 393c d965 04be 7838 d2bc 3d44 31be
000000a0: a097 80bc f585 b4bd 119b 0e3e 299e 2e3e
000000b0: 12e2 f5bd 8c72 19bd 258c 1c3e 2caf 583d
000000c0: 94f7 3cbd 38ac a8bc 9c0b 5a3d 1780 243e
000000d0: c03c a63c 0ff5 12be a077 163d 5023 eebc
000000e0: b8c1 8abd 4618 cf3d 692f e3bd 0865 1bbd
000000f0: 3715 2a3e 501b 6f3c 1023 1c3d 4bfd 033e
00000100: ba47 be3d cfff 203e 125d e8bd fff4 0c3e
00000110: 7acc 65bd 08ee ec3c 390e 05be c422 1bbe
00000120: 127c f5bd 740a 303d 50b9 863c a0d5 87bb
00000130: 0a57 8f3d 311a 10be c8e8 e1bd 1061 00bc
00000140: 4060 eabc a46a 423d 690d adbd b33d 20be
00000150: 7017 76bd 1085 37bd 1b1a cabd e075 ea3b
00000160: e0c9 97bb 29a4 0dbe 0f18 063e a8be 183d
00000170: fcc8 653d d494 023d 8097 49bc afa8 043e
00000180: e378 d8bd e1ad fbbd 2df7 233e 00c0 fcb9
00000190: d4d4 02be 99a5 fcbd f682 d33d 12ad e0bd
000001a0: 6b47 2abe f5ae 133e f8ff d1bc a481 14bd
000001b0: 8e0f b73d 1999 023e 0259 b73d ddb8 23be
000001c0: 0459 363d e0b3 c03c 6e97 a93d 9c5c 413d
000001d0: 3bf5 a7bd a6b0 7cbd ff97 00be a8b4 083d
000001e0: 1182 2abe aac7 cfbd 2a66 06be 9aae 13be
000001f0: cafc ed3d 38f1 133d ca8d ef3d 7c83 bebd
00000200: 28b7 efbc 0c72 2dbd d5f4 193e d673 84bd
00000210: eeb3 f3bd c463 113d 1338 c7bd 3f3b 1c3e
00000220: 4a31 f4bd 46c3 11be 1c05 563d b8cc f43c
00000230: 5e84 943d eebd a63d 0b5c 173e 2030 e4bc
00000240: 8758 29be 2508 1b3e 90e4 823d 5088 543c
00000250: 00eb c4ba f3b6 113e de8c d83d 80e5 68bd
00000260: 081b d8bc 7db0 093e 601e debb 6a8a b73d
00000270: 0743 9abd 48e5 fe3c d65b b73d 186a b1bc
00000280: db66 9fbd 9afa e1bd e324 29be 148b 1bbe
00000290: b8f0 dc3c 9fb7 033e c5c9 93bd 34f2 e4bd
000002a0: a688 d53d d8b1 d2bc 68cb 163d 54ad 033d
000002b0: 5204 f63d b639 a33d 9057 13be a0a3 a6bb
000002c0: 78c5 38bd e006 78bd 2e17 25be c48f 46bd
000002d0: c410 643d 9551 e5bd 9ad7 eebd 885c 93bd
000002e0: 804e 54bc 188d 2ebe 0c7f 813d 60b2 90bc
000002f0: 66aa d3bd f143 1ebe 8565 f1bd 8251 c23d
00000300: 96d0 34be 3a7b 863d 3055 5d3c c00a 3f3c
00000310: 43b6 23be 8079 643d ba76 12be d912 dfbd
00000320: 800f 1dbe 3209 823d d319 08be e044 453c
00000330: d066 673d aeec 853d 806c e5bc e0be 673c
00000340: 9065 a3bd 1587 213e 1661 9c3d c8f2 1f3d
00000350: f31d 06be 10dc 24bd 456e 12be 7c47 06bd
00000360: 50e7 253d c6e2 d33d ba61 a63d a759 32be
00000370: 3d3f 1f3e 7199 cebd d46e 1ebd 7891 3c3d
00000380: 819c 323e e0f3 fa3c 548b 55bd 12c9 f9bd
00000390: 78e6 2e3d 0287 b6bd 0044 e3bc 30d3 3cbd
000003a0: 2032 903c d6f0 913d cab5 ea3d 272b a5bd
000003b0: e2a8 983d 102a 293d 5ecd 27be b5ef 18be
000003c0: 36b9 04be ba9d 973d 22a2 b73d 2461 3e3d
000003d0: 1004 9bbc 80c7 3f3b f402 53bd 9773 0d3e
000003e0: 0f58 12be 8d31 d5bd 3959 0abe f870 b5bc
000003f0: a8f3 2fbe 107b 023d 3f40 343e 34bd 7a3d
