pytorch_models/TD3_kivy-car_41_148_critic.pth (torch_old, 230503 bytes, 74 tensors)

conv1_1.0.weight f4 [16, 1, 3, 3]
000000 e4 b8 90 3e 93 ce 53 bd 85 db a3 be 08 7c 1c be
       0.2826606 -0.051710676 -0.32003418 -0.15281689
000010 c1 3f fb 3d 98 94 8a bd bd c5 25 be 62 18 0a bc
       0.122680195 -0.06766623 -0.16188712 -0.008428665
000020 bc cb 00 3e e7 58 2d bd e1 ef a0 be 78 fe 56 3e
       0.12577718 -0.042321112 -0.31433013 0.2099551
000030 24 7c 97 3e 6d ae 9c be 86 39 7f bd 7b c1 af 3d
       0.295869 -0.30601826 -0.062310718 0.08581825
000040 23 ea 81 be 4a 04 a4 3e 0c 83 a1 3d f2 30 2c be
       -0.25373945 0.32034522 0.07886323 -0.16815546
000050 d3 f0 8d be ee c8 ae be 96 6d 6c be 64 59 52 3e
       -0.27722797 -0.34137672 -0.23088679 0.20541912
000060 1b a1 85 3e d3 80 86 3e d5 94 39 be ef 41 86 bd
       0.26099476 0.2627016 -0.18123181 -0.065555446
000070 eb c2 48 bd 35 17 92 be 08 70 6c bd a2 56 e6 3d
       -0.049014013 -0.2853333 -0.05772403 0.11246993
000080 77 43 6d 3d 14 63 04 be 0d 2d 7a 3d 88 29 b8 3d
       0.057925668 -0.1292842 0.06107812 0.089922965
000090 a7 34 13 3e 1a 71 74 3e f3 36 81 3e b1 0a 75 3e
       0.14375554 0.2387127 0.25237235 0.2392986
0000a0 c7 d2 90 be ee aa 50 3e 6b e0 96 be 11 1d 09 be
       -0.2828581 0.20377705 -0.29468092 -0.13389994
0000b0 b5 a3 58 bd f5 0f 14 be 03 dd c0 3d ed cb 82 bd
       -0.0528905 -0.14459212 0.09417155 -0.06386552
0000c0 c9 e6 a1 3c 56 cb d4 3d da 84 0c 3e 76 d4 d6 3c
       0.019763367 0.10390346 0.13722554 0.026224356
0000d0 74 4f d1 bd f2 f5 83 bd 52 43 a2 3d fa 34 03 bd
       -0.102202326 -0.06443395 0.079229966 -0.032032944
0000e0 54 ff ca bd 47 6b 49 be b4 97 8a 3e c1 ba 93 bd
       -0.09911981 -0.1966983 0.27068865 -0.07213355
0000f0 f2 7b 8c 3e 8d 87 90 3e 1a 33 81 3e 9a 2d 98 3c
       0.27438313 0.28228417 0.252343 0.018576432
000100 ff d1 1c be 3d 1f 3e be 43 ee 75 be 7f 8a 91 be
       -0.15314482 -0.18566604 -0.24016671 -0.28425977
000110 d2 da b5 3c 22 3a 98 3e 6f 91 a8 3e b4 36 a4 3e
       0.022199068 0.29731852 0.32923457 0.32072985
000120 4d 6b 97 be 82 5a 02 bd 99 95 4a be 8a 2b e1 3d
       -0.29574051 -0.031824596 -0.1978363 0.109946325
000130 3e 8b 01 3d 1b 7b 89 be e8 d9 bc 3b 40 36 49 3c
       0.031626932 -0.26851735 0.005763281 0.012281001
000140 0a 51 17 3e 92 6b 48 3d 33 c4 9d 3e ed d6 29 bd
       0.14777008 0.048930712 0.3081375 -0.041464735
000150 56 bf 89 3e e2 cb f7 bc 6b 09 9a bd 7a 27 71 bd
       0.2690379 -0.030248586 -0.075213276 -0.05887554
000160 08 5b 14 3e 88 31 8e bc 4b 6b 98 bb 5f a5 ba 3e
       0.1448785 -0.017357603 -0.004651462 0.36454293
000170 0b a4 be 3d 98 2b d0 3d 85 5b 94 3e 39 8b 68 be
       0.093086325 0.10164565 0.28976074 -0.22709359
000180 b6 1d 5a be 32 cd 81 3e 4a 7e 3b 3d 47 09 31 bd
       -0.21300396 0.25351864 0.045774736 -0.04322174
000190 4e ed 24 be 7c 5f 92 be c1 64 b0 bd 04 68 a9 be
       -0.1610615 -0.28588474 -0.08612967 -0.3308717
0001a0 a6 a3 35 3e 2a e1 84 3e be 98 00 3e a2 da 94 be
       0.17738208 0.25953037 0.12558267 -0.29073054
0001b0 4d 23 2b be ec a7 f0 ba 9a 76 87 bc 04 7a c6 bd
       -0.16712685 -0.0018360591 -0.016536046 -0.096912414
0001c0 0a 3c e0 bd 60 7d 9e 3e b3 0d 28 3e 19 c6 ee 3d
       -0.109489515 0.3095503 0.16411476 0.11658878
0001d0 7d a1 27 bd f9 53 14 3c d1 ec 26 be bb ca 68 bd
       -0.04092549 0.009053224 -0.16301276 -0.056833964
0001e0 1e 28 11 3e cb c4 9d be 55 dc 94 3d ee 3b 4e 3e
       0.1417546 -0.30814204 0.072685875 0.20140049
0001f0 ab e2 88 bc cf 29 40 3e b1 fb 90 3e d6 f5 79 be
       -0.016709646 0.18765949 0.28317025 -0.24410185
000200 f9 5f 50 3e e2 84 8a 3e 68 6f 15 be 59 d4 6a 3e
       0.2034911 0.27054507 -0.1459328 0.22932567
000210 fc 01 26 3e 67 49 fe bc 85 3b 65 be 0f 73 8c 3e
       0.16211694 -0.03104086 -0.22385986 0.27431533
000220 8f 8d 6f be 0f 32 cb 3c 8e 32 f6 bd 0d 80 7a 3e
       -0.23393844 0.024804143 -0.12021361 0.2446291
000230 7d bd 91 3e a7 b5 2c 3e 8c 9a 2d 3e cf ed 20 3e
       0.2846488 0.1686617 0.16953486 0.15715717

conv1_1.0.bias f4 [16]
000000 b2 3d ba bd 85 76 7f bd 30 7b 17 bd 52 1c 81 bd
       -0.09093799 -0.06236889 -0.036982715 -0.0630423
000010 4e c0 97 3e 9e b7 db bd bb 8a a4 3d d6 74 36 bd
       0.29638904 -0.107283816 0.08034273 -0.044545017
000020 91 6d 4f 3d 53 a1 82 be 5e 62 87 bd 59 c7 95 3e
       0.0506416 -0.25513706 -0.06610559 0.29253653
000030 7a 0a 87 be d4 cf fd bd 7b 37 7f 3e 8b 79 06 3e
       -0.2637518 -0.12393156 0.24923508 0.13132302

conv1_1.1.weight f4 [16]
000000 f0 bd 7f 3f 6f 5c 73 3f d7 61 80 3f d8 1c 7f 3f
       0.99899197 0.9506292 1.0029858 0.9965339
000010 b1 b0 81 3f af c3 7a 3f db 63 80 3f d9 fd 80 3f
       1.0132047 0.9795484 1.0030473 1.0077468
000020 f6 8b 80 3f 04 e5 81 3f 7a 2c 7e 3f ca 06 80 3f
       1.0042713 1.0148015 0.99286616 1.0002072
000030 c3 55 82 3f 36 a1 7e 3f a5 23 81 3f 91 5b 81 3f
       1.0182422 0.9946474 1.0089003 1.0106069

conv1_1.1.bias f4 [16]
000000 73 96 7f 3b 2d e7 f9 3b 94 f3 07 3c db dc 45 ba
       0.0038999587 0.0076264353 0.00829782 -0.00075478636
000010 bd c1 6b bc 02 ce 17 3c 70 ec 3b 3b 3c 0e 41 3c
       -0.0143894525 0.009265425 0.0028674863 0.011783179
000020 7f ef 29 3c 56 8e bd bb 95 9d fc b9 3b d4 a3 ba
       0.010372042 -0.00578479 -0.00048182593 -0.0012499163
000030 ce ae 43 ba 04 02 8a bb d0 bb 54 bc a9 88 ac bb
       -0.00074647076 -0.004211666 -0.012984231 -0.0052653146

conv1_1.1.running_mean f4 [16]
000000 8a 3e 52 be b3 80 c5 bd 52 a1 68 be 51 94 3f be
       -0.2053167 -0.09643688 -0.22717789 -0.18708922
000010 a8 69 e2 3e ca 16 cf bd db d3 eb 3e f9 1d b6 3c
       0.44221234 -0.101117685 0.4606007 0.022231089
000020 6b 7c 3b be 5c 7c 48 3c cf 92 8f 3e 4f d6 9d bc
       -0.1830918 0.012236681 0.28041694 -0.01926723
000030 31 e5 38 be fb 69 b7 bd eb c8 fb 3e 7e 39 1d 3f
       -0.1805618 -0.08955761 0.49176726 0.6141585

conv1_1.1.running_var f4 [16]
000000 5c b5 48 3c 09 9c d0 3b 8f b9 11 3d 26 0e 8d 3c
       0.012250271 0.006366257 0.035577353 0.01721866
000010 a4 25 e7 3c ef 17 33 3a 8d 72 03 3e 64 e9 1e 3c
       0.02821619 0.00068318745 0.12836666 0.009699199
000020 9f 86 57 3d c8 b9 84 3d 62 25 e6 3d d8 f1 bd 3d
       0.05261862 0.064807475 0.11237599 0.09274644
000030 af 7d 07 3c 66 bc b8 3b 87 d2 76 3d 4e 2d 50 3e
       0.008269711 0.005637693 0.06025937 0.20329782

conv2_1.0.weight f4 [16, 16, 3, 3]
000000 d6 c8 25 bd 77 d7 22 bd eb 26 f5 3c 21 57 b5 3b
       -0.040474735 -0.039756265 0.029925784 0.005534068
000010 b8 76 05 3d 54 a9 1d 3c a7 3f 86 3d ed ad 85 bd
       0.032583922 0.0096228905 0.065551095 -0.06527314
000020 50 be b9 3d 6b d9 1a bd 92 8a 0a bd 71 66 36 bd
       0.09069502 -0.037805002 -0.033823557 -0.04453129
000030 50 4c af bd 03 78 a3 bd e7 51 95 bd 58 97 ec bc
       -0.08559477 -0.07981875 -0.07291012 -0.02888076
000040 24 6e 8a bd 67 2f 02 bd 6f 1e 63 bd 22 df 9b bc
       -0.06759289 -0.031783488 -0.055448946 -0.019027296
000050 c3 89 91 3d b9 a9 de 3c a0 f0 84 3d 51 06 5b 3c
       0.07106354 0.02718054 0.06491208 0.013368205
000060 20 4c e4 bc 4e 50 71 3d 47 d3 87 bd 79 3d a4 3d
       -0.02786833 0.058914475 -0.06632095 0.080195375
000070 1f b9 2b bd 39 b1 95 3c a6 a3 4d bd 98 43 b1 3c
       -0.041924592 0.018272983 -0.050204895 0.021638677
000080 9f 0b 3d 3c 19 ef 15 3c 71 96 2a bd db a9 31 bd
       0.011538415 0.009151244 -0.04164738 -0.043374877
000090 43 58 1b 3d 52 0a b8 bd 15 a2 fd bc e6 ac e9 3c
       0.03792597 -0.089863434 -0.030961076 0.028524827
0000a0 40 dc 4c bd eb ea 38 3a 75 54 92 3c bb 51 31 bd
       -0.050014734 0.00070540485 0.017862538 -0.043290835
0000b0 ea ef 95 3d 2f 97 ce bd ad d4 5e bd 15 fc c1 bb
       0.073211506 -0.1008743 -0.054402042 -0.005919943
0000c0 3e 03 5e bd 4e 02 80 bd e0 15 d1 bc 5f 8d e2 bc
       -0.05420231 -0.062504396 -0.025523126 -0.027655302
0000d0 0e 57 2e bd 23 66 27 bd b7 38 15 bd 95 ac 02 3d
       -0.04256349 -0.04086889 -0.03643104 0.03190287
0000e0 bc 7c 19 bd 0b f5 d6 3c 40 11 91 bb 01 ce 36 3d
       -0.03747247 0.026239892 -0.004427105 0.044630054
0000f0 42 41 91 bd 63 88 98 bd 90 8f 57 3d e5 09 83 3d
       -0.07092525 -0.07447889 0.052627146 0.063983716
000100 fa b7 20 3d 0e 8d 70 bc 8e f6 85 3c b2 49 8e bd
       0.039237954 -0.014682068 0.016352918 -0.0694765
000110 b4 36 d3 bc 9a 81 83 bd 48 a9 56 bd 28 69 86 bd
       -0.02578292 -0.06421204 -0.052407533 -0.06563026
000120 29 91 6d 3c e7 67 65 3c e2 32 bf 3d 9d 7e c2 bc
       0.014499941 0.014001823 0.09335877 -0.023742015
000130 fc 7e 10 bc a7 fe f7 bc 5a a5 e1 3c 94 a3 93 3d
       -0.008819338 -0.030272795 0.027544666 0.072089344
000140 b6 e4 80 3a 16 4b 7c 3d 3c 46 5a 3d 8a 37 83 bc
       0.0009833786 0.061595045 0.053289637 -0.016017694
000150 c1 75 c1 3c 04 73 11 3d f5 83 5b 3c 88 6e 46 3c
       0.02361572 0.035510078 0.01339816 0.012111314
000160 8f bf c2 3c e9 a2 0e 3d ff bd 8a 3d 77 ac 5a bd
       0.023772983 0.034823332 0.0677452 -0.05338713
000170 7f 78 8d bd 53 ab 7d bd a3 a4 89 bc da de 3b bc
       -0.069077484 -0.061930966 -0.016802138 -0.011466706
000180 15 06 1c 3d 14 08 10 bd 75 47 92 bd a9 7f 84 3d
       0.038091738 -0.035163954 -0.071425356 0.06469662
000190 b6 b4 b0 3c 29 15 21 bd 26 f4 57 3d a2 d2 d5 3c
       0.021570545 -0.03932682 0.052723072 0.026101414
0001a0 08 3f 1f 3c df 83 19 3d c2 d7 21 bd b9 02 67 bd
       0.009719618 0.037479278 -0.039512403 -0.05639908
0001b0 a6 4c a8 bc 82 ec 83 3d b6 3b 6f 3c ed c6 d6 bc
       -0.020544361 0.06441595 0.014601639 -0.026217902
0001c0 86 86 21 3d a5 12 89 3d c0 59 ed bc fd 1e 7e 3c
       0.039434932 0.06693009 -0.02897346 0.015510318
0001d0 65 3d c3 bd 47 74 79 bd 4a 25 6b bd 32 11 a7 bd
       -0.095331945 -0.060901906 -0.05740861 -0.081575766
0001e0 02 e1 02 3d 69 0f 56 3c 70 e6 b4 3c 07 14 0c 3d
       0.031952865 0.0130651975 0.022082537 0.034198787
0001f0 1d e6 9f bd 6a 38 96 3d 61 e7 9d bb fd 1b a3 3b
       -0.078075625 0.07334979 -0.0048188423 0.0049777017
000200 f3 07 4c bd 42 8e 23 bd 8e 51 10 3d cb 27 f4 bc
       -0.04981227 -0.03993059 0.035234027 -0.029804131
000210 70 bb 97 3d 19 3c 0f 3c 31 39 0b 3d 07 b7 9a bd
       0.07408798 0.008742356 0.03399009 -0.07554441
000220 14 38 17 bd 61 5a 5e bc 11 81 56 bd d5 a0 1c bd
       -0.036918715 -0.013571353 -0.05236918 -0.03823932
000230 3e 53 ec 3c 13 31 46 3d 52 9b 31 3d 8e 6c e9 3c
       0.028848287 0.048386645 0.043361016 0.028494146
000240 84 16 74 3d 28 53 29 bd 36 17 8e 3d ff b8 90 3d
       0.059591785 -0.04133907 0.06938021 0.07066535
000250 ac 2d 9e bd c3 8b 17 bd c5 46 9c bc 5a 3f ba bc
       -0.07723555 -0.03699852 -0.019076714 -0.022735287
000260 c4 ee 86 bd 3e ca 26 bc a9 88 6d bd d9 36 45 3c
       -0.0658851 -0.010180054 -0.057991657 0.0120370025
000270 c8 38 0b 3c d7 6a 46 bd f2 c1 04 bd f7 42 4f bd
       0.008497424 -0.048441734 -0.032411523 -0.050600972
000280 ba 68 e9 3c 19 d7 56 bd 42 24 40 3d eb f7 42 3d
       0.02849232 -0.052451227 0.04690958 0.047599714
000290 3a 91 2c bd ec 58 78 3d ed 5e ad bc 6e 58 bb 3c
       -0.042130686 0.060631678 -0.021163428 0.022869315
0002a0 1a 50 3b b9 a2 d3 cf 3c d1 e6 8c 3d 85 59 64 3d
       -0.0001786355 0.02536947 0.06879962 0.055749435
0002b0 f3 5d ab 3b a6 70 e6 3c 20 92 a2 3c bb 4a 8a 3d
       0.0052297055 0.028129887 0.019845068 0.06752535
0002c0 17 05 1e 3d 47 2a 1c 3d a3 ae 31 3c 4e 18 92 bd
       0.038579073 0.038126256 0.010844859 -0.07133542
0002d0 f4 23 2d 3d b4 56 64 bd f6 39 ba ba 79 a8 97 bd
       0.042270616 -0.05574675 -0.0014207948 -0.074051805
0002e0 e1 88 60 bd d3 ff f0 3c 9f a3 cc bc 42 b2 49 3d
       -0.054818038 0.029418861 -0.024980364 0.049242266
0002f0 5f db 88 3c 8d 59 08 3d 2f 2f 2e bb 99 0f db 3c
       0.016706167 0.033288527 -0.0026578417 0.026740836
000300 4b fa b5 bd 13 f2 83 bd 2b cc ac 3a 2f 7d 2c bd
       -0.0888563 -0.06442656 0.0013183405 -0.042111572
000310 fb 71 a4 bc 2c 0b ae bd 68 f7 f0 bc e9 37 93 3d
       -0.020073881 -0.084982246 -0.029414847 0.071883984
000320 69 83 9c bd 0b 56 ad 3d 9c 9c 16 bd 70 06 9b bd
       -0.07642252 0.08463677 -0.036770448 -0.07569587
000330 ef 0d 9c bc e4 e4 08 bd 0f db 0a bd a0 7d c1 3c
       -0.019049613 -0.033421412 -0.033900317 0.023619473
000340 80 f4 a8 3c 3b 55 7e bd 85 cc a3 bc 37 90 1a bd
       0.0206244 -0.062093 -0.019994983 -0.03773519
000350 18 8e 97 3d 1a f8 99 bc 6e 48 a7 bd fe bb ef 3c
       0.07400149 -0.018795062 -0.08168112 0.029264446
000360 36 50 9b bd 6a cd 1e bc 1b 33 6e bd ab 55 33 bd
       -0.075836584 -0.009692529 -0.058154207 -0.04378287
000370 84 b6 a6 3d a1 0d 67 bc 7c be 97 bd 4a bc 98 bc
       0.08140281 -0.0141023705 -0.07409379 -0.01864447
000380 61 a5 ca bc ce fe 99 3d 57 1a bb 3d b5 19 5e 3c
       -0.024737062 0.07519303 0.09135883 0.013555934
000390 30 33 39 3d 8e 08 be 3d c1 05 c5 3c 71 d2 26 bd
       0.04521483 0.092789754 0.024050595 -0.040728036
0003a0 58 8f 2f 3d bd d4 4b bd 57 8f d2 bc 54 1b 50 bd
       0.042861313 -0.04976343 -0.025703115 -0.050807312
0003b0 b7 86 e9 3c 34 9f 04 3d 00 ed 90 3d 9e fd 97 3d
       0.02850662 0.03237839 0.07076454 0.074214205
0003c0 0f 33 a3 3c b5 c2 a7 bc 0e cc 83 3c 8a 6c a3 bd
       0.019921808 -0.020478586 0.016088512 -0.079796866
0003d0 a9 56 02 3d 67 fb 69 bc d4 6e 22 bd 6b b6 9a bd
       0.031820927 -0.01428113 -0.039656475 -0.07554325
0003e0 6a 36 4f 3d 34 11 a0 3d 2a 78 28 bd 3a ac ca bc
       0.050589003 0.07815781 -0.041130222 -0.024740327
0003f0 8a 16 39 3d 8a 84 49 bc 6f a3 7f bd e6 7a 1f 3d
       0.04518751 -0.012299666 -0.06241172 0.038935564

conv2_1.0.bias f4 [16]
000000 24 86 b2 bc 6d e2 82 bd 1b 24 84 bd ca 80 83 3c
       -0.021792479 -0.063908435 -0.06452199 0.016052622
000010 ac 2a 77 3c 61 15 3d bd 21 fa 3e 3d 76 6a b1 bc
       0.015085857 -0.046162967 0.04662526 -0.02165721
000020 d1 85 45 3d 9e 96 d4 3c 92 21 48 3d 11 8c 4d 3d
       0.04822332 0.025950726 0.04886014 0.050182406
000030 7a 6a 06 bd 12 ca bc 3c 70 6f 8d 3d 31 6f 85 3d
       -0.032816388 0.023045573 0.06906021 0.06515349

conv2_1.1.weight f4 [16]
000000 5f 5b 80 3f 71 e8 82 3f 2f b5 80 3f 83 9c 80 3f
       1.0027884 1.0227185 1.0055293 1.0047764
000010 b0 4b 82 3f 69 14 80 3f d0 31 75 3f d7 d5 78 3f
       1.0179348 1.0006229 0.9577913 0.97201294
000020 8b 77 7f 3f a2 99 7c 3f 32 53 7c 3f 8a c6 80 3f
       0.99791783 0.98671925 0.98564446 1.0060589
000030 13 e0 7d 3f df 27 84 3f 59 b2 7c 3f d2 bd 80 3f
       0.99170035 1.0324668 0.98709637 1.0057929

conv2_1.1.bias f4 [16]
000000 59 85 88 ba 1c 74 b7 ba 68 f7 80 bb 0c 7f 15 bc
       -0.0010415717 -0.0013996395 -0.003935743 -0.009124529
000010 60 1c d7 3c 0b c2 29 bb 47 54 8b bc bd c0 2e bc
       0.026258647 -0.0025903012 -0.01700796 -0.01066607
000020 26 fc 08 bd ec 52 32 3c 67 bf 95 3b 87 c7 c7 bc
       -0.033443592 0.010884028 0.004569936 -0.024387134
000030 3a 86 2e 3a f6 9e 4f 3c 37 7f 53 ba 1c 31 d7 bb
       0.00066575746 0.012672177 -0.0008067968 -0.0065671336

conv2_1.1.running_mean f4 [16]
000000 db b2 2b be 81 eb b5 bd 89 1c bf be 5c 67 de 3d
       -0.16767447 -0.088828094 -0.37326458 0.10859558
000010 d4 74 26 3e 21 58 1a be d9 75 e2 be 4c 4b 99 be
       0.16255504 -0.15072681 -0.44230536 -0.2994026
000020 91 28 e7 bd d0 48 81 3e 98 aa cd 3e 55 73 7f be
       -0.11287034 0.25250864 0.40169215 -0.2494634
000030 d6 13 48 bf ef 22 21 be e5 ed 7b 3d a6 db 17 bd
       -0.7815527 -0.15735982 0.06150617 -0.037074707

conv2_1.1.running_var f4 [16]
000000 44 ad d4 3d 63 f7 85 3d 1d 40 a5 3d 70 e7 66 3d
       0.1038461 0.06541326 0.08068869 0.05637306
000010 9d e9 47 3d e6 0c 77 3e 00 7d 97 3d ee 19 8d 3e
       0.048806775 0.24126014 0.07396889 0.27558845
000020 1e d7 05 3e 13 b6 37 3e 92 87 7f 3e f4 5a 62 3d
       0.13070342 0.1794055 0.2495406 0.05526252
000030 d4 57 05 3f 74 88 38 3d 3f 26 71 3d 59 89 a9 3e
       0.5208714 0.045052007 0.058874365 0.331126

conv3_1.0.weight f4 [16, 16, 3, 3]
000000 03 da 93 3d ee 91 f4 3c 72 d4 dd 3c f9 bc 59 3b
       0.07219317 0.029854741 0.02707884 0.0033224209
000010 55 db bc b9 df 12 66 3d 77 7c e9 3c 4f 58 ff bb
       -0.0003602157 0.05617034 0.028501732 -0.0077925096
000020 67 73 da bb 61 77 b6 bd cb cc 3f 3c 64 d8 6c 3d
       -0.006666589 -0.089094885 0.011706541 0.057823554
000030 79 85 79 bc 92 90 a5 bd 3e 89 47 bd 0e 90 98 bd
       -0.015229576 -0.08084215 -0.04871487 -0.07449351
000040 44 95 de bc c8 c3 9b bd cf 1c 97 bd 2a 99 22 3d
       -0.027170785 -0.07605702 -0.07378542 0.03969685
000050 80 53 31 3d 2a 10 a1 bc 0c 87 90 3d 69 9b a0 3c
       0.043292522 -0.019661028 0.07057008 0.019605355
000060 e3 69 58 bd 08 50 0f bc 00 16 3e 3d cf a2 4f bd
       -0.052835356 -0.008747108 0.0464077 -0.050692376
000070 bc f5 05 3d 66 11 49 3d 03 67 4d bd 52 12 4d bc
       0.032705054 0.049088858 -0.050147068 -0.012516575
000080 9f c3 5e bd 9b 41 20 3b 14 ea d7 3c 77 8f e9 3c
       -0.054385778 0.0024453166 0.026356734 0.028510792
000090 86 09 ad bd 18 60 c5 bc 83 05 3c 3d da cc 41 3c
       -0.08449082 -0.024093673 0.045903694 0.011828626
0000a0 6b a5 a2 bd 22 d2 93 bd 32 ed 60 3d 58 e4 68 bd
       -0.07941707 -0.07217814 0.054913707 -0.05685839
0000b0 76 0c 8d 3d 6e 94 14 3c c8 08 9b 3d e1 b7 8c bd
       0.06887142 0.0090685915 0.07570034 -0.068710096
0000c0 1b 0a 4f bc 60 9a 15 bd 56 b4 01 bb e0 f7 30 3c
       -0.012636687 -0.036524177 -0.0019791326 0.0108012855
0000d0 9e 51 55 3d 7e 78 1b bd 18 fd 9d 3c 53 ed 91 bc
       0.05207979 -0.037956707 0.019285724 -0.01781336
0000e0 13 74 73 3c 0a f7 77 bd 9b 08 9f 3b 57 cd 1c bd
       0.014859217 -0.06053833 0.004853321 -0.038281765
0000f0 24 bf 80 3c 73 e0 6a 3d 6b 06 cb bb 10 44 7f bd
       0.015716143 0.057342958 -0.0061958334 -0.06232077
000100 3d 82 25 3b 7f a0 1a 3d 81 ab 1f 3d cb fb a8 bb
       0.002525463 0.037750717 0.03898192 -0.005156969
000110 c7 fc 63 3d bd 05 77 bd d3 5c e5 3c 32 c9 1d 3c
       0.05566099 -0.060308207 0.027998364 0.009630488
000120 bb 52 77 bd ce a0 08 3d 3e 4b b0 bd 34 55 64 3d
       -0.060381632 0.03335648 -0.08608101 0.05574532
000130 03 e9 ba 3d 91 c3 5e 3d 08 53 2c bc 87 06 f8 ba
       0.09126475 0.054385725 -0.010517843 -0.0018922844
000140 80 ac 8c 3d 2a e7 86 3d b3 18 58 bd a7 7e 21 3d
       0.06868839 0.0658706 -0.05275793 0.039427426
000150 65 c0 dc 3c c3 50 ef 3c 93 f3 4d 3d 10 ca 91 bc
       0.02694721 0.029213315 0.05028112 -0.017796546
000160 a3 2e 80 bd d4 b6 07 3d 4c 84 5b bc 22 5e 5d 3d
       -0.06258895 0.033133343 -0.013398241 0.05404485
000170 b8 12 82 bd 9a bf 7e bd d5 0f 8f bd cb 83 d5 bc
       -0.063512266 -0.062194444 -0.069854416 -0.02606382
000180 cf 02 63 3d 32 75 7c 3d 84 a3 3f 3d ca c1 83 bd
       0.0554226 0.061635204 0.0467868 -0.06433447
000190 a4 5a 26 3d ac 5f 20 bd 56 b5 19 3d 15 10 5f 3d
       0.040613785 -0.03915374 0.03752645 0.054458696
0001a0 2f 9b 4c 3d 33 90 80 bd 22 ed 74 bd 39 52 bc bb
       0.049952682 -0.06277504 -0.05979646 -0.0057471064
0001b0 b1 45 d1 3b 7e 93 a7 3c 60 ad a2 3d c3 1c fc 3b
       0.0063864817 0.020456072 0.07943225 0.0076938584
0001c0 00 37 44 bd 0d fb 38 bb c1 a2 56 bc d6 b2 e0 bb
       -0.047904015 -0.002822581 -0.013100327 -0.0068572564
0001d0 3f b2 a9 3d c0 9c 0b bd 98 2e 53 bc 97 63 95 bd
       0.08285951 -0.034085035 -0.012889527 -0.07294386
0001e0 21 94 5d bd b3 77 86 bd 30 a1 14 bd c1 b5 84 bd
       -0.054096345 -0.065657996 -0.036286533 -0.06479979
0001f0 83 34 84 bb cc 0e 39 3d 5c f1 1c bc 2e 73 d7 bd
       -0.00403458 0.045180127 -0.009579029 -0.10520016
000200 1b 31 69 bd ad 28 26 3d 8f 3a 64 bd a2 ff fc 3c
       -0.056931596 0.040566135 -0.05571991 0.030883614
000210 de 87 27 3d c8 b1 56 3b ff 56 fc 3c 1d 13 d1 3c
       0.040901057 0.0032759774 0.030803202 0.02552181
000220 6a 37 12 3b cc 88 78 3d 0a ad 55 bd a4 5d 67 3b
       0.0022310861 0.060677335 -0.052166976 0.0035303617
000230 77 fb 94 bd c0 88 38 bd 7e a1 e7 3c 26 9b 9f bd
       -0.072745256 -0.04505229 0.028275248 -0.07793264
000240 7b 2e 4f 3c 77 b0 b0 3c 72 84 b8 3c ee 9b 7e bd
       0.012645359 0.02156852 0.022524092 -0.062160425
000250 57 59 b2 bb e3 e5 34 bd dd 65 77 3d 84 44 17 bb
       -0.005442779 -0.04416455 0.06039988 -0.002308161
000260 32 dd d8 3d 05 57 7b 3c 7d 75 8b bc 01 cc a4 bd
       0.10589065 0.015340571 -0.017023796 -0.08046723
000270 b8 79 b3 bd 6c 9d f7 3c 4b 1e f3 3b 84 1c 8c 3d
       -0.087634504 0.030226432 0.0074193827 0.068413764
000280 78 a5 94 3d 2e 74 3c 3d 13 cd 69 bd cf 72 02 bd
       0.07258123 0.046009235 -0.05708034 -0.03184777
000290 17 90 40 3b 25 b7 1a 3c 0f 36 18 3d 1f 80 b0 bc
       0.002938276 0.009443079 0.03716093 -0.021545468
0002a0 a1 01 92 3c f0 24 61 bc 76 30 4a 3b be 2e 4a 3d
       0.017823042 -0.013741717 0.003085164 0.049360983
0002b0 53 e0 86 3b bc 8a 0f 3d 03 a8 b8 bd 42 32 8c 3d
       0.004116097 0.035044417 -0.09016421 0.068455234
0002c0 d5 ef b8 bd b6 9c 21 bd 66 2c 54 3d 0a 82 8f bc
       -0.09030119 -0.03945609 0.051800154 -0.017518062
0002d0 c6 dd 24 bd 4b 45 87 bd 10 73 ce 3c b1 92 db 3b
       -0.040250562 -0.066050135 0.02520135 0.0067008366
0002e0 76 43 0c 3d fa e6 d2 3c b5 0c 76 3d 72 a2 48 bd
       0.034244023 0.025744904 0.060070712 -0.048983045
0002f0 a2 e0 a5 3c f4 a7 97 3c 5c 0d ea bb 4c 2a cc 3b
       0.020248715 0.018512703 -0.007142706 0.006230628
000300 65 e5 48 3d b3 91 e7 3b f8 ac f0 bc 9a be 07 bd
       0.049046893 0.0070669292 -0.029379353 -0.033140756
000310 6b 16 0e 3c 4f 63 c0 3b 9b e5 c9 3d 23 6f 94 3d
       0.008672337 0.0058712135 0.09858247 0.0724776
000320 16 2f 59 bc c5 e7 ac 3a 30 ec a9 3d d3 15 90 bd
       -0.013255855 0.0013191631 0.08297002 -0.07035413
000330 95 4d 38 3d 65 e8 54 3c 08 46 4d bd 6a df 42 bb
       0.044995863 0.01299486 -0.050115615 -0.0029735216
000340 ea a5 a0 bc 87 a4 03 bd fd 87 57 3d 30 a2 10 bd
       -0.019610364 -0.032139327 0.052619923 -0.035310924
000350 fb 8b 4a 3d 2f b1 6f 3d 95 ba 35 bd 4d 8c c6 3c
       0.049449902 0.058518585 -0.04436739 0.024236823
000360 69 ac 74 bd 89 15 8c 3d 74 91 dd bd 53 e5 8c bd
       -0.059734736 0.06840045 -0.108187586 -0.068796776
000370 b2 6e a5 bd 3c 96 0c 3d c4 82 87 bd 12 5b 72 bd
       -0.08077754 0.034322962 -0.066167384 -0.059168883
000380 b1 13 dc bd 2f 3e c7 bd 64 06 d9 3b d4 d2 4f 3d
       -0.10745943 -0.097286575 0.0066230763 0.05073817
000390 ac 1a e0 bc e3 00 79 bd 26 78 48 3c 8e 6c 61 bd
       -0.027356468 -0.06079186 0.012235677 -0.055035166
0003a0 59 b5 29 bc 81 65 c1 bb be 90 12 3d 37 b1 17 bd
       -0.010358178 -0.005901993 0.03578257 -0.03703424
0003b0 a4 79 1b bd e3 71 39 bc 3b f6 98 3c 47 80 9c 3c
       -0.037957802 -0.011318657 0.0186721 0.019104136
0003c0 03 6e b4 bc ce 9b 93 3c e6 af a0 3d 8b 16 8f 3c
       -0.022025114 0.01801863 0.0784605 0.017466804
0003d0 9d 91 f4 bc 7f dc 56 bd 83 2a 44 3d 89 af 58 3c
       -0.02985459 -0.052456375 0.047892105 0.013225445
0003e0 68 ad 3e bc fd 3d 12 bd 65 1c 81 3d 6b 8c 02 bd
       -0.011638023 -0.035703648 0.06304244 -0.031872194
0003f0 c8 de ce bd e9 f4 27 3d a7 ce 88 3d 5a 25 20 bd
       -0.10101086 0.04100505 0.06680041 -0.03909812

conv3_1.0.bias f4 [16]
000000 f7 9e ae 3d dd 76 2b bd a0 c8 71 bc cd 7d 9a bd
       0.08526414 -0.041861404 -0.014757305 -0.07543526
000010 b7 65 37 bd 82 81 34 3d 3c 81 f8 bc 08 d9 20 3b
       -0.044774737 0.04406882 -0.030335061 0.0024543423
000020 ae c1 a5 bd a9 02 f3 bc 17 db 45 3b 08 13 bf bc
       -0.08093582 -0.029664354 0.0030190402 -0.023324504
000030 89 b2 a7 3d cc 77 d1 bc e4 c5 b0 3c 3e 88 dc 3c
       0.0818835 -0.025569819 0.021578737 0.026920434

conv3_1.1.weight f4 [16]
000000 fb 6b 78 3f ac 8e 73 3f 01 68 77 3f 4a 76 7b 3f
       0.97039765 0.95139575 0.9664307 0.9822737
000010 d4 d6 70 3f 35 ac 6e 3f 37 b4 75 3f e6 9f 7a 3f
       0.940778 0.9323152 0.9597811 0.97900236
000020 73 39 7d 3f 81 68 7d 3f 58 92 88 3f 09 95 75 3f
       0.98915786 0.98987585 1.066966 0.95930535
000030 89 14 87 3f c1 39 75 3f 14 b8 76 3f 7f d1 7d 3f
       1.0553142 0.9579125 0.9637463 0.9914779

conv3_1.1.bias f4 [16]
000000 69 bd a5 bc 14 d4 5b bd b3 03 fb bc 21 9d 24 bd
       -0.02023192 -0.05366905 -0.030641412 -0.040188912
000010 04 6a e8 bc da d6 70 bd be 1c be bc 90 f7 c0 bc
       -0.028370865 -0.05879865 -0.023207065 -0.023555547
000020 58 a6 bb bc 55 60 54 bc 28 a1 d4 bc e0 4e 6e bc
       -0.022906467 -0.0129624205 -0.025955752 -0.014545172
000030 03 6b c2 bc f7 09 03 bd e7 98 14 bd b3 47 5f bb
       -0.023732668 -0.031991925 -0.03627863 -0.0034069836

conv3_1.1.running_mean f4 [16]
000000 94 f9 30 bc 73 1c 63 be 7d 1c c6 bd ac 95 1e 3e
       -0.010801692 -0.22178821 -0.096734025 0.15486783
000010 b7 f3 e4 be 88 d8 28 3d 3b 57 59 be fd 69 b1 be
       -0.4471719 0.041222125 -0.21224682 -0.34651175
000020 80 a9 84 bd 10 77 3a 3b 07 ff 90 bd 62 ee e9 3d
       -0.06477642 0.0028452314 -0.070798926 0.11422421
000030 4c 9e 77 3e f3 64 04 be 04 20 d9 3c cb 9b 90 be
       0.24181479 -0.12929134 0.026504524 -0.2824386

conv3_1.1.running_var f4 [16]
000000 07 20 86 3e cb f6 16 3e 2a a9 f1 3e 24 af 21 3d
       0.2619631 0.14742582 0.47199374 0.039473668
000010 b8 34 a6 3d e2 da 99 3d 7f 57 21 3d 03 1f 50 3e
       0.08115524 0.07512452 0.039390083 0.2032433
000020 09 ef bf 3c 54 51 8d 3e a4 46 0b 3d 0e 97 d0 3e
       0.02342941 0.2760111 0.034002915 0.40740246
000030 ba 0a 62 3d 12 fc 19 3d 36 7c 1c 3e 61 a4 26 3e
       0.05518601 0.03759391 0.15281758 0.16273643

conv4_1.0.weight f4 [16, 16, 3, 3]
000000 47 47 0f bd 1c 35 06 bc 16 3a 05 bd 1c ee 52 bc
       -0.034980085 -0.008191373 -0.0325261 -0.0128741525
000010 23 50 33 3d 81 7c e3 bb 40 a9 48 bc 4a be 26 bc
       0.043777596 -0.0069423323 -0.012247384 -0.010177204
000020 c4 a5 7b 3d 19 f0 29 3d e6 ee b2 bc 2f 7d 24 bd
       0.061437383 0.04148874 -0.021842431 -0.040158447
000030 f5 8d 2f 3d ae 3c 66 bb 38 30 26 bd 7c 7f 53 bd
       0.04285999 -0.0035131383 -0.04057333 -0.05163525
000040 df 10 5c bd 2b 9d 8f 3d 8c 91 96 3d 09 90 07 3d
       -0.053727027 0.07012399 0.073519796 0.033096347
000050 10 46 86 bc fd 08 30 3d 52 df 8c 3c f6 22 2a 3d
       -0.01639083 0.042977322 0.017196331 0.041537248
000060 71 8c a2 bc 45 e2 62 bd d0 ba 24 3c 01 49 f0 3a
       -0.019842358 -0.05539157 0.010054305 0.0018332304
000070 24 58 83 3d 41 c3 fa bc 10 98 2a bd 42 69 8b 3d
       0.06413296 -0.030610682 -0.041648924 0.06807186
000080 24 47 01 bd de 28 0a 3c 90 aa 70 3c cd 54 39 bd
       -0.031561986 0.008432595 0.014689103 -0.045246888
000090 f0 26 81 bc 9e bd e4 bc bc 13 a3 ba aa 33 45 3b
       -0.015765637 -0.027922448 -0.0012441794 0.0030090609
0000a0 57 60 5a 3d 69 4b 49 3c 18 c2 1a bc 50 e5 3a bd
       0.053314533 0.012286046 -0.00944569 -0.045628846
0000b0 c6 56 a5 3a 02 ea 16 3d 61 5c ba 3c d3 24 7b bc
       0.0012614361 0.03684426 0.022749128 -0.015328604
0000c0 0c 80 41 3b 64 1b 50 ba 72 f5 a2 bc 93 2a b2 3c
       0.0029525785 -0.0007938652 -0.019892428 0.021748817
0000d0 6b c7 83 bd 37 d4 8a 3c 0e d8 15 bd 19 3c e3 3c
       -0.0643452 0.016946895 -0.036583 0.027738618
0000e0 a4 ce 22 bd a7 d2 65 3c cc 01 1d bd 90 e3 8b bb
       -0.03974785 0.014027274 -0.03833179 -0.004269071
0000f0 2e 89 6c 3d 05 fe 88 3d 16 9d 62 3b 2b bb 66 bd
       0.057748012 0.066890754 0.0034578494 -0.05633084
000100 14 3d 86 bd 31 a0 97 3d 3d 5a 7d 3d eb 3b 50 bd
       -0.065546185 0.07403601 0.061853636 -0.050838392
000110 1f bb 0b 3d 6f bd a4 3b aa 83 87 bc 48 e1 70 3d
       0.034114 0.005027465 -0.016542275 0.058808595
000120 e6 82 45 bc 4b 79 73 3d 92 c4 98 ba 2c ce 9e 3d
       -0.012055134 0.059441846 -0.0011655262 0.07754168
000130 02 34 58 bc bd 6c af bb 27 88 89 3c 2a 9e 4d bc
       -0.013195993 -0.005353539 0.016788555 -0.012549916
000140 c9 84 7c bd ab e5 a4 bc d0 bd 77 3d 23 92 84 3c
       -0.06165007 -0.020129045 0.060483754 0.016182965
000150 1f 0c 9a 3d 7b ff 28 bd 9f 62 36 3d 9e 61 69 bd
       0.07521843 -0.04125927 0.044527646 -0.05697786
000160 f4 35 29 bd 06 f1 38 bd 99 1c 05 bc ce f1 8c bc
       -0.04131122 -0.045151733 -0.008124494 -0.017205145
000170 e9 69 a7 3c 1c 10 9c bc be 4a be 3c 97 6e 08 3d
       0.020436244 -0.01905065 0.023229 0.03330859
000180 e2 85 2e 3e d2 2c 3a bd 04 ab 2f 3d 1c 5d 28 bb
       0.1704326 -0.0454529 0.042887703 -0.0025690263
000190 79 86 69 39 51 83 3e bd 3d 27 ad 3d 7b 08 49 3c
       0.00022270707 -0.04651195 0.0845475 0.012270088
0001a0 c1 88 08 3d 0d 3f e1 bd 81 06 38 3d 1f 0a c7 bc
       0.033333544 -0.10998354 0.044928078 -0.024296818
0001b0 13 f8 9b 3c 88 64 ea bc 47 7f 40 3d e0 ac a8 bb
       0.01903919 -0.02861239 0.04699638 -0.0051475614
0001c0 b0 87 44 3c 32 5b 07 3d f7 d3 55 3d ea 78 40 bd
       0.011995241 0.033045955 0.0522041 -0.046990313
0001d0 75 dc 28 3d 2a 13 8e bd e9 47 71 3b 02 7c 00 bd
       0.04122587 -0.06937249 0.0036816543 -0.031368263
0001e0 51 4d 4f bd de 85 69 bd b5 a9 cf bc c4 8d ce bc
       -0.050610844 -0.05701243 -0.025349477 -0.025214083
0001f0 d8 06 a8 bc 65 b4 e0 bc ec 9b 62 bd 41 dd 2f 3d
       -0.020511076 -0.027429769 -0.05532448 0.042935614
000200 6f fc 79 3c 23 31 72 bd 43 35 58 3d 72 4b 25 bd
       0.015257939 -0.05912889 0.05278517 -0.040355153
000210 c8 cf 98 bd 94 b0 50 38 6d e8 4f bd 69 9c c4 bc
       -0.07461506 4.9755516e-05 -0.050758768 -0.024000363
000220 ba 84 d7 bc 7e a7 39 3c 23 5a 05 3d da 02 81 bc
       -0.026308406 0.011331437 0.032556664 -0.01574843
000230 6d 67 fa bc ca ce 4e 3d 67 1e 2b bd 6a 72 48 3c
       -0.030566895 0.05049018 -0.04177704 0.01223431
000240 01 aa c3 3c 3d 61 5e 3c 64 0e 41 bd 59 6c 56 3d
       0.023884775 0.013572988 -0.047132865 0.052349422
000250 19 25 28 bc b1 7b 85 bc 5f 6b 08 3d e3 ec 14 3d
       -0.010262751 -0.016294332 0.033305522 0.036358725
000260 9c 97 50 3c f2 83 36 bd 68 4d 0e bd 4f 1c 7e bd
       0.012731459 -0.044559427 -0.03474179 -0.062038716
000270 9a 12 a7 3d 53 64 f5 bc f1 df 10 3d 49 95 33 3d
       0.08157845 -0.029955065 0.035369817 0.04384354
000280 33 5d 28 3d 2e 04 da bc 85 03 05 bd f4 dc 27 bc
       0.041104507 -0.026613321 -0.03247406 -0.01024555
000290 98 dd 21 bd 18 48 12 bd ca 61 ab bd 37 a0 67 3d
       -0.03951797 -0.035713285 -0.08368261 0.056549277
0002a0 ea c3 80 3c 0c aa e1 3c a6 b0 bb 3c d7 19 b7 bc
       0.01571842 0.027546905 0.022911381 -0.022351189
0002b0 52 a7 b0 3c 8e c4 a4 3c 91 a5 26 3d 8b 2b 67 3d
       0.02156416 0.020113256 0.04068524 0.05643801
0002c0 e1 3f 94 3c 40 aa 00 3c ea c9 97 3d 68 f8 25 3d
       0.018096866 0.007853091 0.07411559 0.0405201
0002d0 49 34 52 3d 47 05 10 bd b8 72 dc 3c 09 78 3e 3d
       0.051319394 -0.035161283 0.02691017 0.046501193
0002e0 1c 74 c5 3c 81 fe 56 3d b7 cb 72 3c 0f 08 19 3b
       0.024103217 0.052488808 0.014819077 0.002335075
0002f0 44 78 5f bd 23 3f 49 3d d2 9c 6c bb 8a 30 85 bb
       -0.054558054 0.049132477 -0.0036104214 -0.004064624
000300 c8 42 65 bd ae d9 92 bd 5d 52 4a bd 95 da 06 3d
       -0.05597189 -0.07170425 -0.049394954 0.0329233
000310 1a e6 69 3d f8 cc 5f bd d3 7f 4b bd b4 ce 5f 3c
       0.057104208 -0.054638833 -0.04968245 0.013660122
000320 5f e2 1a bd 3d ae be bc 53 24 10 bd 12 09 c1 bc
       -0.03781354 -0.023276443 -0.03519089 -0.023563895
000330 8e 47 22 bd ae 5c cf 3c af 79 a1 bd 51 91 c5 3c
       -0.03961902 0.025312748 -0.078845374 0.024117144
000340 df 23 80 3d 8d c1 56 bd a6 b2 f3 bc be 77 24 bd
       0.06256842 -0.05243068 -0.029748272 -0.040153258
000350 52 b6 60 3d 6c 4e 58 bc 10 3d d4 3c a1 dd 42 3d
       0.054861374 -0.013202291 0.025908023 0.047574643
000360 99 33 c1 bb 26 b9 67 3d 93 de bf bc 85 9c 4f bd
       -0.0058960435 0.056573056 -0.023421561 -0.050686378
000370 05 dd cd 3c 0f c1 4c bd 77 21 17 bd 76 be c7 bc
       0.025129804 -0.049988803 -0.03689715 -0.024382811
000380 f6 f8 00 bd 37 d9 01 3d 4d bf 06 3d 53 c6 7a 3c
       -0.031487428 0.031701293 0.032897282 0.015306073
000390 ee ab be 3d 08 7c 3f 3d 9f 17 28 3d ef 44 de 3c
       0.09310137 0.046749145 0.04103815 0.02713248
0003a0 8a 15 c6 3c f2 77 73 3c 95 f5 21 bd 01 b3 02 3d
       0.024180193 0.01486014 -0.039540846 0.031908993
0003b0 b2 bf b1 3d 6b 76 c0 bc 89 05 ab 3a a2 9e 55 bc
       0.08679141 -0.023493966 0.0013047914 -0.013038309
0003c0 6d 5d 1d 3e b6 f3 81 3c 89 40 09 3e 47 d1 3f bd
       0.1536767 0.01586328 0.13403524 -0.04683044
0003d0 b9 49 96 bd a5 64 15 3d f5 e1 11 3b 3d fc 87 3b
       -0.0733828 0.036472935 0.0022259925 0.004149942
0003e0 59 cb 0a bc 4b 9c 03 3c 8a 12 55 bc 0f ec 10 bd
       -0.008471333 0.008032869 -0.013004908 -0.035381373
0003f0 85 a0 b2 3d 94 4f 81 bc bc be 89 3c 9c 97 08 3d
       0.08722023 -0.015785016 0.016814582 0.03334771

conv4_1.0.bias f4 [16]
000000 dd 13 64 bd 7a 1f 02 3d be 3e a6 3c a2 50 14 bd
       -0.055683006 0.0317683 0.02029359 -0.03620971
000010 52 68 69 3c 2c 10 5e 3b f3 30 d0 bc 1f ca a9 3c
       0.014246063 0.003388415 -0.025413966 0.020726262
000020 03 e8 18 bd 79 3b 3f bd 23 dd 3c 3c 31 b7 6e bd
       -0.03733064 -0.046687577 0.0115273325 -0.058280174
000030 48 a6 37 3d 8b 21 72 3d fa 66 2e bb de da 4d 3d
       0.044836313 0.05911402 -0.0026611672 0.050257556

conv4_1.1.weight f4 [16]
000000 df 5a 8b 3f bd a8 8b 3f 4d dc 8a 3f 40 f9 8a 3f
       1.0887107 1.091087 1.084848 1.0857315
000010 1b 13 8b 3f e2 61 8b 3f 8c 07 8b 3f ff 1f 8b 3f
       1.0865206 1.0889246 1.0861678 1.086914
000020 5d 56 8b 3f 53 e2 8b 3f c0 e0 8a 3f 49 d9 8a 3f
       1.0885731 1.0928444 1.0849838 1.084756
000030 36 11 8b 3f fd 41 94 3f 0f 2e 8b 3f 9d 4c 8b 3f
       1.0864627 1.1582638 1.0873431 1.0882756

conv4_1.1.bias f4 [16]
000000 fc bf 80 3d fc 65 61 3d 12 27 78 3d ad 67 48 3d
       0.06286618 0.0550289 0.060584135 0.048926998
000010 78 fc 40 3d c5 d9 25 3d 11 75 47 3d 47 a1 84 3d
       0.047115773 0.040490884 0.048695628 0.06476074
000020 c3 74 67 3d 18 31 6f 3d bd 3a 72 3d 64 d7 84 3d
       0.056507837 0.05839643 0.05913805 0.06486395
000030 85 35 66 3d 29 76 d5 3d b6 1a 2f 3d f0 e7 8f 3d
       0.056203384 0.10422928 0.042750083 0.070266604

conv4_1.1.running_mean f4 [16]
000000 70 b1 e0 3d 0c 96 c7 3e a6 7f 95 3e 90 16 23 3e
       0.109713435 0.38981664 0.2919895 0.15926576
000010 aa ec 7f be 18 f1 5e 3e 05 fb a9 3e 17 1c b5 3d
       -0.24992624 0.21771657 0.33199325 0.08843248
000020 d1 3a 58 3e 47 29 49 3e 49 c5 db 3e 24 41 82 3e
       0.21116187 0.19644652 0.42923954 0.25440323
000030 8d fa a3 3e 7f a6 c3 3c a4 95 84 3e 12 a0 ac 3e
       0.32027093 0.023883102 0.25895417 0.33715874

conv4_1.1.running_var f4 [16]
000000 ba 89 5b 3e bb 31 74 3e 4f c1 a9 3e 9d 79 67 3e
       0.21439257 0.23847096 0.33155295 0.22604986
000010 83 18 f6 3d bc 29 3f 3e 9d 44 14 3e a7 67 93 3e
       0.12016394 0.18668264 0.14479299 0.28790018
000020 70 8d 8b 3e 90 c1 5b 3e 6f 40 a9 3e 61 e0 74 3e
       0.27256346 0.21460557 0.3305697 0.23913719
000030 11 c7 70 3e 73 de 09 3d 68 34 1c 3e 1d 77 9b 3e
       0.23513438 0.03365941 0.15254366 0.30364314

conv5_1.0.weight f4 [16, 16, 3, 3]
000000 a8 80 b7 3d 3c f9 07 3e 25 83 0f 3c 9f 6f 1c 3b
       0.08960086 0.13278669 0.008759295 0.0023870242
000010 93 3e 47 3d 06 fd 9a 3c bc 81 95 3d 51 59 17 3e
       0.04864366 0.01891948 0.073001355 0.14780165
000020 c3 3b d8 3b ba 37 55 3d 65 e0 46 3d ef 08 19 bc
       0.006598921 0.052055098 0.048553843 -0.009340509
000030 97 92 9a 3d 0a 71 5e 3d cc 73 7d 3d 44 f0 10 3d
       0.07547491 0.05430702 0.06187801 0.035385385
000040 93 c1 fd 3c f3 57 04 3d fc bf 9b 3d cb 9f b4 3c
       0.030976092 0.032310437 0.076049775 0.022048851
000050 f4 39 2a 3d 70 74 cd 3d d0 fe 14 3e 94 72 92 3d
       0.041559175 0.10031974 0.14550328 0.0715076
000060 f6 36 7f 3d 65 61 d2 3d 35 fe 8b 3d 33 04 05 3e
       0.062308274 0.10272483 0.068355955 0.12989883
000070 ae b2 03 3e f0 fa 52 3c 9f b3 86 39 da 54 e3 3d
       0.1286113 0.012877211 0.000256923 0.111001685
000080 e4 34 f2 3d 76 0f 8a 3d a7 57 de 3d 16 5f b5 3d
       0.11826494 0.0674123 0.10856562 0.08856027
000090 75 de 1d bc 17 f4 dc bc 36 a3 35 3d 6b 36 16 bb
       -0.009635557 -0.02697186 0.044345103 -0.002292062
0000a0 8a b3 47 bc 49 bf 97 3d f0 08 fb 3c f1 8a d5 3c
       -0.012188802 0.074095316 0.03064391 0.026067229
0000b0 57 ef 2e 3d c3 6c 01 3e 2c 13 ea 3d 5b 86 83 3c
       0.04270872 0.12639146 0.11429438 0.016055277
0000c0 92 27 28 bc 61 22 cc 3d 8f 02 57 3d 5c eb cf 3c
       -0.010263341 0.09967495 0.052492674 0.025380783
0000d0 9b af d7 3d 63 42 8d 3c ba 6b 2c 3d 5e ab 9e 3b
       0.10531541 0.01724357 0.042094924 0.004842206
0000e0 66 d1 ca 3c 67 5f d0 3d 2d c9 26 3c 25 ec 19 3e
       0.024758052 0.101744466 0.0101798 0.15031488
0000f0 1d 37 c0 3d 9c b2 a8 3c fc f2 1f 3d 8f 66 84 3d
       0.09385512 0.02059298 0.039050087 0.06464874
000100 ed 0c a0 3d 88 79 aa 3d 00 28 f7 3d 66 cd 2e 3d
       0.078149654 0.083239615 0.12068176 0.042676352
000110 b6 79 04 3e 01 02 31 3d 2f 22 bd 3d bf 49 9d 3d
       0.12937054 0.0432148 0.09235036 0.076800816
000120 7c e7 08 3e f0 69 aa 39 c3 fd 87 3b 50 9a 07 3e
       0.13369554 0.00032503856 0.004150124 0.1324246
000130 92 e2 57 3c 31 68 29 3c 74 a8 c9 3d b4 db d4 3c
       0.013176577 0.010339783 0.09846583 0.025983669
000140 e1 31 28 bb c9 05 e1 3d fc fe 00 3e 23 5c a2 3c
       -0.0025664496 0.109874316 0.12597269 0.019819325
000150 74 18 db 3d f3 cf 9c 3d 35 d6 a7 3d 52 d9 fa 3c
       0.106980234 0.07656851 0.081951536 0.030621205
000160 bb 4e b0 3d da c7 e1 3d 17 9f 4c 3d 4d b9 0f 3e
       0.08608767 0.11024447 0.049956407 0.1403553
000170 fc 62 bf 3d ad ab f3 3d c5 6d 00 3e a3 22 0d 3e
       0.09345052 0.11897979 0.12541874 0.13782744
000180 61 5e 62 3d 4a ee 1c 3d d1 e3 ec 3b b4 d0 de bb
       0.055265788 0.038313188 0.0072293063 -0.0067997817
000190 fb b5 56 3d 10 ac d3 3d 9f a8 44 3d 68 08 f9 bb
       0.052419644 0.10335553 0.048012372 -0.007599879
0001a0 3b 31 bd 3d 79 a2 cc 3d 9b ac 74 3c a2 23 2e bc
       0.092379056 0.09991927 0.0149337305 -0.010628613
0001b0 03 b0 ed 3d e1 8b a1 bb a8 c5 7d 3d e4 82 1a 3d
       0.11605837 -0.004930005 0.061956078 0.037722483
0001c0 b7 73 ca 3d 85 8c ac 3d 5c ac ec 3d 26 ae 11 3d
       0.09885352 0.084252395 0.115563124 0.03556647
0001d0 73 85 22 bc 1e 3d c5 3d 54 75 e9 bc 83 da e9 3d
       -0.009919512 0.09630798 -0.02849833 0.11418631
0001e0 39 2b c2 3c 5b 8c 63 bd 9d 35 d3 3c f9 cf 1f bd
       0.02370225 -0.055553775 0.0257824 -0.039016698
0001f0 f2 b8 b2 bc e8 9c 6f bc 45 bb 79 3d 9e 99 bf bc
       -0.021816704 -0.014624812 0.06096961 -0.02338868
000200 83 70 0f 3e 13 47 db 3c c6 1a 9b 3c 34 05 bf 3d
       0.14007764 0.02676729 0.018933665 0.09327164
000210 5f ff d4 3d 21 b6 2d 3d 0b 19 ab 3d bd db bc 3d
       0.10400271 0.04241002 0.08354386 0.09221599
000220 31 0b 2e 3d fa 38 1d bc 71 2b 06 3e 5c df ae 3d
       0.04249114 -0.009596104 0.13102509 0.08538696
000230 34 48 f7 3c a5 50 d2 3d 6c 57 28 3d 1d 08 05 3d
       0.030185796 0.10269288 0.041098997 0.03247844
000240 0f 28 e4 3d be 01 15 3d 0e 31 28 3d 1d f6 5d 3d
       0.11140453 0.036378615 0.041062407 0.05418979
000250 c8 93 1c 3e 80 95 aa 3d 51 3a e5 3d 6e 34 15 3e
       0.15290749 0.08329296 0.111927636 0.14570782
000260 0e 79 0a 3e 9f 7f 11 3d 14 11 0e 3d 84 1c 00 3d
       0.13522741 0.0355221 0.034684256 0.031277195
000270 eb 1f e1 3d b6 42 44 3c 3b 54 fa 3b ca 8f 06 3e
       0.10992416 0.011978796 0.0076394356 0.13140789
000280 18 9c 0c 3e fc 7e 73 3c 8e dc dc 3c c5 3e 8e 3d
       0.1373142 0.014861818 0.026960637 0.06945566
000290 15 1b 9d 3d c6 9a 79 3c b6 81 44 3c 7c af 1e 3e
       0.07671181 0.015234655 0.011993816 0.1549663
0002a0 5b 61 df 3d 6c 21 ca 3d 9c c1 a4 3d 79 00 a7 3d
       0.10907241 0.09869656 0.080447406 0.08154387
0002b0 85 8b a8 3d 06 5e cd 3d 48 c9 f8 3d 75 ad bc ba
       0.08229736 0.10027699 0.12147766 -0.0014394956
0002c0 61 b0 bc 3d 4b 20 1e 3e a9 ab f9 3d e1 35 0e 3e
       0.09213329 0.15442006 0.12190945 0.1388774
0002d0 89 e0 94 3d 98 4f 3e 3d dc 9a c1 3d 7d 1f 62 3d
       0.07269389 0.046462625 0.09453365 0.05520581
0002e0 94 2e 28 3d fd 77 3d 3c 78 fe 03 3e 17 f7 a1 39
       0.041060045 0.011564252 0.12890041 0.0003089241
0002f0 fd 17 46 3d 0b cb d9 3d 37 c4 ea 3c b3 25 53 3d
       0.04836272 0.106344305 0.028658016 0.051549625
000300 2d 7f cc 3d 25 ff c6 3c e2 26 c0 3c 4f 11 cc b9
       0.09985194 0.024291584 0.02345604 -0.00038922808
000310 2b ac c2 3b e4 04 b4 3c 0d f3 32 3c 80 95 97 3c
       0.005940934 0.021974988 0.010922206 0.018503904
000320 1d 12 f6 3d d6 b1 22 3c f4 fb 25 3e 82 e4 1b 3e
       0.120151736 0.009930095 0.16209394 0.15223888
000330 8d d3 f1 3d 04 b1 d3 3c 75 f1 cb 3d 56 36 ad 3b
       0.11807928 0.025841244 0.09958164 0.0052860184
000340 8b 11 3a 3d 03 d5 07 3e 95 c3 d8 3d 2d ec 6f 3d
       0.045426887 0.13264851 0.10584179 0.058574844
000350 3e 4f f9 3d a3 6d 77 3c 38 68 56 3d 16 67 1e 3e
       0.121733174 0.015101823 0.052345484 0.15469012
000360 c5 77 bf 3d 56 d3 12 3e 7b fa a5 3d a2 a5 d5 3d
       0.09349016 0.14338431 0.08104416 0.104319826
000370 16 fa 1f 3e 13 34 cd 3d ce b2 e3 3d 11 ea 0d 3e
       0.15622744 0.10019698 0.11118089 0.1385882
000380 2d 18 c2 3c 3e cd f8 3b 95 ee 85 3c b0 2e 01 3e
       0.023693169 0.007592826 0.016349116 0.12615466
000390 fa 0d 84 3b a8 d8 3a 3d 9f 71 01 3e 67 95 fe 3d
       0.0040299864 0.045616776 0.12641 0.1243084
0003a0 b9 b8 88 3d 93 b5 da 3c 2a f3 8c 3c 0c 62 2f 3d
       0.06675858 0.02669791 0.017205793 0.042818114
0003b0 d9 27 4f 3d a5 d8 9f 3d 06 b3 03 3e d0 b5 92 3d
       0.05057511 0.078049935 0.12861261 0.07163584
0003c0 93 60 f2 3c 17 b2 2e 3c 07 48 5e bb 79 a3 95 3b
       0.029587066 0.010662577 -0.0033917443 0.0045666066
0003d0 9c 4e 18 3e d2 63 f9 3d 9f d4 72 3d aa de 12 3d
       0.14873737 0.12177242 0.059284803 0.03585688
0003e0 03 30 1d 3e 54 34 04 3e 2d 70 57 39 06 83 22 3d
       0.15350346 0.12910587 0.00020545787 0.039675735
0003f0 9a d1 ee b9 a9 9f 0d 3e bd d9 03 3e 93 e1 ee 3d
       -0.00045551063 0.13830437 0.1287603 0.116641186

conv5_1.0.bias f4 [16]
000000 2c ff 2b bd 97 9d 5d bd a6 3f 66 3e 26 98 13 bd
       -0.041991398 -0.054105368 0.22485217 -0.036033772
000010 77 51 1b bd 41 58 4a 3e 31 e1 20 bd 6a 3a d9 bc
       -0.037919488 0.19760229 -0.03927726 -0.026517112
000020 8d 63 2d bd ab 5b 21 bd b4 ee af bc 31 2f 25 bd
       -0.042331267 -0.039394062 -0.021476127 -0.04032821
000030 a0 41 41 bd 3c 19 3c 3a 6b 39 49 3e eb 4a 68 bd
       -0.047181726 0.0007175391 0.1965081 -0.056712072

lstm_1.weight_ih f4 [128, 16]
000000 9c 2d 93 bb 3b 22 d7 ba 35 25 db 3b 05 07 6d 3e
       -0.004491521 -0.00164134 0.006687785 0.23147209
000010 ee 35 18 bd 1c 1e 82 bd 30 94 8b 3d 91 56 e3 3d
       -0.037160806 -0.06353399 0.06815374 0.111004956
000020 8f 77 c8 3d 82 3a 02 3d 5f 35 05 3e 33 94 aa 3d
       0.09788429 0.03179408 0.1300864 0.08329048
000030 28 83 4e 3d 58 a2 78 3e 71 c4 e1 3c 1d 03 e8 bb
       0.05041805 0.24280679 0.02755949 -0.0070804493
000040 c5 96 50 3d 0d c4 62 3e 17 f9 80 3e 2b bd 47 3e
       0.050925035 0.221451 0.2519004 0.19505756
000050 96 7b 27 3e 5d 74 26 3e bd c4 26 3e c2 21 65 3d
       0.16355738 0.16255327 0.16285987 0.055940397
000060 c4 a7 1a 3e 02 a0 89 3e f1 81 87 3e c0 cc 57 3e
       0.1510306 0.2687989 0.26466325 0.210742
000070 b8 98 3a 3e b5 e9 47 3e b2 0d 38 3e d2 a8 28 3d
       0.1822232 0.19522746 0.17973974 0.041176625
000080 70 69 a4 3d cf 3b 9f 3d b7 51 bd 3d 82 b3 ac bd
       0.08027923 0.077750795 0.092441015 -0.08432676
000090 5d 11 f2 3d 51 7e 84 3e bb 88 b6 bd d8 e8 57 3e
       0.11819718 0.25877622 -0.08912798 0.21084917
0000a0 23 60 07 3e 27 66 c9 3d 1b 55 01 3e b8 75 37 3d
       0.13220267 0.09833937 0.12630121 0.04479
0000b0 d2 3d 17 3e 14 38 43 3e 20 fd 21 3e 76 a5 27 bd
       0.14769676 0.19064361 0.15819216 -0.04092928
0000c0 d6 f6 5d 3d 41 70 d9 3d 41 34 43 3e 7d 39 5c bc
       0.05419048 0.10617114 0.19062902 -0.013441441
0000d0 3f aa 2a 3e e5 dc 9d bb ee 69 af 3c 7a 13 29 bd
       0.16666506 -0.0048175924 0.021412816 -0.04127834
0000e0 3f d5 1a 3d 9f de 34 bd 95 63 68 3e 6e 40 2c 3e
       0.037801024 -0.04415762 0.22694238 0.16821453
0000f0 28 8a d1 3d 85 68 6e 3d f6 c8 31 3e c3 cb 03 3e
       0.10231429 0.058205146 0.17361817 0.12870698
000100 a7 99 07 3d 09 15 89 3e 25 4c c2 3a 81 ea cc 3d
       0.03310552 0.2677386 0.0014823718 0.100056656
000110 97 0f 9d 3d 4b 14 f3 3d 5d 0a 87 3e 04 98 29 bd
       0.07668989 0.11869105 0.26375094 -0.04140474
000120 85 00 16 3e f5 a8 82 3e 95 be ab 3d c9 a5 23 3d
       0.14648636 0.2551953 0.0838596 0.039953027
000130 df 45 a3 ba ac 21 e3 3d cb 2b 20 3d 60 88 08 bd
       -0.0012456736 0.11090407 0.039104264 -0.033333182
000140 e1 53 b7 bd 4d b7 fc 3c 42 0b 27 3e 56 2e be 3d
       -0.089515455 0.030849123 0.16312888 0.09286182
000150 d8 bb 85 3e 64 92 69 3d b5 0f 6c bc 42 b3 9c 3d
       0.26119876 0.057024375 -0.014408042 0.07651378
000160 58 5c 22 3d 93 10 e6 bc a3 71 66 3e 02 24 0b 3e
       0.039638847 -0.028084075 0.22504286 0.13587955
000170 34 43 5e 3e 65 1c 91 3d 42 ae a9 3e a6 8e 82 3e
       0.21705323 0.07085494 0.3314076 0.25499457
000180 c2 e3 cc bb b8 6f 01 3e 98 f5 24 3e 72 2b 58 bd
       -0.006252737 0.12640274 0.16109312 -0.052775808
000190 75 80 d6 3d 79 ff 09 3e 3b f8 0e 3c 03 f0 5e 3e
       0.1047372 0.13476361 0.008726175 0.21771245
0001a0 89 09 5d 3b a2 5c 02 3d ea b2 00 bd 9f ea b2 3d
       0.0033727607 0.031826623 -0.031420626 0.08736157
0001b0 58 6d 66 3e a4 b3 34 bd 08 e3 9d 3e d9 2e 7a 3d
       0.22502649 -0.04411663 0.30837274 0.061079834
0001c0 8e dc b0 3c 18 a3 1f 3e b0 0a 8c 3e 48 4a 49 3e
       0.021589544 0.15589559 0.27351904 0.19657242
0001d0 97 9a 36 3e b4 45 49 3d ed 78 b6 bb c9 b3 59 3e
       0.17832409 0.04913874 -0.0055686147 0.21259989
0001e0 1c da c2 3d 75 96 99 3e 17 67 9f 3e 5f b0 3b 3e
       0.09514257 0.29997602 0.3113334 0.18328999
0001f0 bc 74 13 3e c0 0a ef 3c e5 f4 b1 3e fe bc 50 bd
       0.144 0.02917993 0.34757152 -0.050961487
000200 90 28 28 bd 63 d9 3d 3e 28 2f 6d 3e 29 16 ef bc
       -0.04105431 0.18539958 0.2316252 -0.029185371
000210 08 2a 8b bd 59 cb ca 3d cd e7 a2 bc 4e ad 73 3e
       -0.06795126 0.09902067 -0.019885922 0.23796579
000220 15 43 79 bd 12 7d 63 3c f4 9b 7a 3e b1 98 14 3e
       -0.06085499 0.0138848 0.24473554 0.14511372
000230 5c 2b 59 3e be ac 12 3e 17 67 91 3e 43 8a b6 bc
       0.21207947 0.14323708 0.28398964 -0.022282725
000240 9c 9f a9 3d bd 6e 76 3e c1 f3 7f 3e 09 68 5b 3e
       0.08282396 0.24065681 0.24995328 0.21426405
000250 9d 51 80 3e eb ab 13 3e 5c 01 94 3d 96 b8 31 bd
       0.25062266 0.1442105 0.07226822 -0.043388925
000260 3e 8c 61 bd 07 e3 07 3e ee 29 dc 3d 0b f3 37 bd
       -0.055065386 0.13270198 0.10750185 -0.04490952
000270 dd 8f 1d bd b9 34 10 3d 53 75 88 3c 8f ca 23 3e
       -0.038467277 0.03520653 0.016657507 0.15995239
000280 74 b9 0e bd b6 b0 4e 3d e1 af 82 3e e9 a8 28 3d
       -0.03484483 0.050461493 0.2552481 0.04117671
000290 40 be 22 3e aa e1 0e bc a6 b7 e7 3c 26 3b d5 3d
       0.15892887 -0.008720795 0.028285813 0.10411672
0002a0 58 a9 36 3e 97 1c ef 3b a8 39 bc 39 b5 0e 53 3e
       0.17838037 0.0072971093 0.00035901112 0.20611079
0002b0 da 7d 4a 3e 70 da a0 3d 99 30 38 3e 90 f8 fe 3d
       0.19774571 0.07854164 0.17987289 0.12449753
0002c0 1f 04 0f 3e 34 12 80 3e 9d 6c a2 ba c2 dc 8b bd
       0.13966416 0.25013888 -0.0012391988 -0.068292156
0002d0 07 72 9e bc f5 3a e8 bc 73 86 83 3e 61 88 1b 3e
       -0.019341482 -0.028348425 0.25688514 0.15188743
0002e0 d0 55 a6 bd 8b 16 85 3e 2d 00 07 3e e3 5b ee 3c
       -0.08121836 0.2599376 0.13183661 0.02909655
0002f0 e1 b8 db 3c e3 a5 54 3d ae cc 1f 3e 76 95 0a 3e
       0.026821556 0.051916014 0.15605423 0.13533577
000300 00 10 6d 3e aa 93 2c 3e 10 b6 89 bd 2a 8d 04 3e
       0.23150635 0.16853204 -0.06724179 0.12944475
000310 ba 90 53 3e 7a 5e 55 bd ff 6f 02 bd a3 20 da 3b
       0.20660678 -0.052092053 -0.03184509 0.0066567226
000320 b5 0a 2c 3e 87 e9 81 3e 11 a6 dc bc 73 98 fe 3d
       0.1680096 0.2537348 -0.026934655 0.12431421
000330 1e 9a 55 3d b3 a4 03 3e 70 84 04 3e 85 8f af 3d
       0.05214893 0.12855797 0.12941146 0.08572296
000340 53 ec db 3c 4c b5 da 3d 49 72 e6 3c 4c 15 4e 3e
       0.026846087 0.10679111 0.028130667 0.20125312
000350 3e d3 7a 3e d2 5d 98 3d 2e 35 40 3e c1 20 48 3e
       0.24494645 0.0743977 0.18770286 0.19543745
000360 87 09 17 bd c7 eb 83 3e 9c 9b 0c 3d 38 a5 4c 3e
       -0.03687432 0.2576582 0.03432809 0.19984901
000370 0d 5e 7d 3e a3 80 59 3e de 2a ef 3d 0d 39 05 3d
       0.24742909 0.21240477 0.11678098 0.03252511
000380 0e fa 92 3d 14 fd be bc 11 a1 89 3d 42 e4 80 bd
       0.071766004 -0.023314036 0.06720174 -0.06293537
000390 20 f4 6c 3e c1 9b 1d 3e 61 94 84 3e 17 c1 70 3e
       0.23140001 0.15391447 0.25894454 0.23511158
0003a0 f5 ee d9 3a b3 bc 21 bd 75 59 76 bd ab e0 6f 3e
       0.0016627001 -0.0394866 -0.060143907 0.23425548
0003b0 06 a7 94 bd f0 dc 2a 3e 2e 0f 3f 3d 3b cb 16 3e
       -0.0725842 0.16685843 0.046645336 0.14725964
0003c0 35 aa a6 3d 9b 08 90 3e d2 a9 98 3e 10 1f 01 3e
       0.08137933 0.28131565 0.29817063 0.12609506
0003d0 44 6a bf 3d 81 79 98 3e 08 0b 3a 3e d8 ec 73 3e
       0.093464404 0.297802 0.1816827 0.23820817
0003e0 14 6b 9b 3b 30 17 d3 bc 6d 6c d7 3d 5f 93 20 bc
       0.0047429893 -0.025767893 0.105187275 -0.009800761
0003f0 c1 be 8d 3e 7d 8b 05 3e ea ef 15 3e a1 f1 7a 3d
       0.27684596 0.13041492 0.14642301 0.06126559
