pytorch_models/TD3_kivy-car_41_147_actor.pth (torch_old, 115453 bytes, 40 tensors)

conv1.0.weight f4 [16, 1, 3, 3]
000000 81 79 cb bd 3f 4e d8 bd 05 7d f2 3d c3 a6 0f be
       -0.099352844 -0.10561799 0.11840252 -0.14028458
000010 af 5c a9 bd 0f 59 ce 3d 0f 1e 2a be 57 44 ad 3d
       -0.08269631 0.1007558 -0.16613029 0.084603004
000020 85 f0 f7 3d fa ec da 3c 64 cb 04 3c 60 22 67 3d
       0.12106422 0.026724327 0.008105133 0.056429267
000030 cd 4b 2d 3e fe 5f 0b b9 51 8e 21 be ff 1b 64 3e
       0.16923447 -0.00013291833 -0.15776946 0.22276305
000040 3d e7 25 3e 5b cd 58 ba 1e ac e9 bd 39 1e 66 bd
       0.16201492 -0.00082703464 -0.11409782 -0.056181166
000050 f1 e5 56 be 7e b6 0f 3e c7 48 c1 39 34 3a 17 3e
       -0.20986153 0.14034459 0.00036866052 0.14768296
000060 db d1 5f 3d 8a 19 4a bc a2 e1 07 be 05 ba 43 3d
       0.054643493 -0.012335191 -0.13269666 0.047784824
000070 7f a6 0a be 42 51 d6 bc b5 0d f2 3d 10 c6 da bd
       -0.13540076 -0.026161794 0.11819021 -0.10682309
000080 72 d5 16 bc b7 dd 4f bc ae b8 8b bb bf 9c 71 3e
       -0.009206163 -0.012687138 -0.004263959 0.2359495
000090 9c 06 ec 3d 8a 31 5a bd 85 9e 57 3e 76 8f 24 bd
       0.11524698 -0.0532699 0.21056564 -0.040175878
0000a0 2b 7e 82 3d 71 75 83 3d e4 28 1b ba f3 a8 66 be
       0.06371721 0.064188845 -0.0005918874 -0.22525387
0000b0 d9 f5 69 3e 4a 68 9e bc b3 c3 13 3e ff 3a f7 bd
       0.2284769 -0.019336838 0.14430122 -0.120717995
0000c0 17 46 28 bb 01 c0 4d 3e d2 54 52 be bd 67 a0 ba
       -0.0025676542 0.20092775 -0.20540169 -0.0012237948
0000d0 7e d6 5d bb 59 22 4e be be ad 45 bc 13 05 62 be
       -0.003384977 -0.2013029 -0.012065349 -0.22072248
0000e0 1a 37 71 3c a5 96 c1 3b 73 50 e4 3d d9 47 91 3a
       0.01472261 0.005907851 0.11148157 0.0011084034
0000f0 a1 b3 7b bd 3e 8a 49 bd 73 60 57 bd 9d ee 33 3e
       -0.061450604 -0.049204104 -0.052582216 0.17571492
000100 cc b2 1d 3d b2 c6 7c be 60 84 f3 3b 27 ba 53 bb
       0.038500592 -0.24685171 0.007431552 -0.0032307
000110 3c 5b 24 3e 55 51 08 bd ea 7c 53 3e b5 cd 13 3d
       0.16050428 -0.03328069 0.2065312 0.03608485
000120 9f 16 5c be dd e9 e8 3c 75 b9 6b bc 12 bd c4 3d
       -0.21493004 0.028431827 -0.014387478 0.09606375
000130 46 27 4e be 59 02 1f 3c 18 2c 13 3e e0 a8 69 3d
       -0.20132169 0.00970515 0.14372289 0.057045817
000140 fe aa b0 3d 9f c8 4a 3e fa 85 7f 3d 00 90 22 3d
       0.08626364 0.19803093 0.06238363 0.03968811
000150 a4 37 52 3c 16 1b 8d 39 93 02 53 3e 8d 81 8e bc
       0.012830649 0.00026913796 0.2060645 -0.017395759
000160 c2 09 a4 3b ef 63 25 3b c1 a3 d7 bc d6 a1 25 3e
       0.005006046 0.0025236567 -0.026323201 0.16175017
000170 84 a2 65 3b f5 f9 4b be b6 50 14 3e cf a1 23 bd
       0.0035039494 -0.1991957 0.14483914 -0.039949235
000180 44 8c c4 39 f8 cb 5e be 4b 72 76 3d f6 c2 16 be
       0.0003748854 -0.21757495 0.060167592 -0.14722809
000190 45 f8 65 bb 9d 6d 4e 3e 81 23 96 3c ca 50 46 3e
       -0.0035090607 0.20159002 0.018327476 0.19366756
0001a0 e6 3f d2 bd ab cd 66 be 0a 13 3c be a6 20 37 bd
       -0.10266094 -0.22539394 -0.18366638 -0.04470887
0001b0 72 b6 02 bd ff 38 36 3c 1f 61 ed 3d 92 a0 55 3e
       -0.031912275 0.011121987 0.1159079 0.20862034
0001c0 00 d9 74 be 94 fd e3 bd 53 52 51 3e 37 a4 78 bb
       -0.23910904 -0.111323506 0.2044156 -0.0037939677
0001d0 94 bc e8 bc 73 e7 78 be 3e 83 1c bc 5e 90 59 be
       -0.028410234 -0.24307041 -0.009552775 -0.21246478
0001e0 ab 9a 4a 3e b4 82 a0 bd 05 73 19 bd 8a d4 29 3c
       0.19785564 -0.0783743 -0.037463207 0.010365615
0001f0 e9 91 98 3d b5 cd 52 3e 84 7b f1 bb a6 1c 2a be
       0.07449705 0.20586284 -0.0073694605 -0.16612491
000200 76 cf 53 3e 03 20 66 bc 52 51 4f 3d 3d 7b 2d be
       0.20684609 -0.014045718 0.050614662 -0.16941543
000210 fe dd 07 be 89 2c 42 ba 0d 66 2b bd 7d 7e 15 ba
       -0.13268277 -0.0007407149 -0.04184537 -0.0005702747
000220 f4 4d 5d 3d e0 9f 1b 3a df 41 8e bd 6f be c7 3a
       0.05402942 0.0005936604 -0.06946158 0.0015239249
000230 7b c3 32 3e 35 ab 54 3e b7 c9 46 3e 03 9b 0e 3e
       0.17457382 0.20768435 0.19412886 0.1392632

conv1.0.bias f4 [16]
000000 72 ab d5 3d f2 e4 7a 3e 87 57 66 be cc bb 54 be
       0.10433091 0.24501398 -0.22494327 -0.20774764
000010 20 ff f3 3d ee ec 70 3e c8 5d 1d be ae f7 96 3d
       0.119138956 0.23527882 -0.15367806 0.0737146
000020 1f d0 c2 bd ce 55 0e bc 91 64 6c 3e b4 42 ef bd
       -0.09512352 -0.00868745 0.23085238 -0.116826445
000030 67 7a ab 3d 77 e4 25 3e 75 9e ad 3d 09 48 15 be
       0.08372956 0.16200434 0.08477489 -0.1457826

conv1.1.weight f4 [16]
000000 03 d8 68 3f fb da 68 3f b1 d9 68 3f 1e db 68 3f
       0.9095461 0.9095914 0.9095717 0.90959346
000010 76 d8 68 3f ec d7 68 3f 70 dc 68 3f 70 df 68 3f
       0.90955293 0.9095447 0.9096136 0.9096594
000020 5b dc 68 3f c4 d8 68 3f 84 da 68 3f 3a db 68 3f
       0.90961236 0.9095576 0.9095843 0.90959513
000030 9d db 68 3f 80 de 68 3f ca dc 68 3f 63 da 68 3f
       0.90960103 0.9096451 0.909619 0.9095823

conv1.1.bias f4 [16]
000000 d2 c4 1d bb bb c2 3c ba 38 ff ce b8 3a 61 18 ba
       -0.0024073613 -0.0007200648 -9.870384e-05 -0.0005812828
000010 4a 03 3f ba 09 32 94 39 bd 76 48 b9 33 5d 04 ba
       -0.0007286562 0.0002826604 -0.0001911772 -0.0005049288
000020 3f e1 80 3a cb 02 75 ba 65 16 df 3a 75 8d 1f 3a
       0.0009832754 -0.00093464245 0.0017020224 0.00060864474
000030 ad 2d 0c 3b 52 f8 5c bb 85 8b be 39 e0 4b 09 ba
       0.002138953 -0.0033717346 0.00036343574 -0.00052374415

conv1.1.running_mean f4 [16]
000000 26 a6 c7 3c 46 bb f7 3e de de 9e be b5 31 1d be
       0.024371218 0.48385066 -0.3102941 -0.15350993
000010 16 7b 97 3e 0f 12 06 3e 5b f2 8f be 5b 42 7a 3e
       0.29586095 0.13092826 -0.2811459 0.24439375
000020 97 7d c6 bd 6e e3 75 3e 55 4b 32 3e d2 0b 86 be
       -0.09691923 0.24012539 0.1741155 -0.26180893
000030 59 0d 11 3e 55 fd fd 3d 1d 3e 56 bd 81 c7 50 3e
       0.14165248 0.12401835 -0.05230533 0.20388605

conv1.1.running_var f4 [16]
000000 87 d5 34 3c 75 da 56 3d fb 92 1f 3c 50 bb 68 3b
       0.011037237 0.05245443 0.009739633 0.0035512038
000010 a3 ac ed 3c 23 91 32 3c 5f 9b 73 3c 90 94 d5 3c
       0.029012984 0.010898861 0.014868586 0.026071817
000020 08 1f af 3a d3 96 61 3d 4a 70 96 3b ed c8 ab 3c
       0.0013360688 0.055075478 0.0045910226 0.020969832
000030 5c dc e1 3b 71 aa cb 3b 2f f5 88 3c 8f 4c db 3d
       0.006892724 0.0062153866 0.016718475 0.10707962

conv2.0.weight f4 [16, 16, 3, 3]
000000 44 bb a0 bb fc 59 97 bc 2e fa f1 bb 14 77 69 bc
       -0.0049051363 -0.018475525 -0.00738456 -0.014249582
000010 a3 4f ee 3b 23 4c 7d bb 01 d0 1c 3c 7f db ba 3b
       0.007272677 -0.0038650117 0.009571076 0.0057024355
000020 de b9 1d bb 0e 4d d4 3c 15 50 4a bc f2 51 2a 3a
       -0.0024067084 0.025915649 -0.012348195 0.0006497196
000030 e7 79 40 ba ba f0 de ba c0 e4 99 bb 9b fe 72 bc
       -0.00073423836 -0.0017008998 -0.0046964586 -0.0148312105
000040 a5 f6 ca 3b d8 c0 94 3c 4d a8 46 3b 46 31 12 3b
       0.006193953 0.018158361 0.0030312717 0.0022307201
000050 ac bc cf bb 07 db ee ba db 45 90 bc 5e 7c 98 ba
       -0.00633963 -0.0018223234 -0.017611435 -0.0011633744
000060 ec b9 ab 3b 89 da 08 3b f7 d4 47 3c 1b 00 98 bc
       0.0052406695 0.002088221 0.012196771 -0.018554738
000070 4c 90 d1 bc 65 f9 3e 3b 1d b2 9d 3c 26 5e da bb
       -0.025581501 0.002914035 0.01924997 -0.0066640554
000080 e5 98 8a ba 6e 23 c4 ba e6 66 33 ba 66 04 fd ba
       -0.001057413 -0.0014964172 -0.0006843641 -0.0019303679
000090 e0 7e 98 bc 30 44 a0 3b 6a b9 e5 3b 15 92 5b bb
       -0.018615186 0.004890941 0.0070106285 -0.003350382
0000a0 06 b9 4c bc 13 2f 09 bc 06 bd f8 bb b6 27 6a 3c
       -0.012495285 -0.00837304 -0.0075908927 0.014291694
0000b0 e9 91 0c bb 77 52 0d 3c ed 67 c3 bb af c6 bd ba
       -0.0021449274 0.008625618 -0.0059633167 -0.0014478768
0000c0 b9 98 62 bb 5c 9a c7 3b 47 2a 21 3c a3 c8 74 bc
       -0.0034575893 0.006091399 0.00983674 -0.014940414
0000d0 1a 71 6d bc 82 a1 dd bb ed 44 02 bb 95 34 02 bb
       -0.014492298 -0.006763638 -0.0019877509 -0.0019867767
0000e0 de 46 9b bc 39 e5 33 ba 49 84 06 3c a9 f1 76 bc
       -0.01895469 -0.0006862465 0.00821025 -0.015072265
0000f0 1b 0f 4f 3a cb 7f 03 bc 13 3e 4b 3b be e1 9a ba
       0.0007898674 -0.008026074 0.003101234 -0.0011816544
000100 fe bc 63 3c d0 70 0a 3c 63 d8 6c bc b2 73 97 3c
       0.01390004 0.008449748 -0.0144558875 0.018487785
000110 b7 43 b0 bc 04 1c c5 ba 0c e3 37 3b ea 22 45 b8
       -0.021516664 -0.0015038257 0.0028058914 -4.7000976e-05
000120 64 e7 9a bc b6 6a c0 bb 3f 3b cf bb 6a b6 9c bb
       -0.018909164 -0.005872096 -0.0063242014 -0.0047824876
000130 b5 ee b0 bc 68 c9 59 bc 4f e1 9a 3c bd cb 4d 3b
       -0.0215982 -0.013292648 0.018906264 0.0031401955
000140 4a 64 bc bb 13 02 e7 bb 1a 90 83 bb 5d 7d 2c 3b
       -0.00574926 -0.007049808 -0.004014981 0.002631984
000150 65 65 e4 3a 9c ea 0d bc 04 be b8 bc 83 46 3d bb
       0.0017425237 -0.008661892 -0.022551544 -0.002888114
000160 59 ce 72 bb 8c 80 7f 3a d2 1b 87 bb 20 56 0b bc
       -0.0037049262 0.0009746633 -0.0041231895 -0.0085044205
000170 85 b9 30 bb e1 5c 30 bc d2 a7 ae bc 9a b8 42 3b
       -0.0026966047 -0.010764332 -0.021320257 0.0029712082
000180 88 d4 95 3b 8a 86 50 bc 76 1f 33 3b 5b 23 e0 bb
       0.004572455 -0.012727389 0.0027331985 -0.006840152
000190 f0 1b b4 ba 6e a9 48 bc b7 d3 4d bc ca 56 8a bc
       -0.0013741236 -0.012247426 -0.012562684 -0.016887087
0001a0 be 55 7d 39 39 d0 25 bc a5 66 c8 3a f8 a8 7a 3b
       0.00024159902 -0.010120445 0.001528938 0.0038247686
0001b0 6e 1f d7 ba 4a 11 38 3c 6b c4 e6 3b 88 fd 66 39
       -0.0016412565 0.011234591 0.007042458 0.00022028957
0001c0 ef 1c 16 bc fe d7 78 bb fb 84 19 3b ca bc d6 bb
       -0.009162172 -0.0037970538 0.002342521 -0.006553267
0001d0 56 52 f4 bb a2 79 30 3c 63 03 0e bc 59 fa 84 bb
       -0.0074561043 0.010771187 -0.0086678 -0.004058164
0001e0 4a 76 5e bb 47 e9 6a bb 77 b5 8d 3c 4d b5 84 3c
       -0.0033945017 -0.003584461 0.017298443 0.016199732
0001f0 a2 91 3a bc f5 e2 b1 bb c3 c8 e8 ba 6b ee c5 ba
       -0.011387261 -0.0054286667 -0.0017760027 -0.0015100961
000200 a8 a1 9e bb b8 96 12 bb fd 67 da 3a 05 c3 e6 38
       -0.0048410483 -0.0022367667 0.0016663071 0.0001100358
000210 57 ef 86 3a 8c c5 51 bc 34 83 84 3a 20 c0 18 3c
       0.0010294718 -0.0128034465 0.0010109902 0.00932315
000220 42 1a e5 b9 2b 0b 06 3c 7c 32 e3 bb 56 dc 05 bb
       -0.00043697847 0.008181374 -0.0069335084 -0.002042552
000230 cd b6 3f 3c 27 fc 98 bb 93 ac 87 bb ae 84 1e bb
       0.011701298 -0.004668731 -0.0041404455 -0.002418797
000240 3e a3 b0 bc 4e 82 40 ba 11 a4 22 bc ca 8c fd ba
       -0.021562215 -0.00073436357 -0.009926812 -0.0019344327
000250 b7 29 62 bc 71 d6 17 bb a0 6f e0 bb 53 d5 ab 3c
       -0.013803891 -0.0023168589 -0.0068492442 0.020975744
000260 ab c3 20 bb ef ca 1e bc d6 a9 c0 3c a3 b8 01 bc
       -0.002453069 -0.009691938 0.023518484 -0.007917556
000270 ee 55 3e bb d5 4b 9e 3b 1c 01 a8 bc 51 03 6f bb
       -0.0029042917 0.004830817 -0.020508341 -0.0036470483
000280 4e 27 c0 3b 6d 12 ab 3c 79 3c fe bb a6 df 68 3c
       0.0058640605 0.02088281 -0.0077586737 0.014213478
000290 c3 f9 3b bc 9c 24 c0 ba c8 a1 fd 3b 8b 12 9d 3a
       -0.011473122 -0.0014659348 0.007740233 0.0011983676
0002a0 58 82 34 3c 20 e2 ad 3c 12 b8 85 bb f2 9f 8a bb
       0.0110174045 0.021225989 -0.004080781 -0.0042304927
0002b0 bb 9a 18 3c 7a dd c0 ba f7 d8 d8 bb 17 37 2e bb
       0.009314234 -0.0014714443 -0.006617661 -0.002658313
0002c0 37 13 d4 ba a9 09 30 3b 36 92 87 bb e7 af 77 3b
       -0.0016180043 0.0026861227 -0.0041373027 0.0037794055
0002d0 55 e9 d9 3b c4 b0 35 bc d0 25 1a bb fd fe a8 bc
       0.00665013 -0.0110895075 -0.0023521073 -0.0206294
0002e0 a9 e9 81 ba b2 33 7b ba 3a fd 9f 3c 4c 4f 4c bb
       -0.0009911555 -0.00095825933 0.019529928 -0.0031175194
0002f0 18 bb 9e ba 63 b7 d3 bb ee 8e a5 bc 34 4f a2 bc
       -0.0012110202 -0.0064610704 -0.020209756 -0.019813158
000300 ea da 46 bb e0 c3 06 3b 5c 69 93 bb e0 3e a6 3b
       -0.0030342885 0.0020563528 -0.004498644 0.0050734133
000310 7e b2 73 ba 73 47 e7 bb a8 23 c3 3b e2 dc de bb
       -0.0009296312 -0.007058078 0.0059551783 -0.0068012336
000320 36 c1 b4 3a a5 e6 9d 3c 0f 9f 02 3b f7 35 14 3b
       0.0013790492 0.019275019 0.0019931232 0.0022615173
000330 fc 98 a4 bb 16 e0 0a ba 36 e9 7e bc 99 17 76 3c
       -0.00502312 -0.00052976736 -0.0155585315 0.015020275
000340 16 9f 89 3b 23 ce 0c ba 10 06 69 bc ca 47 9d 3b
       0.0041998727 -0.0005371293 -0.014222637 0.0047998177
000350 52 6e 10 3b d0 45 f5 3b 92 a8 29 3a c4 96 47 bc
       0.0022038412 0.007485129 0.00064719573 -0.012181941
000360 71 ba b0 bc 8d c2 a7 3c 0d 03 eb 3a c0 e1 cc ba
       -0.021573277 0.020478511 0.0017929986 -0.0015631244
000370 f8 24 56 bc 66 5c 14 bc 27 c3 9b bc d9 af f4 3a
       -0.0130703375 -0.009055233 -0.019013954 0.0018668129
000380 e3 ce 95 bc 84 69 39 bb e0 13 0d 3c 7c f1 88 bc
       -0.018287128 -0.0028291652 0.008610696 -0.016716711
000390 51 5c 62 3c d6 65 ce bb bd 12 31 3b 92 8b f1 39
       0.013815955 -0.006298761 0.0027019226 0.0004607109
0003a0 17 b0 25 3a fe 73 a6 ba bd e3 1d bb 69 0b 81 bb
       0.000632049 -0.0012699363 -0.0024092041 -0.003938128
0003b0 6f 3c 9f 3c e8 66 6a 3b 18 8e ab 3c 94 4b 33 3c
       0.019437997 0.0035766903 0.020941779 0.010943312
0003c0 39 8f 8e 3a a9 09 8a 3c 12 83 04 bb 89 74 08 bb
       0.0010876424 0.01685031 -0.0020219726 -0.0020821413
0003d0 16 ee 68 39 d4 8b a5 3a 4d 14 83 bb 49 13 a5 3c
       0.00022213938 0.0012630173 -0.004000223 0.020150797
0003e0 e3 fb 1a bb ed 69 bc 3a ff 46 8e bb 56 26 f7 bb
       -0.0023648671 0.001437483 -0.0043419595 -0.007542412
0003f0 30 9b 78 3c a2 e2 ba 3b 96 58 a7 3c 92 ae 52 ba
       0.015173718 0.0057032863 0.020427983 -0.0008036877

conv2.0.bias f4 [16]
000000 bb 88 1c 37 09 e1 7e b9 49 3a fa 36 24 1f 49 3c
       9.33016e-06 -0.0002430716 7.457366e-06 0.012275491
000010 25 4c e3 bb 8e 73 17 bc 2b 2c d2 b8 b9 f7 f3 3a
       -0.0069365674 -0.009243859 -0.00010021807 0.0018613256
000020 8d a3 43 ba 06 02 6b 3b 3f 24 70 3c 2c 49 ab 3c
       -0.00074630306 0.003585936 0.014657079 0.020908915
000030 a0 c0 9f 3c 79 f4 d4 b3 01 20 26 bc e2 77 f7 3b
       0.01950103 -9.9164886e-08 -0.010139466 0.007552133

conv2.1.weight f4 [16]
000000 f6 da 68 3f 9d db 68 3f 7f e0 68 3f 11 d9 68 3f
       0.9095911 0.90960103 0.90967554 0.9095622
000010 52 da 68 3f 4d d8 68 3f a8 e4 68 3f 3a d7 68 3f
       0.9095813 0.9095505 0.909739 0.9095341
000020 aa d8 68 3f 8d d9 68 3f 18 da 68 3f 29 db 68 3f
       0.90955603 0.90956956 0.90957785 0.9095941
000030 7e d4 68 3f c1 da 68 3f d0 db 68 3f 9d dc 68 3f
       0.9094924 0.9095879 0.9096041 0.9096163

conv2.1.bias f4 [16]
000000 31 2b cb ba b6 f4 d7 39 a7 43 fd 39 92 88 bf ba
       -0.0015500543 0.0004119032 0.00048306325 -0.0014612845
000010 1b db 06 ba fc 36 5b 38 d5 1c 52 ba d7 e4 8e ba
       -0.00051443436 5.2264877e-05 -0.00080151606 -0.001090194
000020 19 2d 3f ba a0 ba cb 38 c9 f0 da ba 71 9b 30 38
       -0.0007292792 9.714556e-05 -0.001670384 4.2106436e-05
000030 7b 44 82 ba 55 6f 0a ba bf 6d 65 3a c2 62 40 3a
       -0.0009938622 -0.0005280872 0.000875201 0.0007338935

conv2.1.running_mean f4 [16]
000000 22 1b 05 be 25 70 90 bc c8 d1 42 bd 90 34 bc bb
       -0.12998632 -0.0176316 -0.047563344 -0.0057435706
000010 02 6f bd 3d b3 38 db 3c f7 24 63 bd 15 67 a0 bd
       0.09249689 0.026760435 -0.055455174 -0.07832161
000020 28 b5 61 3c 71 53 93 bd 97 8a c5 bd 42 98 1a 3d
       0.013776101 -0.071936496 -0.096455745 0.03774286
000030 26 75 e8 3c 54 5f 48 3d f7 3a 79 3c 37 e0 bb bd
       0.028376173 0.048919037 0.015211812 -0.09173625

conv2.1.running_var f4 [16]
000000 9a 5c 81 3b 87 b8 46 3b b0 97 10 3b a4 69 95 3a
       0.0039478065 0.003032239 0.002206307 0.0011399281
000010 e7 e7 af 3b 81 38 9b 3b db e2 39 3a 21 7c 32 3c
       0.005368221 0.0047369604 0.0007090994 0.010893852
000020 46 dd a5 3b c1 55 70 3b 47 f3 8d 3b ec 5a 42 3b
       0.0050617782 0.0036672207 0.0043319794 0.0029656244
000030 13 2b c4 3b 5f 5b ce 3b e5 7b 42 3b 6b ae dd 3a
       0.00598658 0.0062975134 0.0029675898 0.0016912943

conv3.0.weight f4 [16, 16, 3, 3]
000000 42 5c e8 3b a8 d2 8e 3c 7f e4 66 3b 0c 35 38 3c
       0.007091076 0.017434433 0.003523141 0.011243116
000010 f7 54 aa 3b 62 70 05 bc a7 64 05 ba a1 cc 0a bc
       0.005198117 -0.00814447 -0.0005088546 -0.008471639
000020 8b 97 37 3c fc 60 c3 3c 25 96 7e bc 43 b0 a1 3c
       0.011205564 0.023849957 -0.015538727 0.019737368
000030 53 81 b8 bc 67 59 a0 bb 34 43 87 3c 19 ac 6d bc
       -0.022522604 -0.00489347 0.016511537 -0.014506363
000040 ec b5 a0 ba db ed 1f bb 94 83 07 3c 44 c9 49 bc
       -0.0012261248 -0.0024403248 0.008271117 -0.012316052
000050 36 e9 7c bc 98 54 51 bb 49 24 d5 3b 8d 9a 86 bc
       -0.015436461 -0.003194129 0.0065045697 -0.016431117
000060 3f fc 70 3b be b2 30 3b 5e 35 82 3c 92 d8 e5 3b
       0.0036771444 0.0026962007 0.015894588 0.0070143426
000070 5a ba a5 bc 52 75 87 bb 5e 06 3a bc fd 70 05 bb
       -0.02023046 -0.0041338587 -0.011354057 -0.0020361536
000080 df 91 74 bb de 14 ef bb d9 a9 3b b9 1f 46 e6 3b
       -0.0037318391 -0.0072961887 -0.00017896983 0.007027402
000090 78 ef f1 bb af d4 8c b9 5a 68 b8 3b 3b 1d 45 bb
       -0.007383283 -0.00026861342 0.005627674 -0.0030077237
0000a0 e8 ac 04 3c 1e 5b 57 3a 4a 39 b3 b9 58 15 09 bc
       0.008097865 0.00082151766 -0.00034184224 -0.008366905
0000b0 9c 19 6b 3c 6f b8 e5 bb 82 e1 62 bb 0c 16 0c 3b
       0.0143493675 -0.0070105116 -0.0034619276 0.0021375446
0000c0 c5 0f 51 3b a5 aa 2c 3c ee 43 65 3b e5 19 67 3b
       0.0031900269 0.010538732 0.0034983116 0.0035263237
0000d0 a9 28 a6 3c f3 60 83 bc 3c a7 9c 3c 70 24 9d 3b
       0.02028306 -0.01603744 0.019122712 0.0047956035
0000e0 c2 d3 b9 bc 34 2f 99 3c 0d e2 58 3c f6 f2 9f bc
       -0.022683982 0.018699266 0.013237488 -0.019525032
0000f0 15 48 b4 bc 0a d4 cb 3b 3a 7d 43 3b f9 e5 6a bb
       -0.022007028 0.0062203454 0.002982928 -0.003584264
000100 49 f0 d4 ba 5d 85 02 bc 88 ab 6c bb 95 1a 8d 3c
       -0.0016245927 -0.007966367 -0.0036112983 0.01722459
000110 94 47 8e 3c 23 8c 43 3c ab 0e 42 bc f3 ff 8f 3c
       0.017368115 0.011935267 -0.011844317 0.0175781
000120 54 62 e2 3b 51 ad 82 3c af 72 1c 3b 08 89 33 ba
       0.0069086943 0.015951784 0.0023872068 -0.00068487274
000130 a7 4c 90 bc 5f 7e 90 3a 0d 96 4d bb 0d 46 a2 3c
       -0.017614676 0.001102399 -0.0031369955 0.019808793
000140 ed ad ee 3b 28 d7 7e bc e4 72 08 bb 3a 26 cb ba
       0.007283917 -0.015554227 -0.0020820433 -0.0015499063
000150 9f b1 92 ba bb 38 47 bc 1c 23 78 3a 08 bb 17 bb
       -0.0011191851 -0.012159522 0.0009465681 -0.002315225
000160 65 b4 86 bc d6 3a 5c bb 25 6e 8f 3c bb 41 fc 3a
       -0.01644344 -0.0033604405 0.017508576 0.0019245663
000170 7a 1a 97 ba d6 27 43 3c 80 b9 89 3b fc 3e 5b 3b
       -0.0011528276 0.011911353 0.0042030215 0.003345429
000180 b3 58 8e 3b 00 92 1c bb c0 15 36 ba b9 c7 99 39
       0.00434407 -0.0023890734 -0.000694599 0.0002933124
000190 71 4a 3f 3c 7e 7d 85 bb 51 f2 74 3c bd 7f 8b 3b
       0.011675463 -0.0040737977 0.014950351 0.004257171
0001a0 48 c6 30 bc 68 7d d3 ba e6 d0 fa b9 b1 11 46 bb
       -0.010789461 -0.0016135396 -0.00047839357 -0.0030222947
0001b0 be 2d 2c bb c8 60 ba bb 14 3f 48 bc 49 f3 67 39
       -0.0026272382 -0.0056878068 -0.01222207 0.00022120507
0001c0 a3 3b 0d 3b 24 97 76 bc f6 10 a4 bb 3c 43 7b b9
       0.0021550439 -0.015050683 -0.0050069047 -0.00023962272
0001d0 94 66 02 3b 63 2a da ba a0 68 b6 bb 88 a1 0a 3b
       0.0019897567 -0.0016644712 -0.0055666715 0.002115341
0001e0 e9 51 37 3b 9a 4a c0 3a 68 38 86 3a b5 18 f3 bb
       0.0027972406 0.001467067 0.0010240199 -0.007418717
0001f0 55 85 9c 3c de 16 8a bb 29 c1 a0 bc de b5 2e 3c
       0.019106546 -0.0042141518 -0.019623356 0.010663478
000200 4e 6c 93 bb 5a fd 42 bc 19 31 62 3b 79 ac 03 3c
       -0.004498995 -0.011901224 0.0034514128 0.008036726
000210 61 90 97 bb c9 f8 35 bc ff 9d 6f 3c 10 4c 2d 3b
       -0.0046253656 -0.011106678 0.014625072 0.0026443042
000220 09 0d c4 39 ed b2 7b 3c f1 f1 21 3c ba 7a 13 3c
       0.00037393745 0.015362483 0.0098843435 0.009001428
000230 27 1a 64 bb 8e 9f 31 3c 59 d0 82 b8 5b 5f 86 bb
       -0.0034805627 0.010841263 -6.237691e-05 -0.0041007227
000240 b0 20 3e 3c d7 1c 91 bc 6b 5d 83 3c 81 f2 00 3c
       0.011604473 -0.017713947 0.016035756 0.007870317
000250 cd da 00 3c 6c a9 da 3a 5f 3f 90 3a f8 5d db 3c
       0.007864666 0.0016682572 0.0011005214 0.026778206
000260 92 9a 01 3c 49 51 c1 3b 8b 89 4e bc bb 0f cf b9
       0.007910388 0.0058995825 -0.012606035 -0.00039493837
000270 5a e6 77 bb bd 0b 44 bb 2b 79 c4 bb cd e4 7e bb
       -0.003782651 -0.0029914223 -0.0059958897 -0.00388937
000280 7d f9 d8 bb 7c 1a 4c bb 6a 74 68 bc c0 5e b8 3c
       -0.006621538 -0.0031143716 -0.0141879115 0.022506118
000290 f6 1f 2a ba 94 9f 42 3b 1e b1 12 3b 7d ff 75 3c
       -0.0006489748 0.0029697167 0.0022383402 0.015014526
0002a0 88 8c 69 3a b8 ce 05 bb 8d da 8b 3b 4b d3 3a 3c
       0.00089091854 -0.0020417403 0.0042679966 0.011402915
0002b0 94 ea 11 bc d1 ab 21 bc 5d d6 38 bb b8 d3 8b bc
       -0.008906025 -0.009867624 -0.0028203942 -0.017068729
0002c0 bb af 98 bb a0 10 10 bc 27 52 bc ba 55 12 f8 3b
       -0.0046596206 -0.008793026 -0.0014367745 0.0075705447
0002d0 22 33 e4 3a 36 5c 7e 3b 9d 1b 3e 3c b4 c4 44 3c
       0.0017410258 0.0038812286 0.011603263 0.012009788
0002e0 87 a0 c7 bc e9 3c 60 bb 13 a5 a2 bc 58 db b1 ba
       -0.024368538 -0.0034215993 -0.019854104 -0.0013569398
0002f0 4d 03 d3 3c 38 56 b8 3b 74 f9 3a bc 61 33 c0 b9
       0.02575841 0.0056255125 -0.011412013 -0.00036659374
000300 06 a0 b5 3c 0b a3 a1 bc ee 07 04 bb 7f e7 f6 bb
       0.022171032 -0.019731065 -0.0020146328 -0.0075349207
000310 7b 3e 7a 3b e7 67 1c bc ed be 23 3c 35 98 0e 3c
       0.0038184214 -0.009546257 0.009994251 0.008703281
000320 5e f9 f2 bb 58 76 f5 bb d1 a8 b7 bb 70 3c 97 3c
       -0.007414981 -0.0074909143 -0.0056048413 0.018461436
000330 35 71 3a 3c 9a b8 67 3c e4 6e d7 3b 98 2c 4c b8
       0.01137953 0.014143134 0.0065744985 -4.867892e-05
000340 79 3a 87 3c f1 b9 2b bc ac 5a 9c 3c 53 29 25 3b
       0.016507374 -0.010481344 0.019086204 0.0025201633
000350 05 89 6b bc 00 c5 d8 bb cc c0 bb bc f5 03 cc 3c
       -0.01437593 -0.006615281 -0.022919081 0.02490423
000360 bf fc eb ba b7 9b 26 3c 90 e9 52 3b c2 94 07 bb
       -0.0018004401 0.010168961 0.003218267 -0.0020688032
000370 ae a0 22 3b 83 69 49 ba 39 1e be bb 38 e2 21 3c
       0.002481501 -0.0007683264 -0.0058019427 0.009880595
000380 99 51 67 bc 63 a5 9a 3c 7e eb 30 bb 22 87 17 3c
       -0.0141185755 0.01887769 -0.0026995833 0.009248527
000390 57 81 e5 bb 39 b9 21 3c 94 91 c9 bb 7a cc 63 39
       -0.007003944 0.009870821 -0.0061513875 0.0002172458
0003a0 85 0e dc 3b 2b 4a a3 bc 4d a6 4f bb 89 f2 82 bc
       0.006715598 -0.019932827 -0.0031684816 -0.01598479
0003b0 47 17 ae ba 7b a3 6c bc 70 64 69 3c 30 dd 49 3b
       -0.0013282084 -0.014443274 0.014245138 0.0030802004
0003c0 4b 11 9c bb 14 9f 59 ba 8b 17 0e 3c 21 72 13 bc
       -0.0047628037 -0.00083015976 0.008672605 -0.008999378
0003d0 05 3c 4d 3c f3 d6 f1 ba ef 3b cf bb 2a bc df 3c
       0.012526517 -0.0018450901 -0.0063242833 0.027311403
0003e0 89 2e 6f bb df a6 e9 3b 18 7e 66 3b 17 51 b7 ba
       -0.0036496243 0.0071304883 0.0035170373 -0.0013985959
0003f0 65 65 7f bb 2a 2a 0c bc 4b b1 1f bc 18 f9 6a bc
       -0.0038970348 -0.008554975 -0.00974686 -0.014341615

conv3.0.bias f4 [16]
000000 84 c6 90 bc b7 98 ac ba 01 bc 53 37 e2 98 d3 33
       -0.017672785 -0.0013168071 1.2620353e-05 9.8532624e-08
000010 24 91 66 bc e0 28 4f bc d6 46 b8 b8 39 d3 89 b1
       -0.01407269 -0.012644023 -8.786998e-05 -4.011238e-09
000020 0c df ff bb 7e dd e5 37 5d fd 4e 3b 6b dc 55 b2
       -0.0078085717 2.7402068e-05 0.0031584122 -1.2448349e-08
000030 61 73 e7 3a 32 4e 25 38 88 5e 38 3b e1 72 93 3a
       0.0017658287 3.941189e-05 0.0028132517 0.0011249447

conv3.1.weight f4 [16]
000000 fd dc 68 3f cd ef 68 3f 5d d4 68 3f c9 d8 68 3f
       0.909622 0.90990907 0.9094904 0.9095579
000010 4f d7 68 3f 28 d7 68 3f 86 d8 68 3f 65 d8 68 3f
       0.90953535 0.909533 0.9095539 0.9095519
000020 0c d7 68 3f 99 d7 68 3f 68 d9 68 3f bb dc 68 3f
       0.90953135 0.90953976 0.90956736 0.9096181
000030 b9 e2 68 3f 9a d6 68 3f 65 de 68 3f ad d8 68 3f
       0.9097095 0.90952456 0.9096435 0.9095562

conv3.1.bias f4 [16]
000000 7a 23 43 ba 09 75 1e 3a 5f a7 8b ba 75 5c 96 ba
       -0.0007443946 0.0006044661 -0.0010654739 -0.0011471646
000010 67 97 73 ba 90 5c 8b ba 8c 95 a2 b9 b8 21 df b8
       -0.0009292275 -0.0010632444 -0.0003101047 -0.00010639749
000020 8c 34 f5 b9 37 6a e1 38 41 41 7d b9 19 28 54 bb
       -0.00046769192 0.0001074862 -0.00024152269 -0.0032372533
000030 ca 3e ea ba c0 09 82 ba b9 ec 01 bb e9 e9 8e b9
       -0.0017871496 -0.0009921119 -0.0019824936 -0.00027258627

conv3.1.running_mean f4 [16]
000000 8a bc cb 3c e3 01 d7 bb b8 01 df 3c 3f dd df bd
       0.024870176 -0.006561504 0.0272225 -0.10930871
000010 9d e3 54 bc 7a 6b 8a bd 93 78 b3 bc f5 f8 fe bc
       -0.01299372 -0.06758781 -0.02190808 -0.031124571
000020 86 ae 47 bc 7a 32 f9 3b 9b 39 d8 bc cf 99 b0 bc
       -0.012187606 0.007604894 -0.026394656 -0.021557717
000030 eb c7 5f 3b 3a 8a 92 bc ac 82 4e bb ba 67 45 3d
       0.003414626 -0.017888177 -0.0031510992 0.048194624

conv3.1.running_var f4 [16]
000000 d5 8d 2b 3b b2 ee c1 3a 55 bd 0a 3c cc d9 68 3c
       0.0026177068 0.0014795868 0.008467992 0.014212083
000010 be 16 c9 3b 3f e9 ec 3b 05 66 0c 3b e3 8c 96 3b
       0.0061367443 0.0072299535 0.0021423113 0.0045944317
000020 de 94 da 3b c5 69 89 3b a1 30 23 3b fb a4 a1 3a
       0.0066705784 0.004193517 0.0024900811 0.0012332493
000030 05 c8 7d 3a 81 84 7d 3b ee 4d cf 3a 4f 1c bf 3b
       0.00096809893 0.0038683715 0.0015816072 0.005832232

conv4.0.weight f4 [16, 16, 3, 3]
000000 af 38 fd ba 43 96 1a bb 5d 8d 2f bb 1c 3c fd 3a
       -0.0019319261 -0.0023588098 -0.002678714 0.0019320282
000010 30 d9 35 bb bc 5f 7d 3c 37 30 00 bb a3 39 2c 3b
       -0.0027747862 0.015464719 -0.0019559988 0.0026279471
000020 82 e7 87 bb 01 d4 b2 bb 75 26 5e 3c e3 43 2f b9
       -0.004147471 -0.0054574017 0.013558974 -0.0001671459
000030 c4 34 cd ba 25 3e 9a bb 66 a1 93 bc 56 c9 12 3c
       -0.0015655984 -0.0047071152 -0.018021297 0.008959135
000040 cb 43 86 bb c9 9c d7 ba fd 33 26 bb 21 fd e6 bb
       -0.004097437 -0.0016449924 -0.0025360577 -0.0070492183
000050 c4 3f 73 bb 5a 3c 07 bb aa ee 5b 3c 74 ea cf 3b
       -0.0037116865 -0.0020635338 0.013423601 0.0063450877
000060 a9 27 d8 b9 f6 f8 8d ba 1c 89 3b bb 1a de dd bb
       -0.0004122828 -0.0010831642 -0.002861566 -0.0067708613
000070 ba 0b 0d bb d2 67 a9 bc d8 99 36 3c 52 ac 89 3a
       -0.0021521882 -0.020679388 0.011145078 0.0010503626
000080 7b 01 0c 3c cb d8 85 bb 42 56 82 3b 5b 00 74 3c
       0.008545275 -0.0040846816 0.003977568 0.014892663
000090 60 9e 07 bc eb 4a 72 ba 6b 45 92 bc 4a be da 3a
       -0.008277506 -0.0009242731 -0.017855367 0.0016688791
0000a0 33 3c 00 3b 3e ad 94 bc f3 4b 91 bb 6d 2a 88 ba
       0.0019567132 -0.018149015 -0.0044341027 -0.001038862
0000b0 1a 75 6c 3b c7 0d a7 3c e4 11 2e bc a3 47 bf 3a
       0.003608054 0.020392312 -0.010624383 0.0014593493
0000c0 97 48 88 3c 67 01 ba 3c a1 4f 63 3c 5f bc 1b 3c
       0.016636176 0.022705747 0.0138739655 0.00950536
0000d0 69 e2 4e 3c 00 25 2d 3b 11 c7 c2 ba 2a fe b1 3b
       0.012627223 0.0026419759 -0.0014860352 0.00543191
0000e0 1d 03 3c 3b 57 00 87 3c 5a 9f 94 3c b5 36 26 3b
       0.002868838 0.016479654 0.018142391 0.0025362198
0000f0 8c 46 df 3b 47 b1 92 3b 45 39 fb 3b e8 fd 51 bb
       0.0068138298 0.0044766995 0.007666739 -0.003204221
000100 b6 64 16 ba 26 13 b2 bc 82 0b ee ba 64 f4 37 ba
       -0.0005737053 -0.021737646 -0.0018161389 -0.0007017313
000110 15 70 82 bb 61 c7 9a bb 7e 6b 4d ba 5a cf bc ba
       -0.0039806464 -0.004723475 -0.0007836147 -0.0014405057
000120 9f 83 58 3c bd 56 a5 bc fe ac 00 ba 8d 53 97 3c
       0.013214975 -0.020182962 -0.00049085903 0.018472457
000130 bd f1 12 3c 76 ad 7a 3a 12 3a 99 bc 81 f9 3f 3b
       0.008968768 0.0009562591 -0.018704448 0.0029293003
000140 9e f1 31 ba c4 c5 68 3c 1c d0 8f bb 45 7c e2 bb
       -0.0006788018 0.014207307 -0.0043888222 -0.0069117867
000150 8f 4f 83 3c c1 11 b4 3a 74 4b 0b 3c f5 63 be bb
       0.016029147 0.0013738201 0.008501876 -0.0058102557
000160 05 da b2 3c d3 f2 9e bc 30 40 61 3c c8 1a a2 ba
       0.021832475 -0.019402897 0.013748214 -0.00123676
000170 ca dc 7c ba cd d8 22 bb d8 0d ae 3b 34 db 5d bc
       -0.0009645937 -0.0024848462 0.005311709 -0.013541032
000180 36 e0 85 3c e1 85 51 3a 26 27 07 bb e4 b5 9d 3c
       0.016342264 0.0007992667 -0.00206227 0.019251771
000190 cd 95 02 bb 07 df 3b 3c e1 73 9b bc 67 82 10 bb
       -0.0019925714 0.011466748 -0.018976154 -0.0022050382
0001a0 40 c4 0a ba 7d 82 dc ba 4e 28 0f 3b 69 b3 25 3c
       -0.0005293526 -0.0016823557 0.0021844092 0.0101135755
0001b0 c5 d3 62 bc 25 bc 25 bc 60 58 7d bb a7 b3 de b9
       -0.013844435 -0.010115658 -0.0038657412 -0.0004247699
0001c0 0b b3 ac 3a 64 31 3b bb 31 15 b1 3b 9c 80 7f 3b
       0.0013175918 -0.0028563375 0.0054041375 0.003898657
0001d0 ff 07 90 3b 6f cf 72 ba 71 cc 3a bb 58 7a 0b 3c
       0.0043954845 -0.00092624774 -0.0028503204 0.008513056
0001e0 51 25 b8 bc e2 2d 87 bb 96 18 89 bb d9 43 64 3c
       -0.022478731 -0.0041253427 -0.004183839 0.013932192
0001f0 fb f9 b7 3b 4b 3f 49 bb ec d7 0c bb 06 46 e5 bb
       0.005614517 -0.0030707892 -0.0021491004 -0.006996873
000200 45 d5 2e 3b f3 88 a4 ba 0f 5f 9a bb dc b0 55 bb
       0.0026677412 -0.0012553021 -0.004711039 -0.0032606637
000210 0e 38 69 bb 38 0e 37 bb 1b 5b bd bb ab ea 53 3c
       -0.003558639 -0.002793206 -0.005778683 0.012934367
000220 96 42 40 ba 1a fe 4b 3a 55 67 17 bc 08 f6 35 bb
       -0.0007334141 0.00077816995 -0.009240945 -0.0027765054
000230 89 5a 12 bb 4e d7 4b ba 25 06 87 b9 b6 ac 02 bb
       -0.0022331795 -0.00077759183 -0.00025753785 -0.001993937
000240 d2 52 cc 3b c3 eb 71 3a 2c ff 56 bc be 45 de 39
       0.006235459 0.00092285516 -0.013122361 0.00042395102
000250 1f f7 e9 3a a5 71 8e bb f5 19 f5 bb a8 61 8a 3c
       0.0017850137 -0.0043470436 -0.007479901 0.01689227
000260 20 35 86 bc be 24 19 bb 69 f6 82 3c 4e 36 1f bb
       -0.016382754 -0.0023367847 0.015986638 -0.0024293843
000270 6b a2 aa 3b 6f 36 c2 bb c3 42 a8 bb cb 24 10 bd
       0.00520735 -0.005926899 -0.0051349117 -0.03519134
000280 0e 4c 45 3c ec 13 5f bc 2c a4 18 3b 91 2b 80 3c
       0.012042059 -0.01361559 0.0023291213 0.015645774
000290 20 30 fd ba e7 69 16 3c a5 03 b1 3b 75 8f 8a 3c
       -0.001931671 0.0091805225 0.005402046 0.016914109
0002a0 a5 a0 92 bc bd fd 63 3c 6f 35 af 3a 59 95 11 bc
       -0.017898867 0.013915476 0.0013367365 -0.008885705
0002b0 db 3f d3 3b 63 da 8d bc f0 80 e5 3b aa 90 a3 3a
       0.006446821 -0.017316049 0.007003896 0.0012479026
0002c0 0b b5 95 3c 73 fa cc 3b 38 05 8c b9 c5 fb ce 3b
       0.018274805 0.006255442 -0.0002670677 0.0063166344
0002d0 7d 0c 61 bb 52 65 a5 3c 30 b4 69 3c 69 db dd bb
       -0.003433972 0.020189915 0.014264151 -0.0067705405
0002e0 83 60 8d bb b4 83 ff bb c0 86 90 3b 76 d1 46 3c
       -0.0043144836 -0.0077976827 0.0044105947 0.0121349
0002f0 1d da 8e bb 24 b0 10 bb 13 6d 5f bc 4a 38 16 bb
       -0.004359497 -0.0022077644 -0.013636845 -0.0022921734
000300 36 79 c1 39 b9 40 e4 3a 74 71 2b 3c c0 55 ee ba
       0.00036902138 0.0017414308 0.010464061 -0.0018183514
000310 31 36 36 bb e6 63 0d 3c 74 0c 72 3c 7f ad a2 3b
       -0.0027803297 0.008629775 0.014773477 0.00496453
000320 22 18 65 ba 40 46 ac bb fe 48 2c 3c d9 77 61 ba
       -0.0008739253 -0.005257398 0.01051545 -0.00086009275
000330 13 96 c8 ba 55 01 37 bc 04 4e f3 3b 7f 4b a9 bc
       -0.0015303515 -0.011169751 0.0074250717 -0.020665882
000340 49 48 77 3c 79 7f 9d 3a dc 13 77 b8 9e 6a a5 bc
       0.015092918 0.0012016139 -5.8907885e-05 -0.02019244
000350 ba 4d e9 ba ac a5 bd bb 1d 42 15 3c 6f 7e de 3b
       -0.0017799654 -0.005787572 0.009110001 0.0067899744
000360 51 49 ac 3a 7e 5f 6e bb de 5c 20 3c e2 ee 7c bb
       0.0013144409 -0.0036372836 0.009787766 -0.0038594534
000370 52 2f df 3a e4 34 ad 3b ce a9 84 3c a7 71 0b bb
       0.0017027652 0.005285846 0.01619425 -0.002127746
000380 a2 3b 2c bb 9d 25 cf ba 30 7a 95 bb b2 20 47 bb
       -0.002628066 -0.0015804056 -0.004561685 -0.0030384478
000390 5c 8e 27 bb e1 7e af 3b 96 95 88 bb 05 04 e5 bb
       -0.002556703 0.0053557013 -0.0041682227 -0.0069890046
0003a0 f3 e9 11 bc aa b8 2e bb 09 6c 9c 3a 71 04 30 3c
       -0.0089058755 -0.0026660361 0.0011934052 0.010743246
0003b0 86 3a 59 3b d4 72 49 bb 6b fc e1 b9 e3 18 9e 3a
       0.0033146455 -0.003073861 -0.0004310341 0.001206186
0003c0 36 f5 eb 3b d8 27 8c 3a 60 4d 56 3b 0b 52 eb bb
       0.0072008623 0.0010693027 0.0032699928 -0.007181411
0003d0 a4 92 93 3c 2a 9c e1 3b c0 35 6c bc 2f 0c 7e ba
       0.01801426 0.0068850713 -0.014417112 -0.00096911466
0003e0 51 22 b0 3a ee 59 e4 3c fb a1 45 b9 5b 82 a4 3c
       0.0013437961 0.027874913 -0.00018847726 0.02008169
0003f0 fa c1 cd 3b 6c 82 97 3b 2b ea 97 37 f5 09 66 bb
       0.0062792273 0.004623702 1.8109646e-05 -0.003510115

conv4.0.bias f4 [16]
000000 55 78 b3 bb 88 9d 9a 3c 7f 20 a2 3c 09 58 4d bc
       -0.005476991 0.018873945 0.019790886 -0.012533196
000010 c6 4c 2e 2f 54 e5 8e 3b 58 e3 dd bb ca c0 a5 bc
       1.5852483e-10 0.004360834 -0.0067714863 -0.02023353
000020 50 5c 2c 3a fb 72 80 3b 6e 55 b3 b0 8c c7 e7 bb
       0.0006575035 0.0039199567 -1.3048245e-09 -0.0070733484
000030 a3 29 90 32 0d 93 3d bc 22 d1 61 3b d5 a4 55 bc
       1.678274e-08 -0.011570704 0.0034456928 -0.013039787

conv4.1.weight f4 [16]
000000 15 d8 68 3f 96 e9 68 3f 57 d5 68 3f a6 ec 68 3f
       0.90954715 0.90981424 0.9095053 0.90986097
000010 bf d6 68 3f 93 dc 68 3f a5 d6 68 3f c4 d3 68 3f
       0.90952677 0.9096157 0.9095252 0.9094813
000020 d3 d5 68 3f 80 d4 68 3f a9 d2 68 3f 14 d7 68 3f
       0.9095127 0.9094925 0.9094644 0.90953183
000030 0a df 68 3f 72 f7 68 3f 39 d5 68 3f d7 d0 68 3f
       0.9096533 0.9100257 0.9095035 0.90943664

conv4.1.bias f4 [16]
000000 02 df fe 37 7b c9 a8 bb b3 8b 38 bb f1 2e 87 3a
       3.0383006e-05 -0.0051509715 -0.002815944 0.0010313672
000010 93 a4 ee ba 9c 6e 65 bb c4 71 89 ba 69 5d 35 bb
       -0.0018207006 -0.0035008555 -0.0010486175 -0.0027674085
000020 c0 57 da b9 78 39 46 bb 37 b3 9b ba 21 82 83 ba
       -0.0004164558 -0.0030246656 -0.0011878972 -0.0010033288
000030 2c 81 2f bb 35 e4 fb bb 33 6c 32 bb 84 8d b7 ba
       -0.0026779873 -0.0076871165 -0.0027225136 -0.0014003967

conv4.1.running_mean f4 [16]
000000 7e 27 2e 3d 0d cd 89 3d f7 70 0b 3d 44 cb 33 3c
       0.04251813 0.067285635 0.03404328 0.010973755
000010 19 f0 10 bc 90 f7 94 3c 3d 9e 76 bb 6f 6e c1 3b
       -0.008846306 0.018184453 -0.0037630938 0.0059030573
000020 a7 5c 69 3d 32 7e 1d bd fc f6 bc 3c 55 43 09 bd
       0.056973126 -0.038450427 0.02306699 -0.03351148
000030 57 f7 29 3c c0 fa cd 3a b1 73 93 bb fd 78 52 bd
       0.010373912 0.0015714988 -0.0044998755 -0.051384915

conv4.1.running_var f4 [16]
000000 56 a8 94 3b b6 fb f5 3a 5e 72 ea 3a e6 1a 15 3b
       0.004536669 0.0018767032 0.0017886867 0.0022751628
000010 d2 d6 c5 3b 49 41 b0 3a f7 41 7d 3b 75 60 b1 3b
       0.0060375715 0.0013447191 0.0038644054 0.00541311
000020 cb d5 21 3c a8 00 5f 3b 41 ea 95 3b 4e e9 6a 3b
       0.009877632 0.003402749 0.0045750444 0.0035844627
000030 79 da 03 3b bc b0 d6 3a 5b f5 fc 3b dd fb 0e 3c
       0.0020119234 0.0016379575 0.0077196783 0.008727041

conv5.0.weight f4 [16, 16, 3, 3]
000000 68 9d 1a 3a 8b cf 08 bc 34 24 b4 bb 94 cb 33 3b
       0.0005898089 -0.008350263 -0.00549748 0.0027434574
000010 51 71 54 bb 3c 14 9c ba 8c 42 2c 3b 8b 45 b9 3b
       -0.0032416175 -0.0011907886 0.0026284782 0.005654042
000020 65 0b 8d 3c 1d 1e 18 b9 ce 11 74 39 de fb 90 ba
       0.017217347 -0.00014507068 0.00023276286 -0.001106139
000030 df b7 49 bb 48 6d 6f ba 85 ff 49 3c ba 4f 3f 3c
       -0.0030779762 -0.00091334106 0.012328987 0.011676723
000040 81 7c e2 3b cb a9 cf 3b c4 f4 d4 3a 3b 4e 5e bb
       0.0069118147 0.0063373796 0.0016247262 -0.003392114
000050 b8 82 98 bb 52 12 5e ba 80 53 cf 3a 4c 08 22 3b
       -0.0046542548 -0.0008471358 0.0015817732 0.0024724184
000060 19 93 36 bb 6d 0b 02 bc 3c 21 1a bc ce 8b 15 3c
       -0.0027858673 -0.007937294 -0.009407338 0.00912757
000070 ff 02 79 3c f5 88 4d 3c d3 19 9a 3c bd 95 35 ba
       0.015198468 0.01254486 0.018811142 -0.0006926915
000080 e5 1f 8f 3c 2e 30 77 3c b9 a3 6d 3c ca bb a0 3c
       0.017471263 0.0150871705 0.014504367 0.019620795
000090 f9 7e b0 bb 92 ea 8c 3c 6c 73 0a 3c 49 36 0c bc
       -0.00538623 0.017201696 0.00845037 -0.008557864
0000a0 e7 a3 91 bb 6a 7a c7 b9 36 b8 10 bc 1c a1 4f 3c
       -0.0044445875 -0.00038047443 -0.008832982 0.012672689
0000b0 0a f7 80 ba 2a 35 21 bb bb e9 c1 3b 49 66 02 bb
       -0.0009839248 -0.0024598339 0.0059177554 -0.0019897392
0000c0 4b aa 1b 39 b0 fe 2c bc 55 61 63 ba d0 69 e1 39
       0.00014845391 -0.010558769 -0.00086738664 0.0004299418
0000d0 15 b8 13 3b 63 27 9e bb d6 7a 2d 3c 03 3c 8c 3c
       0.0022540141 -0.0048264726 0.010588368 0.01711846
0000e0 e1 fd 82 3a 40 c4 16 bb e7 10 e2 3b f0 d5 1a 3c
       0.0009993875 -0.0023005158 0.0068989876 0.009450421
0000f0 ae 16 b9 bb c4 96 fc b9 70 89 02 bc 13 aa 02 bb
       -0.0056484556 -0.00048177515 -0.007967338 -0.0019937798
000100 f5 44 85 bc a4 07 b4 3c 67 54 5f 3c 24 b4 e8 b9
       -0.016268233 0.0219763 0.013630963 -0.00044384704
000110 ae 4d 80 3a 02 3a 0e 39 c9 49 50 bb 96 0d 2e ba
       0.0009788775 0.00013563785 -0.003178226 -0.00066395977
000120 5e b0 c6 3a 55 c6 d6 3a 3b fd 92 3b eb be a5 39
       0.0015158763 0.0016386012 0.004485754 0.00031613497
000130 df f0 18 bb 72 2f 35 3b 17 2c 56 3c 9f 1b 22 bc
       -0.002333693 0.0027646688 0.013072035 -0.009894281
000140 ee 00 3f 3c 0b 5c 14 3c 3e ec e1 bb ef f4 4b 39
       0.0116579365 0.009055148 -0.0068946173 0.00019450833
000150 60 35 44 3c 6e f2 74 3c 6b 78 3c ba 12 33 8a bc
       0.011975616 0.014950378 -0.00071895745 -0.016870055
000160 de 35 04 3c 76 7a 90 ba da 7c d5 39 8c a0 57 3c
       0.008069484 -0.0011022824 0.00040719548 0.013160836
000170 4e 0c a5 bb 57 99 93 ba 59 c3 5d 3c 2a e5 a7 39
       -0.005036867 -0.0011260909 0.013535344 0.00032023463
000180 59 a3 de 3a 3c 25 20 bc d2 37 d8 b9 34 04 05 3c
       0.0016985937 -0.009774502 -0.0004124032 0.008118678
000190 85 c3 1e bc a6 d1 d1 39 f3 59 f1 3b 49 56 c4 bb
       -0.00969017 0.00040019787 0.007365459 -0.0059917313
0001a0 6a 28 52 bc 14 b4 28 3c 6e e8 0e 3c 85 36 5d 3c
       -0.012827018 0.01029684 0.008722408 0.013501768
0001b0 7c 69 68 3c 58 a9 e4 3a c3 90 ca bb 1d e4 ae 3b
       0.014185306 0.0017445488 -0.0061818077 0.005337252
0001c0 be c6 52 bb 18 49 ce 3c f6 0f 8d 3c f4 24 ba bb
       -0.0032161917 0.025181338 0.017219525 -0.0056806747
0001d0 18 13 9f 3a c7 aa b7 bb 32 ea bc 3a fd 2c 75 3c
       0.0012136428 -0.005605075 0.0014413057 0.014964339
0001e0 d6 de 8b bb 13 b0 28 3b f4 83 b5 bc 12 89 24 bc
       -0.0042685075 0.0025739714 -0.022157647 -0.010042446
0001f0 10 43 be bb 94 f7 95 3b 64 02 9b bc 4e 0d 21 bc
       -0.0058063343 0.0045766328 -0.018922038 -0.009829832
000200 13 b9 23 3c 6d df 44 3c 7e dd 7c bc bd 18 b9 3a
       0.009992856 0.0120161595 -0.015433667 0.0014121752
000210 94 d4 e1 3b 08 04 df 3b 4e 9a d4 ba 75 78 f8 3a
       0.0068917964 0.0068059005 -0.0016220303 0.0018956797
000220 3e e7 c1 3b d3 f7 09 39 64 20 b3 3b 27 08 3e 3b
       0.005917459 0.0001315766 0.0054665077 0.0028996558
000230 8e 2e 0e bc 86 74 9e bb 68 88 19 bb 6d 1c 76 bb
       -0.008678092 -0.004835668 -0.0023427252 -0.0037553564
000240 3f b6 1b bb ca f6 41 bb da 15 ca bb 05 66 df ba
       -0.002375975 -0.002959656 -0.0061671557 -0.0017043954
000250 06 a9 2a 3b 0e 4d 03 bb 3a 84 bb bb bd 08 5d bb
       0.0026040687 -0.0020034942 -0.0057225497 -0.0033727132
000260 e6 d2 87 bb 3a e6 e4 3b 05 11 9f bb 25 03 be 3c
       -0.004145014 0.006985453 -0.004854324 0.023194859
000270 50 c1 fb 3b 4e ba df ba a2 f5 08 3b 95 ee a8 3c
       0.0076829568 -0.0017069073 0.0020898362 0.020621577
000280 31 f2 c8 bb d9 9c 6d 3c 67 cf 80 3b 07 6f 82 3b
       -0.006132387 0.014502727 0.0039309743 0.0039805206
000290 e1 81 2e bb 17 28 5b ba 77 46 38 3b 0f 38 5b 3c
       -0.0026627707 -0.0008360161 0.0028118172 0.013380065
0002a0 9a 49 ac 3b c1 96 fa ba fe 9a 05 3c 57 7c 2f 3a
       0.0052577974 -0.0019118414 0.008154629 0.00066942483
0002b0 58 e2 9e 3a de cd 32 3b 41 c2 44 bb d9 53 25 3b
       0.0012121899 0.002728335 -0.003002301 0.002522698
0002c0 f0 4d e7 3a 35 9b 5d bc 69 69 cd bb a9 b3 3d bb
       0.0017647129 -0.013525774 -0.0062686694 -0.0028946197
0002d0 12 4e 63 bc 8b 68 09 3c f6 a3 0c bc 20 9a 5b ba
       -0.013873594 0.008386741 -0.008584013 -0.00083771534
0002e0 b8 b6 18 bc 08 61 b7 3b 50 a1 c5 3b 0b 5b 19 bb
       -0.009320907 0.005596284 0.006031193 -0.0023400213
0002f0 c5 f9 f6 3a 92 3f 19 3c 9a 85 db b9 05 50 0f bb
       0.0018842748 0.009353535 -0.00041870476 -0.0021867764
000300 39 c9 85 3c 6e 9b 70 bb 74 81 45 3c cf 20 0e 3b
       0.016331302 -0.0036713737 0.01205479 0.0021687036
000310 7a 84 be bb 56 83 d5 3b 17 ad ec 3b 93 30 fa 3a
       -0.0058141323 0.0065159006 0.0072227824 0.0019087963
000320 96 18 f9 38 5d 15 aa 3b 98 1e d2 3b 25 8b 4f bb
       0.00011877825 0.005190535 0.0064123385 -0.003166863
000330 2d 03 b9 bb 25 e8 d2 bb d9 46 db 3b 10 27 1c 3b
       -0.0056461305 -0.006436365 0.0066917953 0.0023826994
000340 3e 68 09 b9 db 80 0a ba a0 bb 75 3a 85 8e ab ba
       -0.00013104171 -0.0005283483 0.00093739666 -0.0013088739
000350 a9 70 17 bc 8f 2d b9 ba 35 08 0b 3b fe 49 95 bb
       -0.009243169 -0.0014127957 0.0021214609 -0.0045559397
000360 bc cd 52 3b 84 14 82 3c d7 8b b6 3b 65 ec df ba
       0.0032166084 0.015878923 0.0055708694 -0.0017084001
000370 18 3d 8e bc 62 11 83 bb a0 31 71 bb 3f 1f ce bb
       -0.017363116 -0.003999875 -0.003680326 -0.006290346
000380 d9 52 1b bc aa f0 4c 39 66 2e 82 b9 47 e3 5b 3c
       -0.009480202 0.0001954461 -0.00024830102 0.013420886
000390 33 a3 47 bb 0e 9d d6 3b cc 31 92 3b 9a da 11 bb
       -0.0030462265 0.006549484 0.0044615027 -0.002225554
0003a0 7a 0d 94 ba b9 d3 0b 3c ea 35 f8 3a b0 bc 18 bb
       -0.001129552 0.008534365 0.0018936966 -0.0023305826
0003b0 5c c3 ac 3b 8c 0a 40 3b 9d 8c e5 bb 2e 78 3e 39
       0.005272312 0.0029303161 -0.007005288 0.00018164582
0003c0 d5 2f 29 3b f9 4b 1a 3b bc 24 3a 3c 99 61 94 bc
       0.0025815864 0.0023543818 0.011361297 -0.018112944
0003d0 6b 6f 7a bc c3 4e 16 bc df ba 3c bb 65 c8 18 3c
       -0.015285353 -0.009174052 -0.0028797907 0.0093251215
0003e0 bd 04 9b b9 8f 9a aa 3a 88 46 2e 3c 9c 9b 39 3b
       -0.00029567434 0.0013016033 0.010636933 0.002832151
0003f0 a0 0e b9 bb a6 2a 0b 3a e8 e1 b7 3b 0e 91 a4 3b
       -0.0056474954 0.00053087843 0.005611647 0.0050221747

conv5.0.bias f4 [16]
000000 20 32 96 36 4f 5a 22 b6 3c 2e c2 bb 83 c3 81 ba
       4.4761837e-06 -2.4192448e-06 -0.0059259217 -0.0009900186
000010 32 77 00 bc 67 0b 43 b8 b9 14 0c b9 01 b5 94 39
       -0.007840918 -4.6502242e-05 -0.0001335916 0.00028363618
000020 e5 19 4b b9 61 84 5a bc 72 c1 ac b9 d9 55 fb bb
       -0.00019369235 -0.013337226 -0.00032950524 -0.007670146
000030 a4 7e cb b6 11 c8 ab ba bb cb 21 b1 9e 78 16 b2
       -6.0646144e-06 -0.0013105889 -2.354439e-09 -8.758574e-09

conv5.1.weight f4 [16]
000000 e4 3f 69 3f d1 bc 69 3f 79 00 6a 3f c7 cf 69 3f
       0.91113114 0.91303736 0.9140697 0.9133267
000010 64 26 69 3f 40 02 69 3f c6 1c 69 3f 7b ee 69 3f
       0.91074204 0.9101906 0.9105953 0.9137952
000020 7e d2 69 3f 5b 09 6a 3f 82 cd 69 3f f8 24 69 3f
       0.9133681 0.91420525 0.91329205 0.91072035
000030 f8 2e 69 3f c1 8c 69 3f ee 7f 69 3f 8b 7c 69 3f
       0.91087294 0.912304 0.9121083 0.9120566

conv5.1.bias f4 [16]
000000 03 5c 2d 3d 34 78 02 3d 1c 46 10 3d 2c 59 f9 3c
       0.042324077 0.031852916 0.03522311 0.030438028
000010 a2 1f 0b 3d 14 79 db 3c 4d 03 0b 3d 83 c5 06 3d
       0.033965714 0.026791133 0.033938695 0.032903206
000020 93 e9 f8 3c 4f 3e 15 3d 16 91 07 3d b3 a9 13 3d
       0.030384814 0.036436375 0.03309735 0.03605051
000030 3c fa 1a 3d fc f6 d2 3c f5 d0 4f 3d d7 d2 47 3d
       0.0378363 0.025752537 0.050736386 0.048785057

conv5.1.running_mean f4 [16]
000000 9f 3e 56 3d 6c a2 c6 3c a8 95 41 3c 5d d4 e6 3c
       0.052305814 0.02424737 0.011815466 0.028177435
000010 b4 15 07 3d e2 e8 89 3c 26 be 32 3d 41 e0 03 3d
       0.032979682 0.01683468 0.04363837 0.032196287
000020 55 84 a8 3c f2 71 00 3c 50 1f 18 3d 27 2a 12 3d
       0.020570913 0.007839667 0.037139237 0.03568473
000030 3f 5b b2 3c 9a 48 18 3d c8 5c 28 3d 96 cf 57 3d
       0.021772025 0.037178613 0.041104108 0.052688204

conv5.1.running_var f4 [16]
000000 11 44 a9 3b 5d 06 fa 3b 31 cb 40 3c 30 fc 1c 3c
       0.005165585 0.007630153 0.011767195 0.009581611
000010 09 5f 86 3b 43 9d 83 3b 20 0f 99 3b 2b f9 f9 3b
       0.0041006845 0.00401655 0.0046709925 0.00762858
000020 88 50 22 3c e9 b9 07 3c 51 be 0b 3c 6c 58 97 3b
       0.009906895 0.0082840705 0.008529262 0.004618695
000030 22 af 39 3b ce 88 0f 3c 19 10 c7 3b 66 d3 a9 3b
       0.0028333147 0.008760644 0.006074917 0.0051826714
